CLIP/saved_models/model_CLIP-14_CLIP_weights.pth (torch, 58310 bytes, 6 tensors)

cls1.0.weight f4 [10, 768]
00000000: dc36 f23c f211 8bbd 4f98 dd3d e9e0 ce3c
00000010: a990 093d 9a9d 8dbd 07bf 37bc 534e fe3d
00000020: 517b 3ebd 9e87 a03d 9893 cebc 67f8 483c
00000030: 1277 f3bd ccb2 87bd d0a4 a73d 4d6e 513d
00000040: 6e83 053c a010 4c3d 0faa b1bd bde1 b1bd
00000050: e8e0 31be 1f26 c9bc c579 603d 1ea0 40be
00000060: 75a5 d03c abd8 1ebd 0465 71bd d996 b9bd
00000070: 0566 26bd 862d 99bc 691f c53d b2d9 643c
00000080: ee0b 423d e99c da3d 5e5b 2bbe 4d55 53bb
00000090: 843c af3d 73ab 053a d392 253d 45f0 9f3c
000000a0: f216 79bd 9666 41be 0286 5c3e eec0 913d
000000b0: 8333 803d 5955 97bc 2077 033e a47b 36bc
000000c0: 734f 533d 3864 493d 0cef 9739 4ac1 2ebd
000000d0: 4f98 143e e2ca 3e3d 267f d23c 6e14 a7bc
000000e0: 6fab 69bc 4284 983c 495b c4bc 4b61 103e
000000f0: b01b 5fbe d930 583e 5071 19bd c770 243e
00000100: a369 2abd 9065 16bd 187f febd 627e 2f3d
00000110: a3d2 b1bc fc07 7d3c 0b77 31bd 47f6 a63c
00000120: 5daf 173d e439 8e3d b8c3 6c3d 8f38 113e
00000130: 8a24 d53c 9259 93bd 82ca 9f3d a2d1 7b3d
00000140: 3c1a 5bbd 7461 e73c 0d87 f8bc a3d1 cc3c
00000150: 72a0 d83d 0c3b 11be 04be 33bd 5f2b 3a3d
00000160: e315 67bd 70cf 413d a7d7 f6bd ce5c 073c
00000170: 2783 363e 9789 d4bc 7054 d83d 0fea aa3c
00000180: ca05 a13c 0d14 203d 9bae 35bd 61ee 86bd
00000190: 5190 debd 575e e2bc 9fca 29be 6699 013e
000001a0: 84b2 09bd 0fee 5f3c f1a3 083d 1637 21bd
000001b0: f1f4 943d 8b86 b63c caa5 143d eab9 4a3d
000001c0: 6bad a9bd abef a73d 5584 df3d 64a6 c93d
000001d0: bd9b 1abd c3a8 453d 51c8 fd3c 274c a2bb
000001e0: c3a6 af3b 7879 e5bc 2e11 e3bc cf47 083d
000001f0: 1868 d7bc c1b6 043d 21a9 18bd 3079 aabd
00000200: acaa 233c f51c a73c 17a7 903d e0eb c03b
00000210: 8cbe e1bc 0977 dabc b11d 093e 236d 743c
00000220: efaa bf3c 8fac 333c cd90 b03c 8776 a93d
00000230: 49c5 7fbd c40b 9fbd 4986 863d 88dc fbbc
00000240: 7f3d 44be 3bdc 973b fd36 20bd 449a 5c3c
00000250: c9cb 373d f42e 96bd 49c7 493e 8fac 4dbd
00000260: d5ba b3bd e94b a23c fdde a5bb b772 aebc
00000270: aeed c43d 14a7 9ebd 11f3 86bd 19af 363e
00000280: 1eee e03d 7bcf 1d3e 51c9 103e 1fd9 ca3b
00000290: f0e6 d0bc 7a68 3ebd 87b5 ebbd cdaa 0cbe
000002a0: 34a0 fc3a 65b1 f43d 5c6d 883c d82b 193d
000002b0: 5adb a43c 997c 94bc d99d 313d 2959 0dbd
000002c0: 6d87 c2bd 581c c4bd 171e 663e bf4c 5fbc
000002d0: 79a7 92bb fcf1 623d b633 40bd 16c4 0b3c
000002e0: efb2 0c3d fc46 0dbd fcf3 263e 60aa 68bd
000002f0: 44c3 30bd 99fe 3d3b b64f 80bc e0c6 28bd
00000300: 7e0d 8d3d 4b53 9b3d f49e 63bb 7adc 8c3c
00000310: 0866 d73a 85f2 703d 621b 913d 0361 233c
00000320: 28b6 f3ba 712d 84bb a0e5 503c ec15 653d
00000330: ad47 c1bd 7593 aabd 1a60 c43d 76d7 453e
00000340: 8eaa fd3c dc03 84bd b1c4 e7bd d175 a2bd
00000350: b004 223d acc5 94bc 4a5c 1c3d 2564 65bd
00000360: 894d 023c a88e 6c3d 4066 d4bd 8d81 fcbc
00000370: da94 9c3d bbcf f73c 7954 08bd 5055 cebc
00000380: 87f3 15be 0b82 133d 6832 343d a05f da3d
00000390: 8aaf d8bc 6057 2cbe 3f81 c1bd 9be6 003d
000003a0: 679b 603a 5704 77be 6cd2 2b3e cf8d 903d
000003b0: 6fd3 efbd 79ed c6bd b010 d13d 0776 203d
000003c0: 088d c8bd 3313 c6bc cfd0 2c3e dd4a 5f3c
000003d0: 4edb a13c 121c 293d 73fc e0bb e64e 60bd
000003e0: e4c5 d3bc bb7e 0cbc 9e2e 093e cffd afbc
000003f0: 196e 0c3d 7f64 783d 3f80 12bc 1599 5d3d
0.029567175 -0.06790532 0.10820066 0.02525373 0.033585224 -0.06914826 -0.011214978 0.12417283
-0.046504322 0.07838367 -0.025216863 0.012266255 -0.11887945 -0.066259 0.08185732 0.05113058
0.008149011 0.049820542 -0.08675014 -0.08685634 -0.17370951 -0.02455431 0.05480363 -0.1881108
0.025469521 -0.03878085 -0.058934227 -0.09061975 -0.040624637 -0.018698465 0.09625132 0.013967918
0.04737466 0.106744595 -0.16734073 -0.0032246888 0.08556464 0.0005099095 0.040423226 0.01952375
-0.060812898 -0.1888679 0.21535495 0.071168765 0.06259825 -0.018473314 0.12838411 -0.011137877
0.05158944 0.04916784 0.00028979068 -0.042664804 0.14511226 0.046580203 0.025695395 -0.020395484
-0.014262064 0.018617753 -0.02396931 0.14099614 -0.21787906 0.21112384 -0.03746158 0.16058646
-0.04160465 -0.03671795 -0.12426585 0.042845137 -0.021706885 0.015443798 -0.04332642 0.020381106
0.037032474 0.069446355 0.05780384 0.14181732 0.0260184 -0.071948186 0.07802297 0.06147922
-0.053491816 0.028244711 -0.030337835 0.025002306 0.105774775 -0.14182681 -0.043882385 0.04545152
-0.056417357 0.04731697 -0.12052851 0.008261872 0.17823468 -0.025944514 0.1056298 0.020863561
0.01965608 0.039081622 -0.04435597 -0.06588436 -0.1086737 -0.027632875 -0.165812 0.12656173
-0.03361751 0.013667597 0.03335947 -0.039359175 0.07273281 0.022280952 0.03629092 0.049493708
-0.0828503 0.0820001 0.10913912 0.098461896 -0.03774618 0.048256647 0.030979307 -0.0049529257
0.0053604557 -0.028012022 -0.027718153 0.033271607 -0.026294753 0.03240085 -0.03727067 -0.08323896
0.009989422 0.02039955 0.0706312 0.0058874935 -0.02755668 -0.026668089 0.13390233 0.014918598
0.023396937 0.010966434 0.021553421 0.082745604 -0.062444005 -0.07765916 0.065685816 -0.030744806
-0.19164084 0.004634408 -0.03911494 0.013464514 0.04487208 -0.07333174 0.19704928 -0.050213393
-0.0877587 0.019811587 -0.0050619827 -0.021294935 0.09615646 -0.077467114 -0.0658933 0.17840232
0.10982917 0.15411179 0.14139296 0.0061904336 -0.025500745 -0.046486355 -0.11509233 -0.1373703
0.0019273818 0.11947898 0.01665371 0.03739533 0.020124126 -0.018125819 0.043363426 -0.034508858
-0.09498487 -0.09575719 0.22472416 -0.013629138 -0.0044755307 0.055406556 -0.046924315 0.008530637
0.034350332 -0.034491524 0.1630401 -0.056803107 -0.04315497 0.0028990863 -0.01566301 -0.041205287
0.06887339 0.07584246 -0.0034732195 0.017194975 0.0016433606 0.058825035 0.07085301 0.00997186
-0.0018593716 -0.0040337374 0.012750059 0.05592911 -0.09437499 -0.083289064 0.095886424 0.19320473
0.030965116 -0.064460486 -0.11316813 -0.07932628 0.03955525 -0.018160664 0.03817395 -0.05600371
0.007953056 0.057753235 -0.10371065 -0.030823493 0.07645579 0.03025042 -0.033283684 -0.025187165
-0.1464368 0.03601269 0.043993384 0.1066277 -0.026450891 -0.16830206 -0.0944848 0.031469923
0.00085680786 -0.2412275 0.16779488 0.07058298 -0.1171025 -0.09713263 0.10208261 0.03917506
-0.097925246 -0.024179077 0.16876529 0.013628689 0.019757893 0.041286536 -0.006866032 -0.054762743
-0.025851198 -0.008575137 0.1339669 -0.02148333 0.034284685 0.060642716 -0.008941709 0.05410107

cls1.0.bias f4 [10]
00000000: 4a03 ba3c 2595 753b 69b5 ff3c eee4 79bc
00000010: bf6a 693c ad7b fabc b626 e43b 5d42 0fbc
00000020: 9d24 d8bc d485 593c
0.022706646 0.003747293 0.031214433 -0.015252335 0.014246642 -0.030576551 0.0069626225 -0.00874385
-0.026384646 0.013276536

cls2.0.weight f4 [6, 768]
00000000: 24d7 0f3d c096 f23c fdbc b13c 8114 87bb
00000010: a7f0 f93c dd3a 753c 6ac4 1a3c cfae e43b
00000020: 3ef2 9a3c b020 c83c 11fe edbb 52cc 89bc
00000030: 8d85 4abb 732f 843c 1d49 523b c673 0e3c
00000040: 860c 993b 9b5e bc3c 532e d13c 7ead 173d
00000050: 5918 233d ef4b aebc 6713 153c 00a3 953c
00000060: 7303 00bc db00 c23c e988 8b3b d06a eebc
00000070: e04a 2e3d 6f40 803c 42c0 1e3d 51f5 0bbd
00000080: 341f 29bb 696d f1bc 3999 e6bb 93b9 493d
00000090: 48a6 683d d1c3 a5bc 5b0c 993c a7a7 2abc
000000a0: 654e eb3c a64d 74ba c09b 87bb fb52 c6bc
000000b0: 8f78 c6bc 7295 fe3c d8ab cfb9 f7c6 f93c
000000c0: 6322 c73b ce18 9f3b 5d2a 473c 33be b4bc
000000d0: f042 c3bc 3db4 09bd 4f2b 2cbd 4796 d43c
000000e0: 7c04 de3b aac3 c63c 4e0a 2dbd 2068 af3b
000000f0: 4e86 e3bc 8a7c 993c aac2 053d d6b7 1bb9
00000100: 5b7f 98bc f2ea b83a 1221 fcbc cf12 fe3b
00000110: c33b 153d 45d4 013d 7060 9ebc 9181 d4bc
00000120: 28aa f6bc 45d7 dfbb b218 053c 55fc d5b9
00000130: 9cdd 08bc 241e 1fbd d731 22bb 95e1 343d
00000140: 5ae7 e83c fd6a 633c 1c5e d6bc 22dc 853c
00000150: cafd 23bd df92 663c 20ef 0c3b 19c8 333c
00000160: 3ad0 ed3b 6975 b03c 12a4 b0bc f4df 1e3c
00000170: 1f35 913c e15f ba3c db18 a9bc 91f2 4ebc
00000180: c547 00bc 601c 6739 53e1 173c b333 343d
00000190: fba0 b0bc ea1c bebc 9365 8abc a129 9d3c
000001a0: 9599 873c 3115 bebc 222d 70b9 fbed 923c
000001b0: d0e4 1dbd 1c37 37bc 8a4b 333c 42a5 9dbb
000001c0: eae8 3d3d a5a0 cc3c 52d1 1dbd f713 13bd
000001d0: 179b b3b8 b668 11bd a1c7 b5bc 4a88 3dbd
000001e0: f536 0fbd 9c72 3a3d 6931 98bc eb68 b83c
000001f0: 9227 ab3b fa1a 22bb ef8a 52bb d15f e4bc
00000200: cdfa 36bb 6044 4b3c c7eb 003d 05bb 8ebc
00000210: 8ff7 083d 44b8 923c de27 00bc 8ede 113d
00000220: a635 7d3b 86cb 773c 8023 96bc 217b 083c
00000230: c64c 75bc 2fd3 8d3c d224 bf3c 806c ef3b
00000240: 2be9 223d 905e 0abc b92d 79bc 7fe9 823c
00000250: 3248 33bc 6351 273c 501c d7bc 99a3 0f3c
00000260: cdb1 2d3c c671 acbc 65f7 603a 3adf 253d
00000270: c76a 68ba 49e9 43bc 73a9 3a3d d9d4 afbc
00000280: d2a3 07bd 513a 813c 1962 203d 79eb 17bd
00000290: b768 b8bc 7540 2e3d 9bc0 8a3c b454 d13c
000002a0: e410 85bc 3ee2 c6bc 68db 9c3c e5d9 09bd
000002b0: d799 79bc 98b5 713c f76a 883c 23ab 6dbb
000002c0: 7fda c5bb 2dbd 683c f2cc a83c ebf5 aabc
000002d0: 7760 123d 1317 3bbd bae6 2fbd d4f4 1f3d
000002e0: 4974 393c c828 3a3c 0920 3dbb 00e3 0a3d
000002f0: 469d 30bc dfcb 803b 4bdc f63b ada1 ecbc
00000300: 2313 da3a 1e36 2bba 69fa 043d 3402 763c
00000310: 5e98 f2bc ba9f aa3a 92e2 263d 0322 023c
00000320: fbe5 91ba bfd5 b63c c41d b03c 8a61 033d
00000330: 1022 ca3c 077b d5bc 1d89 a03b 3a14 06bc
00000340: eb5a a03b d256 293d 9211 57bd e013 353c
00000350: 4cb0 523c 43f7 41bc e9ca 06bd 97cd 483b
00000360: 6ad8 fdbc b774 1d3d c14f dc3b 2f01 36bc
00000370: e275 fcbc 592c e13c 6a75 6c3c baeb 8936
00000380: 1c1f ae3c d39f 11bd 674f a73b 043b 993c
00000390: 3870 e4bc 53eb 233d e1c3 e3bb 56ee d7ba
000003a0: eb2c 203b 6b4f 423d 1c2e 80bd f6e3 883d
000003b0: 9b1a a3bc a2df 9dbb 460f 603b c573 33bd
000003c0: 2011 6ebc dd33 2f3c 2463 07bd 50e7 463d
000003d0: b1a5 52bd b937 4fbc cd0e dcbc 4b1e 1fbd
000003e0: a76a 7b3c 1d74 143d 5a04 ccbc 389c 98bc
000003f0: 9fd7 f63c da7c 373d 0c69 793b 69a5 96bc
0.035117283 0.029612899 0.021696562 -0.0041223173 0.03051026 0.014967647 0.009446243 0.0069788466
0.018914338 0.02442965 -0.007262953 -0.01682106 -0.0030902356 0.016135907 0.0032087036 0.008694595
0.0046706824 0.02299433 0.025534784 0.03703069 0.03981814 -0.021276442 0.009098864 0.018266201
-0.007813322 0.023682049 0.0042582643 -0.029103667 0.042551875 0.015655724 0.03875757 -0.0341695
-0.0025805952 -0.029471116 -0.0070373085 0.049249243 0.056799203 -0.020234974 0.01868265 -0.010415948
0.028723905 -0.0009319432 -0.00413844 -0.02420949 -0.024227409 0.03107712 -0.0003961015 0.030490382
0.0060770973 0.004855252 0.012156096 -0.02206335 -0.02383563 -0.033619154 -0.04203349 0.025950564
0.006775437 0.024263222 -0.042246155 0.005352989 -0.027774002 0.018736143 0.03265635 -0.00014850436
-0.018615415 0.0014108105 -0.030777488 0.007753707 0.036433946 0.031696577 -0.019333094 -0.025940688
-0.030110434 -0.006831082 0.008123564 -0.00040814528 -0.008353617 -0.038847104 -0.0024748945 0.044160444
0.02843063 0.013880488 -0.026167922 0.016340319 -0.040036954 0.014073103 0.0021504834 0.010973
0.0072574886 0.02154036 -0.02156261 0.009696949 0.017725525 0.022750797 -0.020641735 -0.0126310745
-0.007829611 0.00022040447 0.00927003 0.043994617 -0.021561136 -0.023207147 -0.016894137 0.01918489
0.016552726 -0.023203464 -0.00022904997 0.017935744 -0.03854829 -0.011182573 0.010943303 -0.00481096
0.046364702 0.024978945 -0.0385297 -0.03590771 -8.564273e-05 -0.03550025 -0.022189917 -0.046272554
-0.03496452 0.045519456 -0.018578248 0.022510966 0.005223223 -0.0024735318 -0.0032126268 -0.02787772
-0.0027920485 0.012406439 0.031474855 -0.017423162 0.033439215 0.01791013 -0.007822005 0.035612635
0.0038636713 0.015124207 -0.018327475 0.0083301375 -0.0149719175 0.017312614 0.023332987 0.0073066354
0.039773148 -0.008445397 -0.015208655 0.01598048 -0.010942506 0.010212275 -0.026258618 0.008767032
0.010601473 -0.021050345 0.00085817865 0.04049609 -0.0008866009 -0.011957475 0.045571756 -0.021463798
-0.033115216 0.015774878 0.039156053 -0.0370898 -0.02251087 0.04254194 0.016937545 0.025553085
-0.016243406 -0.024277803 0.01914759 -0.033655066 -0.015234432 0.014752768 0.016652567 -0.0036265336
-0.0060380097 0.014205259 0.020605538 -0.020869216 0.035736527 -0.045676302 -0.042944647 0.039051846
0.011319228 0.011362262 -0.0028858206 0.03390789 -0.010779684 0.0039305533 0.007533585 -0.028885687
0.0016637783 -0.00065311964 0.032465372 0.015015174 -0.02961367 0.0013017573 0.040743418 0.007942679
-0.0011131162 0.022318719 0.021498568 0.032075442 0.024674445 -0.02605964 0.0048991577 -0.008183533
0.0048936508 0.041342564 -0.05250699 0.011052102 0.012859415 -0.011838737 -0.032908354 0.003064012
-0.030986983 0.038441386 0.0067233746 -0.011108681 -0.03081793 0.027486967 0.014432291 4.1103604e-06
0.021255068 -0.03555281 0.005105901 0.018704899 -0.027885541 0.040019345 -0.006950841 -0.0016474228
0.0024440836 0.04743902 -0.06258795 0.06684105 -0.019910147 -0.004817919 0.0034188791 -0.04381158
-0.01453045 0.0106935175 -0.033053532 0.04856044 -0.051427547 -0.012647563 -0.026862526 -0.03884725
0.015345252 0.036243547 -0.024904419 -0.018629178 0.030132113 0.044796802 0.0038056998 -0.01838942

cls2.0.bias f4 [6]
00000000: ad2e 803c 81b5 66bc c6dc 1ebc 2b00 b13a
00000010: 1057 d0bb c162 da3c
0.015647257 -0.01408136 -0.009696191 0.0013504078 -0.006358035 0.026658418

cls3.0.weight f4 [2, 768]
00000000: 516b af3d aa1a acb9 c22b 193c a2d9 b43c
00000010: 46db 8dbc 90ce c4bc fe40 2cbd 6ae1 183d
00000020: 9207 18bd 72b0 c73d 52a8 1c3d 01e9 1fbc
00000030: 1530 90bc 90b6 0cbd 77bb ec3c edb5 ddbc
00000040: a30a 2b3d 5883 5d3d dea9 c13d bb06 bcbc
00000050: 32e8 78bc c857 c13d cfb1 4f3a 7c5b f53c
00000060: 704b 873c 2b5a 7b3d 5958 6cbd ddad dc3c
00000070: c846 18bd 6d15 b0bd 27fb 1e3b 7bdc 593b
00000080: 387e 6cbb 65f1 893c 6cf7 dabb 64c9 cfbd
00000090: 6475 493b 821a 743d 38a1 aa3c 9b32 4a3b
000000a0: e43c 0f3c cf71 bcbc ac11 64be d0fa 563c
000000b0: 5e51 fa3d 77f2 0ebc a8e9 7cbd 4cdb 31bd
000000c0: 7ff1 8abd eb3e 9fbd 5bea 11bd 167f d4bc
000000d0: 9575 8a3d bd6b 36bd 1496 4c3c 1db1 8d3d
000000e0: 1ea9 cfbc 1008 3bbd 5ed7 87bd a9e6 9dbc
000000f0: 661f 813c 680b e63c d1ba 0a3c a41f 673b
00000100: 0c3f b03d 061b 803d 8e1d 4cbc 341a 193c
00000110: a368 ee3d 1b29 3ebd 9eec b4bd 017e f93b
00000120: 8cf4 3b3c 4f4b ed3d ae23 0cbd b6da 0a3d
00000130: ae80 1bbd 2e85 a8bd bd61 12bd 1d2f 743d
00000140: bb22 063d de3e e53b 4eca d13d e597 ed3c
00000150: 03dd 923d 1499 19bc ca4c 87bc e79d 143d
00000160: 1178 abbc 2a50 383d 4b3c 483d 61a3 d03b
00000170: c350 103d 6cf9 023e c9ee 32bd 8b64 6bbc
00000180: 5099 4f3c a8c6 d3bc 4924 c63c 47e1 2c3c
00000190: cdc0 cdbc 693f 533a c7c2 c0bc 2e6a 58bd
000001a0: 4860 6cbd e208 7d3d 0a98 e93c 657e e63d
000001b0: 5ef9 9dba 387a 4e3d 3763 18bd 7c4a 31bd
000001c0: 5ee6 8ebd db9d 063d a6c4 973c ca45 613d
000001d0: 0104 1cba b294 3c3e 5101 2cbc cbf7 20bd
000001e0: fd71 22be d01c a9bb d937 b8bc 88a4 d2bc
000001f0: 6198 aabd c871 8a3c 54fa 303c 025d 093e
00000200: a258 2a3d e1e6 093e d0fc 37bd 3d9d 4e3c
00000210: aabf 3dbd 4c1b 183d acf4 c3bd 8bed 8abb
00000220: 393e 21bc 4436 a03d 6f27 80bc 12c9 233d
00000230: 2cd4 d33c c023 d2bc d680 343d b979 123d
00000240: e9c7 a8bc a1ce cebb 8249 9f3c bf18 02bd
00000250: 95bc 9dbb e4c0 42bc 96a5 46bc a18e 1bbe
00000260: eb92 113d a183 44bd 9774 cf3d 506f 8bbc
00000270: 8f05 963d d2b1 0ebc 0945 873d b1e0 583d
00000280: d24a 183d 38b9 ce3c 7204 553d 0e95 9e3c
00000290: 9c6e a83b 6c3c 3fbd 03b1 64bd 9908 71bd
000002a0: 38a1 8fbc d6db 9a3b 6de4 2b3e b431 ebbc
000002b0: 5da3 32bb 68de 133d eeb2 cabd d1be 503d
000002c0: 2109 1dbd d052 0d3d aad4 0bbb 8689 1b3d
000002d0: 068c c23c 9c04 523d 00c5 b03d 17f7 f83c
000002e0: 1a93 ef3b 4ab9 793d e399 12bc 3659 383c
000002f0: f97d e03c 9eee 58bd 0bdc fabd da94 4d3e
00000300: 3935 c2bc 6e5a 063d 2bcd 3f3c 6e4b 9f3c
00000310: 17d6 1e3d ed77 7f3d 64fd b4bd a9b2 8d3c
00000320: 739b d8bd e291 6b3c 0df8 3d3d d6f6 553d
00000330: 5d87 08be 86be d23c 66ef e33c eba5 1fbe
00000340: 97d0 d3bc 0038 debc 0145 1fbd fc79 ddbb
00000350: 8e8a 193d 33d7 3c3d b1d8 efbb 789c 3f3d
00000360: 3a43 40bb f77d 2cbd 468e cebc f85b 23bd
00000370: fa78 68bc 1f34 223e ecaa c93d cabb 903d
00000380: 8fbf e1bb 4672 753c 7143 073d 46e3 d7bc
00000390: be4d 91bc efbd ea3c a6e3 07be ed38 213c
000003a0: d6c9 e73d 20c4 91bd 1703 df3d 7a56 e9bd
000003b0: 44e0 f33d 3949 08bd a3ff 073e 99bf 4a3c
000003c0: 1fc0 f9bd 3693 8bbb 5670 e23d 4328 943a
000003d0: 6f26 e5bc ed9b c1b9 4896 83bc 119b 19bd
000003e0: 9621 46bd 508a a7bc 6f6c 43bd 907a 053e
000003f0: d770 1a3c c576 55bd fb52 22be 6e34 0cbd
0.08565391 -0.00032826263 0.009348812 0.022076432 -0.017316472 -0.024024278 -0.04205417 0.037324347
-0.037116595 0.09750451 0.03824646 -0.009760142 -0.017601052 -0.034353793 0.028897984 -0.027064288
0.04175819 0.054080337 0.09456228 -0.022952428 -0.015192078 0.09440571 0.0007922919 0.02995085
0.016515464 0.061365288 -0.057701442 0.026938373 -0.037176877 -0.08597837 0.0024258585 0.003324299
-0.0036085974 0.016838739 -0.006682327 -0.10145834 0.0030740136 0.059595592 0.020828828 0.0030852917
0.008742545 -0.023003487 -0.22272366 0.013121322 0.12222551 -0.0087248 -0.06174627 -0.04342203
-0.06784343 -0.077756725 -0.03562389 -0.025939506 0.06760708 -0.04453634 0.012486953 0.06918547
-0.025349196 -0.045661986 -0.06632875 -0.019275026 0.015762042 0.02808161 0.008467392 0.0035266662
0.08605775 0.06255154 -0.012458218 0.009344626 0.116410516 -0.04642592 -0.08834194 0.007613898
0.011471879 0.115866296 -0.034213714 0.033899985 -0.037964515 -0.08228527 -0.03573774 0.059615243
0.032747965 0.0069960197 0.10243665 0.029003093 0.07171061 -0.009374876 -0.016516108 0.0362834
-0.020931276 0.044998325 0.048885625 0.0063671325 0.03523327 0.1279046 -0.043684755 -0.014367233
0.01267083 -0.025851563 0.024187224 0.010551757 -0.025116349 0.000805846 -0.023530377 -0.052835636
-0.05770901 0.06177605 0.02851488 0.112545766 -0.0012052467 0.050409526 -0.037203994 -0.043283924
-0.06977533 0.032865386 0.018526386 0.054998197 -0.00059515244 0.18416098 -0.010498361 -0.039298814
-0.15863796 -0.0051609054 -0.022487568 -0.02571322 -0.08329845 0.016899958 0.01080187 0.13414386
0.041588433 0.1346698 -0.044918835 0.012610731 -0.046325363 0.037135407 -0.09568152 -0.004239743
-0.009841495 0.0782285 -0.015643803 0.039986677 0.025858007 -0.025651813 0.04406818 0.035760615
-0.020603137 -0.006311253 0.019444231 -0.03176188 -0.0048137405 -0.011886809 -0.01212444 -0.15191127
0.035540503 -0.047977094 0.101296596 -0.017020851 0.07325279 -0.008709388 0.06604964 0.052948657
0.03718073 0.025234804 0.052006193 0.019358184 0.005140139 -0.046688482 -0.055832874 -0.05884609
-0.01753293 0.0047259135 0.16786356 -0.028710224 -0.0027258017 0.036100775 -0.098974094 0.050963227
-0.038338784 0.034502804 -0.0021336474 0.03797295 0.023748409 0.051273927 0.08631325 0.03039126
0.007311237 0.06096772 -0.008947822 0.011251738 0.027403818 -0.052961938 -0.12249001 0.20076314
-0.02370702 0.032801084 0.011706631 0.019445147 0.03877839 0.06237023 -0.08837393 0.017297106
-0.105765246 0.014378043 0.046379138 0.052237354 -0.13332887 0.025725614 0.027824115 -0.15590636
-0.0258563 -0.027126312 -0.038884167 -0.0067589264 0.03748565 0.046103667 -0.007319533 0.04678008
-0.0029336945 -0.042112317 -0.025214326 -0.03988263 -0.014188999 0.15840195 0.09847054 0.07067068
-0.0068892906 0.014980858 0.0330233 -0.02635349 -0.017737266 0.02865502 -0.13270435 0.009840232
0.11317794 -0.07117486 0.10889261 -0.11393447 0.1190801 -0.033272956 0.13281111 0.012374782
-0.12194847 -0.0042594923 0.11056583 0.0011303503 -0.027972428 -0.00036928002 -0.01606287 -0.0375014
-0.048371874 -0.020451695 -0.047710832 0.13035035 0.009426317 -0.05211522 -0.15851967 -0.03422969

cls3.0.bias f4 [2]
00000000: 5fe4 a53c 81cb 9d3c
0.020250497 0.019262077
