CLIP/saved_models/model_CLIP-16_CLIP_2024-0509_weights.pth (torch, 40042 bytes, 6 tensors)

cls1.0.weight f4 [10, 512]
-0.42868042 -0.04814162 -0.06292834 -0.0915867 -0.16526058 0.23709211 -0.07716088 -0.15627831
-0.46402553 -0.0721667 0.006711575 0.066589475 -0.06608709 -0.15587915 -0.16963834 -0.34493977
-0.0729372 -0.13471523 -0.0679768 -0.08891779 -0.0040525305 0.16473262 0.17886133 -0.2828707
0.15218344 -0.09199395 -0.076193854 0.015217321 0.09616446 0.1728418 -0.011733931 -0.1121669
0.15546525 0.09060259 0.068810835 0.14255802 -0.09616962 -0.02307771 0.04529835 -0.07363032
0.50409013 0.2055337 0.15663104 -0.024505243 -0.012136905 0.26870978 -0.13874844 0.2614521
0.18038315 0.543624 0.22407468 -0.08823414 -0.056975346 -0.25881624 0.16473757 0.111604676
-0.124321714 0.12192641 0.1435533 0.2016802 0.11088052 -0.030168667 -0.13385557 0.20145686
-0.20437646 0.33208245 0.09741197 0.10326318 -0.0610835 0.2247241 0.27487907 0.16409855
0.08080957 -0.10530643 0.073025785 0.092983514 0.06744182 -0.18464963 -0.07265347 -0.0281875
-0.25912717 0.04584237 0.112932466 0.070809335 0.04067543 -0.14603223 -0.011823842 0.1662321
0.01980314 0.23632275 0.03447995 0.15151782 -0.3005275 -0.08348179 -0.019065153 -0.3410578
-0.097251825 -0.016698778 0.119204216 -0.012822373 0.15639701 0.068551674 -0.071190275 -0.063803375
0.040420488 0.16885377 -0.0074930023 -0.13829158 0.2200564 0.060693577 -0.43607983 0.1297509
0.2768873 -0.005588885 -0.29486603 -0.041201558 0.14517882 0.718504 -0.049285 0.040139806
-0.05139206 -0.0070913713 -0.19309598 0.041380163 -0.16741997 -0.1317772 -0.077607974 0.10572112
0.023560567 -0.17179199 0.56513417 0.36242503 0.084614106 -0.043277893 0.14284526 -0.15682872
0.039377213 -0.14047876 0.1154854 0.019285398 -0.06316726 -0.033500012 0.075245276 -0.22518195
0.108455986 0.03437498 0.3727569 -0.1090343 0.47568727 0.06973435 0.03383265 0.131301
0.21381442 0.15424311 -0.13056293 -0.1654696 0.31688586 -0.10436981 0.019926278 -0.26213926
-0.16013911 -0.07140511 0.11527713 0.030941127 -0.20089355 0.068935595 0.078913465 0.06148746
0.13423643 0.042252373 0.011388438 -0.07179186 -0.022537136 0.14983432 0.035828073 0.050749194
-0.11821716 0.31635934 -0.18769787 -0.3909297 -0.21777764 0.32479882 0.0405556 -0.12006226
0.16551714 -0.0053690253 -0.0023478323 -0.07323958 -0.11905211 -0.034067515 0.13090195 0.16668019
-0.26469553 -0.037761975 0.2600141 -0.1321067 -0.14973308 0.030136948 -0.30224672 0.05865809
-0.2146647 -0.12251136 -0.014807738 -0.015184054 -0.07792122 -0.16059041 -0.04797683 -0.045361545
0.0057245223 -0.11089271 -0.022863597 0.18069498 0.12859532 0.16848916 0.092718095 0.06321582
-0.009671286 -0.24758948 0.06703104 -0.026996864 -0.14615922 0.06012231 -0.2290206 0.016638398
-0.07244602 0.1642257 0.18645911 -0.15957606 0.12572153 0.023274295 0.08025062 -0.23118573
-0.06186115 -0.051120754 0.3141314 0.027106099 -0.15224065 0.1496973 -0.009528869 -0.2356297
-0.028360719 -0.3145586 -0.04480071 -0.043090496 -0.15065783 -0.09745061 -0.15798317 0.06697521
0.13098302 0.1491371 -0.61238587 0.33884898 0.1628354 -0.12247561 0.0002887635 0.10489989
00000000: 007c dbbe 2630 45bd 93e0 80bd cf91 bbbd
00000010: 123a 29be 46c8 723e 8606 9ebd 6c07 20be
00000020: c194 edbe 23cc 93bd c6ec db3b 1060 883d
00000030: ab58 87bd c99e 1fbe acb5 2dbe f29b b0be
00000040: 1960 95bd caf2 09be 6c37 8bbd 881a b6bd
00000050: 17cb 84bb abaf 283e 6d27 373e 6ed4 90be
00000060: fad5 1b3e 5367 bcbd 860b 9cbd 1252 793c
00000070: dff1 c43d 71fd 303e ac3f 40bc c2b7 e5bd
00000080: 4832 1f3e da8d b93d b2ec 8c3d bbfa 113e
00000090: 94f4 c4bd 770d bdbc c38a 393d 7ecb 96bd
000000a0: 0d0c 013f 6d77 523e e363 203e 38bf c8bc
000000b0: dfd9 46bc 5494 893e 1214 0ebe 0ddd 853e
000000c0: 5cb6 383e f12a 0b3f d573 653e 1ab4 b4bd
000000d0: fb5e 69bd 9083 84be f7b0 283e fe90 e43d
000000e0: 629c febd 8eb4 f93d a3ff 123e 4185 4e3e
000000f0: 5315 e33d 4824 f7bc 6f11 09be b54a 4e3e
00000100: 1048 51be b606 aa3e ed7f c73d a57b d33d
00000110: b132 7abd 131e 663e f3bc 8c3e 7309 283e
00000120: 7d7f a53d e6aa d7bd 8b8e 953d 246e be3d
00000130: f01e 8a3d cb14 3dbe 58cb 94bd 79e9 e6bc
00000140: 51ac 84be 35c5 3b3d 2349 e73d 7c04 913d
00000150: 489b 263d 7989 15be cab8 41bc bf38 2a3e
00000160: 323a a23c 97fe 713e d93a 0d3d 7d27 1b3e
00000170: bede 99be 80f8 aabd 862e 9cbc 219f aebe
00000180: f72b c7bd e0cb 88bc 5721 f43d ee14 52bc
00000190: 8a26 203e d264 8c3d 35cc 91bd 58ab 82bd
000001a0: f48f 253d 01e8 2c3e dc87 f5bb 4f9c 0dbe
000001b0: 7756 613e d499 783d db45 dfbe 6cdd 043e
000001c0: 2cc4 8d3e f722 b7bb aef8 96be f7c2 28bd
000001d0: c2a9 143e e1ef 373f 11df 49bd a369 243d
000001e0: 7b80 52bd bc5e e8bb f4ba 45be 3f7e 293d
000001f0: 2470 2bbe 9af0 06be eef0 9ebd 5184 d83d
00000200: 1702 c13c 3dea 2fbe a2ac 103f c68f b93e
00000210: 294a ad3d 2944 31bd 0746 123e b597 20be
00000220: 004a 213d aad9 0fbe 9c83 ec3d 69fc 9d3c
00000230: d65d 81bd 4f37 09bd 321a 9a3d 1996 66be
00000240: 2c1e de3d c7cc 0c3d fed9 be3e 604d dfbd
00000250: 488d f33e e2d0 8e3d 1b94 0a3d c573 063e
00000260: 2bf2 5a3e e8f1 1d3e 4ab2 05be dd70 29be
00000270: dd3e a23e d7bf d5bd 6f3c a33c 1e37 86be
00000280: 82fb 23be d83c 92bd 6a16 ec3d 3f78 fd3c
00000290: 0ab7 4dbe 1b2e 8d3d 629d a13d 46da 7b3d
000002a0: 4675 093e d310 2d3d 9296 3a3c 9c07 93bd
000002b0: cd9f b8bc 2b6e 193e 75c0 123d 63de 4f3d
000002c0: d71b f2bd daf9 a13e df33 40be f027 c8be
000002d0: 1a01 5fbe 084c a63e a11d 263d 34e3 f5bd
000002e0: 537d 293e a6ee afbb 17de 19bb a2fe 95bd
000002f0: 98d1 f3bd 618a 0bbd 290b 063e 36ae 2a3e
00000300: 2c86 87be 4dac 1abd 9120 853e fb46 07be
00000310: a153 19be c3e1 f63c 15c0 9abe 7743 703d
00000320: 10d1 5bbe 3ce7 fabd 289c 72bc 8ac6 78bc
00000330: 2995 9fbd d071 24be 5a83 44bd 07cd 39bd
00000340: c694 bb3b b81b e3bd 704c bbbc 1b08 393e
00000350: 7eae 033e 6c88 2c3e fce2 bd3d 4c77 813d
00000360: 5074 1ebc 1988 7dbe 9247 893d 8728 ddbc
00000370: c3aa 15be d042 763d 6084 6abe 404d 883c
00000380: 945e 94bd c82a 283e 23ef 3e3e e867 23be
00000390: 25bd 003e bca9 be3c 705a a43d f4bb 6cbe
000003a0: 1e62 7dbd ff63 51bd d5d5 a03e 9c0d de3c
000003b0: f9e4 1bbe 404a 193e f91e 1cbc e948 71be
000003c0: bd54 e8bc d30d a1be f380 37bd a97f 30bd
000003d0: 0c46 1abe 2f94 c7bd 57c6 21be 4d2a 893d
000003e0: 6a20 063e 65b7 183e 52c5 1cbf 9d7d ad3e
000003f0: 53be 263e 7ed4 fabd 2e65 9739 c1d5 d63d

cls1.0.bias f4 [10]
-0.031671263 0.02449694 0.027232911 0.0128748845 0.01797792 -0.00097370916 -0.009504557 -0.0422661
-0.028314725 -0.043609083
00000000: bab9 01bd cfad c83c 8e17 df3c 2ef1 523c
00000010: 6e46 933c 8440 7fba 00b9 1bbc 381f 2dbd
00000020: 48f4 e7bc 709f 32bd

cls2.0.weight f4 [6, 512]
0.049353197 0.021163598 0.03370951 -0.058297325 -0.0030218754 -0.018449351 -0.016459616 0.009628691
0.015376722 0.092952915 -0.04423177 -0.012795472 -0.07624707 -0.05551621 0.022010079 -0.09326769
0.018391103 0.015261168 0.03705923 -0.027797071 0.014677542 0.11299389 0.029064933 0.024598537
-0.02182757 0.00697172 -0.043054912 -0.020055804 -0.0309645 0.11826397 0.010323685 -0.06240192
-0.10312944 -0.0491943 0.02822147 -0.07489505 0.07279147 -0.008353406 -0.0028710999 -0.015381531
0.050837737 0.029671527 0.042620074 -0.013682515 -0.011866615 0.036510985 -0.03064353 -0.0073913517
0.013628379 -0.0148514435 -0.0070424043 -0.02079692 0.036335893 -0.06420843 0.0005163303 -0.022652175
0.02213085 0.009407999 0.055774424 -0.0067234016 0.009385101 -0.0045256177 -0.014670727 0.055430505
0.035238795 -0.07424336 -0.0061471527 0.01854485 0.00044899463 -0.09211577 0.017433733 -0.03703527
0.048091568 0.0030313076 0.012622701 -0.024056936 -0.07143573 -0.011837606 0.008411378 -0.054428503
-0.03752982 -0.03174443 0.023547212 0.04342609 -0.006531032 -0.0057928017 -0.03499667 -0.009639501
-0.07369994 0.05185407 -0.024891565 -0.01924725 0.013744676 -0.03356057 -0.007435605 0.03390422
0.032528326 -0.04463557 -0.00636913 -0.03775299 0.039752573 0.0130310105 0.028622463 0.0016037341
0.054019473 -0.041728314 0.022410404 0.04893411 0.0426847 -0.065697655 0.0049025877 0.028392209
0.038991455 -0.026640525 -0.0018734176 -0.00940119 0.029459646 0.02659391 0.009847449 -0.003984844
-0.040002313 -0.012354023 -0.044246636 -0.0017877456 0.04165396 -0.025695445 -0.009712185 -0.05926385
-0.036198646 -0.06809646 -0.05683877 -0.056849305 -0.025825309 0.0554781 0.01058656 -0.032140903
-0.035267163 0.0439288 0.056376684 0.016890466 -0.07798365 0.016854689 -0.06035922 -0.0027247155
-0.02517594 0.043414857 0.053926755 0.007559073 -0.010941837 0.015914934 0.036719438 0.02867288
0.03836221 0.005325137 -0.042966433 -0.030904414 -0.015431561 -0.004038931 -0.06721805 -0.026777066
0.0024555586 0.008183907 -0.001054862 0.0013661307 -0.04289601 -0.016868258 0.055505298 0.037092708
0.036620893 0.046223015 -0.04708261 0.04940298 0.044719324 -0.03887135 -0.001544658 0.091098145
0.00043470415 -0.016529746 0.056609314 -0.05705049 0.05136662 -0.022564411 0.011037866 -0.03468114
0.034680963 0.0007101654 -0.04495883 0.02906137 0.092546456 0.035264235 -0.008567625 -0.004517063
0.0138353985 -0.06984572 0.038376592 0.036402117 0.061076704 -0.008069605 -0.035781786 0.0062343995
0.06987161 -0.0025090976 -0.017300246 -0.008358268 -0.011454839 0.03681471 0.024089016 0.011343837
-0.047981218 0.008709576 -0.00812312 0.015810156 0.022330856 -0.054300036 0.008514434 -0.05175446
0.041464873 -0.0063805864 0.049801458 0.052935887 -0.025426926 -0.00917465 0.010047729 0.018094515
0.048701182 0.022359658 0.04264211 -0.004187688 0.032897986 -0.002029842 -0.0024267123 -0.012545596
-0.029644862 0.014717482 -0.057509113 0.018694524 -0.011892818 0.09370054 -0.008736963 0.03356734
0.014214021 -0.019359855 -0.021195654 0.046773683 0.017599152 0.043650866 -0.03645426 -0.043741602
-0.022901822 0.020914445 0.02318829 -0.034614883 0.018465197 0.009898184 0.0016636532 0.0131442165
00000000: 9426 4a3d 485f ad3c fc12 0a3d 2dc9 6ebd
00000010: a80a 46bb 1823 97bc 51d6 86bc a8c1 1d3c
00000020: a6ee 7b3c 195e be3d 5f2c 35bd 19a4 51bc
00000030: 6d27 9cbd f764 63bd 7b4e b43c 2103 bfbd
00000040: f0a8 963c fa09 7a3c 6bcb 173d afb6 e3bc
00000050: 137a 703c 5769 e73d 9519 ee3c df82 c93c
00000060: bbcf b2bc 0773 e43b 595a 30bd 124c a4bc
00000070: 43a9 fdbc 6134 f23d ac24 293c 2899 7fbd
00000080: 8735 d3bd f67f 49bd b630 e73c 9362 99bd
00000090: b213 953d b9dc 08bc 1029 3cbb d102 7cbc
000000a0: 3b3b 503d b411 f33c 6392 2e3d a12c 60bc
000000b0: 316c 42bc 8b8c 153d 2408 fbbc 2733 f2bb
000000c0: 9149 5f3c 7853 73bc f8c3 e6bb 4d5e aabc
000000d0: f2d4 143d b67f 83bd 575a 073a 0e91 b9bc
000000e0: c24b b53c 0224 1a3c b973 643d fb4f dcbb
000000f0: f7c3 193c a24b 94bb 7d5d 70bc 190b 633d
00000100: 8e56 103d e70c 98bd 0e6e c9bb 5feb 973c
00000110: 0a67 eb39 31a7 bcbd 30d1 8e3c 4cb2 17bd
00000120: aafb 443d e7a8 463b 72cf 4e3c 0d13 c5bc
00000130: e54c 92bd 85f2 41bc e0cf 093c 6cf0 5ebd
00000140: deb8 19bd 7306 02bd 15e6 c03c 8edf 313d
00000150: 4402 d6bb 8bd1 bdbb ab58 0fbd ffee 1dbc
00000160: ffef 96bd ef64 543d 65e9 cbbc 69ac 9dbc
00000170: 5931 613c cf76 09bd 60a6 f3bb 27df 0a3d
00000180: 6c3c 053d cad3 36bd 23b4 d0bb e1a2 1abd
00000190: 98d3 223d 0580 553c a879 ea3c 6334 d23a
000001a0: 8643 5d3d 4feb 2abd 0696 b73c 226f 483d
000001b0: 27d6 2e3d 7e8c 86bd e3a5 a03b c796 e83c
000001c0: 81b5 1f3d 3b3d dabc 778d f5ba 7307 1abc
000001d0: 5b55 f13c 79db d93c 3257 213c 4b93 82bb
000001e0: 77d9 23bd 8768 4abc f63b 35bd ca52 eaba
000001f0: 589d 2a3d 417f d2bc db1f 1fbc a7be 72bd
00000200: 0845 14bd 2876 8bbd c5cf 68bd d1da 68bd
00000210: 998f d3bc 013d 633d 4073 2d3c 2ea6 03bd
00000220: 4d74 10bd afee 333d 3deb 663d e05d 8a3c
00000230: e4b5 9fbd d812 8a3c 3b3b 77bd 2491 32bb
00000240: c63d cebc c7d3 313d 4de2 5c3d 1ab2 f73b
00000250: 6445 33bc 0960 823c 1f67 163d 63e3 ea3c
00000260: b121 1d3d 7d7e ae3b 92fd 2fbd 412b fdbc
00000270: a8d4 7cbc 0259 84bb 9ea9 89bd 945b dbbc
00000280: 70ed 203b cb15 063c 4c43 8aba bd0f b33a
00000290: bab3 2fbd 4d2f 8abc 8659 633d 86ee 173d
000002a0: caff 153d 5854 3d3d b2d9 40bd c75a 4a3d
000002b0: 9c2b 373d 9137 1fbd 1f76 caba aa91 ba3d
000002c0: 01e9 e339 6469 87bc 2bdf 673d c6ad 69bd
000002d0: ce65 523d 00d9 b8bc 2ad8 343c d00d 0ebd
000002e0: a00d 0e3d 652a 3a3a c026 38bd 1c12 ee3c
000002f0: ff88 bd3d 3b71 103d 395f 0cbc df03 94bb
00000300: dead 623c 460b 8fbd c630 1d3d 631a 153d
00000310: 912b 7a3d 6036 04bc ec8f 12bd ef49 cc3b
00000320: d918 8f3d ac6f 24bb 3fb9 8dbc 1ef1 08bc
00000330: 14ad 3bbc 05cb 163d 5456 c53c 80db 393c
00000340: f487 44bd 9cb2 0e3c d616 05bc 4d84 813c
00000350: 33ef b63c b769 5ebd 2080 0b3c 7cfc 53bd
00000360: 12d7 293d 3d14 d1bb 9dfc 4b3d 4dd3 583d
00000370: 214c d0bc 4551 16bc 3b9f 243c f33a 943c
00000380: e47a 473d 9a2b b73c 7ea9 2e3d e038 89bb
00000390: 0ac0 063d 1907 05bb 7a09 1fbb 0b8c 4dbc
000003a0: c8d9 f2bc 9821 713c ad8e 6bbd 4225 993c
000003b0: 18da 42bc 12e6 bf3d 7b25 0fbc e87d 093d
000003c0: ede1 683c 8f98 9ebc 82a2 adbc c395 3f3d
000003d0: 192c 903c 40cb 323d 1051 15bd 652a 33bd
000003e0: 9a9c bbbc c554 ab3c 5ef5 bd3c 56c8 0dbd
000003f0: 5344 973c fe2b 223c f00e da3a d75a 573c

cls2.0.bias f4 [6]
0.005723415 -0.013084733 0.010221978 0.032217637 -0.03601784 0.0027950176
00000000: 7c8b bb3b 5961 56bc 157a 273c a4f6 033d
00000010: 7187 13bd 9d2c 373b

cls3.0.weight f4 [2, 512]
0.018363694 -0.16877653 0.104454465 0.12021024 0.13017073 -0.020734299 0.03798783 0.11844007
0.074218065 -0.48329106 -0.10497045 -0.016579233 0.012683227 0.28212616 0.0079266615 -0.13117751
0.05350926 0.21169773 -0.026982445 0.016339187 0.046973884 0.25322008 -0.042729467 -0.04546391
0.25621498 0.0020938863 0.15939334 -0.19930932 0.066594526 -0.111632325 0.3228369 -0.24261576
0.042517144 -0.042227697 -0.07927791 0.006567904 -0.10279726 -0.1746881 0.07068826 -0.088731594
-0.027361529 0.012691095 -0.17153366 0.015536141 0.07660891 0.13445696 0.13821515 0.117897965
-0.01984752 0.0024584578 0.006579434 -0.052536964 0.10557436 -0.10151375 0.18010153 0.23033996
0.004629449 0.12457357 0.06254732 0.027012242 -0.055706184 -0.01193076 0.072872475 0.2687732
-0.04287706 -0.02237839 0.15328789 0.044438742 0.0061196582 0.083256885 0.07592444 -0.024141181
0.13650462 -0.18777473 0.085910976 -0.124664456 -0.17483479 -0.023714438 -0.15699558 -0.07420352
0.15812677 -0.03414616 -0.120522894 -0.031339344 0.09283053 0.018150445 -0.07489378 -0.053865824
0.018004598 -0.0393045 0.0035266487 0.22730003 -0.039562665 -0.103394344 0.11353819 0.1041675
0.013593366 0.016993525 0.12233812 0.23008136 0.047289796 0.084031634 -0.24964087 -0.066459626
-0.15904458 0.14348389 -0.020117678 0.017363878 -0.0291194 0.03966677 -0.049877234 0.044449188
-0.05277506 0.035141993 0.0442946 0.052960902 0.048012674 0.08709871 0.28831688 -0.07045867
0.4450642 -0.035744783 -0.15637726 0.20477732 -0.057128064 0.09763908 -0.011684813 0.034822233
0.029478129 -0.079041734 -0.105430275 0.14262587 0.026333855 0.057095397 0.039928973 -0.08983019
-0.1506407 -0.005296612 -0.12030085 0.12838463 -0.08406488 0.091927215 0.063148774 -0.069755
-0.009427502 0.10293297 0.05657187 -0.033769574 0.056201283 -0.21061516 -0.030944495 -0.07410595
-0.0032604726 0.027557403 0.10022166 -0.026905103 0.016229706 -0.024785379 -0.10907329 -0.15418895
-0.16773658 -0.06603103 -0.025903272 -0.055240326 -0.0020603687 0.024896313 0.09691464 0.023696255
0.09476457 0.14615284 0.071745515 -0.115956865 0.2621517 -0.10457192 0.13603328 0.0018514078
0.01342972 -0.1459113 -0.0031083415 -0.1286418 -0.27143565 0.14151698 -0.022231452 0.06443922
-0.09097041 0.041201264 0.1993115 -0.0059648505 -0.07929383 -0.025226414 0.023790045 0.07358785
-0.35733807 -0.07794015 0.24696368 -0.0025417954 -0.010138625 -0.0018959695 0.008789093 0.051560923
0.10737455 -0.010914746 0.08109008 0.08965178 -0.23278856 -0.13111392 -0.11086888 0.12756217
0.3400065 -0.15462178 0.23490372 0.07848573 -0.020677855 0.012698545 -0.20299496 0.06528885
-0.07227702 0.006161877 0.11012515 -0.11137642 0.032837853 -0.025066592 -0.07933262 0.06559318
0.022296887 -0.08410485 -0.15147215 0.08112491 0.1703789 -0.10401677 0.09065546 0.00069470983
0.0628801 -0.06054757 -0.026318308 -0.07717617 -0.06153414 0.16131154 -0.018670918 0.09813679
-0.031064337 0.12007851 0.022259427 -0.02541148 0.031616535 -0.14566505 0.16666117 0.10624976
0.2921777 0.058768086 -0.038304154 -0.10926299 0.07039415 -0.015144707 -0.22878721 -0.021546176
00000000: 756f 963c c1d3 2cbe 39ec d53d c930 f63d
00000010: 7a4b 053e fada a9bc 2099 1b3d b590 f23d
00000020: a4ff 973d ed71 f7be bffa d6bd 2cd1 87bc
00000030: 4fcd 4f3c d772 903e d4de 013c 6653 06be
00000040: 872c 5b3d 4ac7 583e 4a0a ddbc c2d9 853c
00000050: b067 403d 10a6 813e 1805 2fbd 5d38 3abd
00000060: 9c2e 833e 9539 093b 0238 233e be17 4cbe
00000070: b662 883d 7d9f e4bd e14a a53e 4470 78be
00000080: 7526 2e3d f3f6 2cbd 755c a2bd 9237 d73b
00000090: 5f87 d2bd 70e1 32be 02c5 903d e9b8 b5bd
000000a0: 4925 e0bc 4fee 4f3c 85a6 2fbe 4c8b 7e3c
000000b0: 22e5 9c3d 16af 093e 4688 0d3e 7d74 f13d
000000c0: 4497 a2bc 141e 213b 4b98 d73b 0031 57bd
000000d0: 5f37 d83d 71e6 cfbd 896c 383e 3dde 6b3e
000000e0: a2b2 973b 6e20 ff3d cf18 803d c748 dd3c
000000f0: 2b2c 64bd 3c79 43bc 2a3e 953d a49c 893e
00000100: db9f 2fbd e352 b7bc 80f7 1c3e 6605 363d
00000110: 6a87 c83b 9682 aa3d 467e 9b3d bac3 c5bc
00000120: dec7 0b3e 0548 40be 18f2 af3d 1450 ffbd
00000130: e407 33be c844 c2bc 73c3 20be 04f8 97bd
00000140: fceb 213e d8dc 0bbd b5d4 f6bd af5d 00bd
00000150: ef1d be3d 3eb0 943c e961 99bd 69a2 5cbd
00000160: 617e 933c c1fd 20bd 591f 673b 57c1 683e
00000170: 760c 22bd 6ac0 d3bd b686 e83d c555 d53d
00000180: b6b6 5e3c 0136 8b3c 698c fa3d 739a 6b3e
00000190: f2b2 413d c718 ac3d dba1 7fbe fc1b 88bd
000001a0: 95dc 22be 71ed 123e d4cd a4bc b13e 8e3c
000001b0: cf8b eebc 9f79 223d 124c 4cbd 5a10 363d
000001c0: a92a 58bd 0df1 0f3d 416e 353d 88ed 583d
000001d0: f0a8 443d cf60 b23d 459e 933e a34c 90bd
000001e0: 74df e33e 1f69 12bd 5c21 20be 25b1 513e
000001f0: 1eff 69bd fff6 c73d a871 3fbc c2a1 0e3d
00000200: 1e7c f13c a2e0 a1bd d4eb d7bd 840c 123e
00000210: 19ba d73c dddc 693d 908c 233d e4f8 b7bd
00000220: 8e41 1abe 348f adbb 4b60 f6bd 4377 033e
00000230: 352a acbd 5644 bc3d 2554 813d b6db 8ebd
00000240: cf75 1abc 85ce d23d e8b7 673d f751 0abd
00000250: 5133 663d 80ab 57be 4f7f fdbc dcc4 97bd
00000260: a7ad 55bb 10c0 e13c 0441 cd3d 1768 dcbc
00000270: 29f4 843c b50a cbbc d161 dfbd b5e3 1dbe
00000280: 23c3 2bbe 473b 87bd 1933 d4bc ae43 62bd
00000290: 4007 07bb 5af3 cb3c 2f7b c63d a61e c23c
000002a0: ed13 c23d 17a9 153e 50ef 923d cb7a edbd
000002b0: bf38 863e ce29 d6bd 4f4c 0b3e f0aa f23a
000002c0: 5408 5c3c c669 15be 51b5 4bbb adba 03be
000002d0: 9df9 8abe d4e9 103e bc1e b6bc b6f8 833d
000002e0: b24e babd a8c2 283d 5018 4c3e cb74 c3bb
000002f0: ce64 a2bd a0a7 cebc 57e3 c23c 3ab5 963d
00000300: 04f5 b6be 169f 9fbd 0ce4 7c3e 4094 26bb
00000310: 7a1c 26bc 2e82 f8ba 2100 103c 8c31 533d
00000320: 30e7 db3d c3d3 32bc 8e12 a63d 5a9b b73d
00000330: 2060 6ebe ba42 06be 390f e3bd a89f 023e
00000340: 5515 ae3e 2c55 1ebe 9a8a 703e 20bd a03d
00000350: 9b64 a9bc 8f0d 503c e9dd 4fbe 29b6 853d
00000360: f905 94bd 92e9 c93b 4b89 e13d 5219 e4bd
00000370: fc80 063d 7458 cdbc 2479 a2bd b855 863d
00000380: f6a7 b63c 2a3f acbd 841b 1bbe d124 a63d
00000390: ce77 2e3e bf06 d5bd 92a9 b93d 301d 363a
000003a0: 48c7 803d bb00 78bd 7e99 d7bc 8a0e 9ebd
000003b0: 390b 7cbd da2e 253e c1f3 98bc f1fb c83d
000003c0: a37a febc b9eb f53d 6759 b63c bc2b d0bc
000003d0: 5780 013d 3829 15be 3aa9 2a3e 7999 d93d
000003e0: 5198 953e ceb6 703d d1e4 1cbd 46c5 dfbd
000003f0: cf2a 903d 8121 78bc 3247 6abe 9b81 b0bc

cls3.0.bias f4 [2]
0.038631845 -0.012868345
00000000: 6d3c 1e3d c0d5 52bc
