CLIP/saved_models/model_CLIP-16_CLIP_weights.pth (torch, 39878 bytes, 6 tensors)

cls1.0.weight f4 [10, 512]
0	0xbed0114d	-0.406382
1	0xbd018cff	-0.031628605
2	0xbdbb0c64	-0.09133223
3	0xbdaeb947	-0.085314326
4	0xbe092be9	-0.13395657
5	0x3e1e5102	0.1546059
6	0xbd14b35d	-0.036303867
7	0xbe16b46b	-0.14717261
8	0xbed31156	-0.41224164
9	0x3c07ad0e	0.008281006
10	0xbd3d2419	-0.046177004
11	0x3dc11d25	0.09429387
12	0xbda5e10b	-0.08099564
13	0xbe058d97	-0.13042293
14	0xbe1a2eb9	-0.15056886
15	0xbea5e484	-0.32400906
16	0xbde24118	-0.11047572
17	0xbe088747	-0.13332854
18	0xbdb97b1e	-0.09056686
19	0xbdcfbdcc	-0.10143623
20	0x3c157647	0.009122438
21	0x3e092fd2	0.13397148
22	0x3e5e5945	0.21713741
23	0xbe427510	-0.18989968
24	0x3e172e52	0.14763764
25	0xbdb1b85f	-0.08677744
26	0xbd7e46e5	-0.06207933
27	0xbd00aeb1	-0.0314166
28	0x3d7a35b3	0.061086368
29	0x3e3bec1e	0.1835179
30	0xbb625387	-0.003453465
31	0xbdd3a976	-0.103350565
32	0x3e26e1d6	0.16297087
33	0x3d82398b	0.06358632
34	0x3da7872c	0.08180079
35	0x3e1237e9	0.1427914
36	0xbdff5bb8	-0.12468666
37	0x3d77e114	0.060517386
38	0x3d3551be	0.04426741
39	0xbda3dddd	-0.080013014
40	0x3ed15998	0.40888667
41	0x3e692e54	0.22771579
42	0x3e1ee299	0.15516128
43	0xbd3cd15b	-0.046098094
44	0xbd6fab46	-0.05851295
45	0x3e964466	0.2934906
46	0xbe0029e2	-0.12515977
47	0x3e41c9da	0.18924657
48	0x3e2da981	0.16959192
49	0x3ef7b212	0.48378044
50	0x3e3479f6	0.1762465
51	0xbdab7558	-0.08371991
52	0x3bb8c225	0.005638378
53	0xbe6ad77a	-0.2293376
54	0x3e41c035	0.18920977
55	0x3e20be81	0.15697671
56	0xbde3c623	-0.11121776
57	0x3db3da7e	0.087819085
58	0x3df23521	0.1182654
59	0x3e2cb7b7	0.16866957
60	0x3dd6e2cc	0.10492477
61	0x3cac1d31	0.021010013
62	0xbdefb981	-0.11705304
63	0x3e15400e	0.14575216
64	0xbe5a0c2f	-0.2129371
65	0x3e987a8d	0.29781
66	0x3deed5d7	0.116618805
67	0x3dd24aed	0.10268197
68	0xbb625f6f	-0.0034541746
69	0x3e32904b	0.17437856
70	0x3e7c3d04	0.2463265
71	0x3e24b188	0.16083348
72	0x3d276d24	0.04087557
73	0xbdc93eed	-0.09826455
74	0x3c60284d	0.013681483
75	0x3db17b3c	0.08666083
76	0x3d8d506a	0.069001034
77	0xbe49d65f	-0.19710682
78	0xbcf70398	-0.03015308
79	0xba975241	-0.0011544899
80	0xbe75a1bc	-0.23987478
81	0x3d3dcad2	0.046336003
82	0x3d9ce110	0.07660115
83	0x3d91c5bf	0.07117795
84	0x3d2052cf	0.039141472
85	0xbdde2ed2	-0.10848774
86	0x3d145d94	0.036222056
87	0x3e263cd0	0.16234136
88	0xbb026206	-0.0019894852
89	0x3e3af7dc	0.18258613
90	0xbce31a5f	-0.027722536
91	0x3dca3a33	0.09874382
92	0xbe848980	-0.25886154
93	0xbd18dce1	-0.03732002
94	0x3ba22ff6	0.004949565
95	0xbe98c7d1	-0.29839948
96	0xbe19c758	-0.1501745
97	0x3cd44830	0.025913328
98	0x3d8ccba6	0.0687478
99	0x3c722b0a	0.014780769
100	0x3e3b97ff	0.183197
101	0x3d4532c7	0.04814413
102	0xbd741bd2	-0.059596844
103	0xbc1c0085	-0.009521608
104	0x3d2d3b1b	0.042292695
105	0x3e31e8af	0.17373918
106	0x3ca51bc0	0.020154834
107	0xbd95f300	-0.07321739
108	0x3e842f2f	0.25817248
109	0x3d945a15	0.07243744
110	0xbec75414	-0.38931334
111	0x3e18189b	0.14853136
112	0x3e660d99	0.22466125
113	0x3c6f9992	0.014624016
114	0xbea196c5	-0.3156034
115	0xbd9a4839	-0.07533307
116	0x3e0ef026	0.13958797
117	0x3f1cb06b	0.6120669
118	0xbcc97ea1	-0.024596514
119	0x3dabc993	0.083880566
120	0xbdf4f4c7	-0.1196075
121	0x3d6cae7f	0.0577836
122	0xbe17c08c	-0.14819545
123	0x3d5d386e	0.054008894
124	0xbe41d110	-0.18927407
125	0xbd9d693c	-0.076860875
126	0xbda3df93	-0.08001628
127	0x3d979d14	0.07403007
128	0xbd2f13c0	-0.042743444
129	0xbdd3db72	-0.1034459
130	0x3f041ac5	0.5160335
131	0x3e8031ef	0.25038096
132	0x3df2d68d	0.118573286
133	0xbbcb8288	-0.006210629
134	0x3df23a4a	0.11827524
135	0xbe42b0d7	-0.19012772
136	0xbc8f6a6f	-0.017506806
137	0xbe00a2b7	-0.12562071
138	0x3d779982	0.06044913
139	0x3d0debbc	0.034648642
140	0xb982e3c7	-0.0002496524
141	0xbd25a59e	-0.040441148
142	0x3dac0493	0.0839931
143	0xbe709626	-0.23494777
144	0x3d494e51	0.049146954
145	0xbc86d62e	-0.01645955
146	0x3ea42063	0.3205596
147	0xbdb06e14	-0.08614746
148	0x3ec644c8	0.3872435
149	0x3c9e7947	0.019344939
150	0x3d59a49e	0.053135507
151	0x3e03b24b	0.12860982
152	0x3e6cd2c1	0.23127271
153	0x3deac941	0.114641674
154	0xbd4efe31	-0.050535385
155	0xbe1a0ecd	-0.15044709
156	0x3e617589	0.22017492
157	0xbe2b34f9	-0.16719426
158	0x3d2878a0	0.041130662
159	0xbe8666c2	-0.26250273
160	0xbdd7f712	-0.10545172
161	0xbd4f8ade	-0.050669543
162	0x3d74b985	0.059747238
163	0xba5b7cfa	-0.000837281
164	0xbe712812	-0.23550442
165	0x3dd1157f	0.10209178
166	0x3d0c87eb	0.03430931
167	0x3d5c075c	0.053717956
168	0x3e046aa4	0.12931305
169	0x3c265d9e	0.010154156
170	0x3cc6c23d	0.024262542
171	0xbddb123a	-0.10696836
172	0xbd8daa2b	-0.069172226
173	0x3e0fc746	0.1404086
174	0x3d8b7498	0.06809348
175	0x3d37bf3a	0.044860102
176	0xbd0355d5	-0.032064278
177	0x3eae4058	0.34033465
178	0xbe56c27c	-0.20972627
179	0xbec5a55d	-0.38602725
180	0xbe105574	-0.14095098
181	0x3ead8b72	0.3389545
182	0x3d1a2612	0.037633963
183	0xbdf680e4	-0.12036303
184	0x3e4e128f	0.20124267
185	0x3b17f8eb	0.0023189138
186	0xbc8814db	-0.016611507
187	0xbd8913e0	-0.06693244
188	0xbde851b6	-0.1134371
189	0xbdb392f9	-0.08768267
190	0x3db055e4	0.08610132
191	0x3e0e9907	0.13925563
192	0xbe514211	-0.20435359
193	0xbdca327b	-0.0987291
194	0x3e6d45ce	0.2317116
195	0xbdd78b0a	-0.105245665
196	0xbe0332c4	-0.12812334
197	0x3c4197fd	0.011816022
198	0xbea4a0b4	-0.32153857
199	0x3d3c3fbd	0.045959223
200	0xbe3a6f79	-0.18206586
201	0xbd942f99	-0.07235641
202	0xbdbf4c59	-0.09340734
203	0xbcf1c50c	-0.029512905
204	0xbdb486d5	-0.0881478
205	0xbe4e1796	-0.20126185
206	0xbd9403d4	-0.07227293
207	0xbd5ddf82	-0.05416823
208	0x3c5ba9f5	0.01340722
209	0xbdd7f9d4	-0.10545698
210	0x3c004040	0.007827818
211	0x3e3993b0	0.18122745
212	0x3dfd584a	0.123703554
213	0x3df4a923	0.11946323
214	0x3d4ba130	0.049714267
215	0x3c8c9790	0.017162114
216	0x3d3913a6	0.045184754
217	0xbe3a2ab1	-0.18180348
218	0x3d8c3bd2	0.06847347
219	0xbdaeee66	-0.08541565
220	0xbe1173dc	-0.14204353
221	0x3d4d09e5	0.050058264
222	0xbe316430	-0.17323375
223	0x3d3d1cc1	0.04617
224	0xbd8ed14b	-0.06973513
225	0x3e2e77f6	0.17037949
226	0x3e17538f	0.14777969
227	0xbe19565f	-0.14974354
228	0x3dcac209	0.099002905
229	0xbc2487cd	-0.010042143
230	0x3db1006b	0.08642658
231	0xbe7d6406	-0.24745187
232	0xbda83566	-0.0821331
233	0xbd6e390f	-0.058159884
234	0x3e8ca478	0.2746923
235	0x3da299d0	0.07939494
236	0xbe3f304d	-0.18670769
237	0x3e26d4e8	0.16292155
238	0x3b736f4e	0.00371452
239	0xbe5c32ee	-0.21503803
240	0x3b1d8d28	0.0024040435
241	0xbeac924d	-0.3370537
242	0xbdca8e6c	-0.09890446
243	0xbcc4f418	-0.024042174
244	0xbdff0073	-0.124512576
245	0xbd4328ba	-0.04764626
246	0xbdfdc391	-0.12390817
247	0x3da22a1b	0.07918187
248	0x3dad8d6a	0.08474238
249	0x3e3ac473	0.18239002
250	0xbf030d0b	-0.51191777
251	0x3e951aba	0.29121953
252	0x3e3b5a40	0.18296146
253	0xbe19bab0	-0.15012622
254	0xbc9178d6	-0.017757814
255	0x3e10170b	0.1407129

cls1.0.bias f4 [10]
0	0xbc124906	-0.008928543
1	0x3ca2e744	0.019885667
2	0xbd1dca07	-0.038522746
3	0x3d16da65	0.03682937
4	0xbd355b2e	-0.04427641
5	0x3ce56935	0.028004268
6	0x3c4bbd69	0.012435296
7	0x3c4204a5	0.011841928
8	0x3d06c276	0.032900296
9	0xbcc0021d	-0.023438508

cls2.0.weight f4 [6, 512]
0	0x3cb076c3	0.021541005
1	0xbce0077d	-0.02734732
2	0xbb766ab9	-0.0037600233
3	0x3cc621d0	0.024186045
4	0xbcde010c	-0.027100109
5	0xbd72a946	-0.059243463
6	0xbd2818bb	-0.04103921
7	0xbd17d141	-0.037064794
8	0xbba9bcbd	-0.00517997
9	0x3d4c37d9	0.049857948
10	0xbce04143	-0.02737487
11	0xbcc5eac8	-0.024159804
12	0xbb55d120	-0.003262587
13	0xbc23494a	-0.009966204
14	0x3c34aafe	0.011027096
15	0xbdaaf44b	-0.083473764
16	0x3d0fa98b	0.0350738
17	0x3c7dfaa5	0.015501653
18	0x3d26ecb9	0.0407531
19	0x3b0b4123	0.0021248541
20	0x3d3f7175	0.04673906
21	0x3d9a9b09	0.07549102
22	0x3c924c25	0.017858574
23	0x3cae7c30	0.021299452
24	0x3cd15ac9	0.025555985
25	0x3c03a53e	0.008035002
26	0x3c8ea6e6	0.017413568
27	0x3c86c33b	0.016450515
28	0x3ca1cee5	0.019751975
29	0x3db77142	0.08957149
30	0x3bda3d3f	0.006660133
31	0xbcb32a39	-0.02187072
32	0xbd3125b6	-0.043248855
33	0xbcf3d347	-0.02976383
34	0xbb26f93e	-0.002547815
35	0xbd50a974	-0.050942853
36	0x3d940c6e	0.07228933
37	0xbbddc4f7	-0.006767865
38	0xbbaf7a6c	-0.00535517
39	0x3ccc1c22	0.024915759
40	0x3d0e22e0	0.03470123
41	0x3ba2a0c7	0.004963014
42	0xbd07687d	-0.033058632
43	0xbc9df013	-0.019279515
44	0x3b05e3a4	0.0020429874
45	0x3d379fb2	0.04483003
46	0xbd1477dd	-0.036247123
47	0xbd626562	-0.055272467
48	0xbd21c75b	-0.03949676
49	0xba9603ca	-0.0011445221
50	0xbce1fe0e	-0.027586963
51	0x3c29c8cd	0.010362816
52	0x3d2017e1	0.039085273
53	0xbd862028	-0.06549102
54	0xbd1e860e	-0.038702063
55	0x3c01016d	0.007873875
56	0x3cc32d56	0.023825329
57	0xbd1c3c42	-0.038143404
58	0xbb845939	-0.0040389565
59	0xbc59651c	-0.013268735
60	0x3ca6dd27	0.020369126
61	0xbc50db20	-0.012747556
62	0xbc95ea67	-0.018300248
63	0x3d69dadc	0.057093486
64	0x3d96d13f	0.07364129
65	0xbcd50f8e	-0.026008394
66	0xbd489819	-0.048973177
67	0x3c9504f5	0.01819084
68	0xbcccebca	-0.025014777
69	0xbd8c949b	-0.06864282
70	0xbc4c6dc3	-0.012477341
71	0x3ca77d42	0.02044547
72	0x3caba6fc	0.020953648
73	0xbc0dd6da	-0.008657182
74	0x3d4dae59	0.0502151
75	0x3bd01acd	0.006350851
76	0xbcc8b227	-0.024499012
77	0x3d3f34dc	0.04668127
78	0xbd2e572f	-0.042563614
79	0x3c68317e	0.014171956
80	0xbce52583	-0.027971989
81	0xbc63765e	-0.013883201
82	0x3b189a1e	0.002328522
83	0xbbe05120	-0.0068456084
84	0x3d613b03	0.05498792
85	0xbca4dfbf	-0.020126222
86	0xbc077496	-0.008267542
87	0xbce0299f	-0.027363596
88	0xbcdee605	-0.027209291
89	0x3d818b37	0.06325381
90	0xbcb5ac54	-0.022176899
91	0x3a8bda1e	0.0010669862
92	0xbd01598d	-0.031579543
93	0xbd9e8585	-0.077403106
94	0xbd8a3af8	-0.06749529
95	0x3d20e624	0.03928198
96	0x3b1c5ad8	0.0023857858
97	0x3c9a6afa	0.018849839
98	0xbd749a7e	-0.059717648
99	0x3cfd1be9	0.030897098
100	0x3c96dc12	0.018415485
101	0x3d053cfc	0.032528862
102	0x3d1a5a70	0.037683904
103	0x3d418da4	0.04725422
104	0x3d38cf83	0.045119774
105	0xbd204845	-0.03913142
106	0x3c8fdb79	0.017560707
107	0x3cd38987	0.025822414
108	0xbae5c81f	-0.0017530954
109	0xbd7359cb	-0.059411805
110	0xbcd42754	-0.02589766
111	0xbd448721	-0.04798043
112	0x3d31d18e	0.043412738
113	0xbc181288	-0.009281762
114	0x3d21c71a	0.03949652
115	0x3cb0523b	0.021523586
116	0xbcad6f71	-0.021171303
117	0xbc5168f4	-0.01278137
118	0xbcc52622	-0.024066035
119	0xbb1b7882	-0.0023722951
120	0xbbf7d5bf	-0.0075633223
121	0xbd33199a	-0.043725587
122	0xbcfa3f13	-0.030547654
123	0xbd0c0d7a	-0.03419254
124	0x3cfd50ef	0.030922381
125	0x3ca95c86	0.020674001
126	0x3c944f31	0.018104168
127	0xbd19f2a2	-0.03758491
128	0xbda69a43	-0.08134892
129	0xbd543a13	-0.051813196
130	0xbd4a9840	-0.049461603
131	0xbd404d86	-0.046948932
132	0xbd815b73	-0.06316271
133	0x3cbabc74	0.02279494
134	0x3ce17de4	0.02752585
135	0x3c87260b	0.016497632
136	0x3c01fe00	0.0079340935
137	0xbc3c8dc0	-0.011508405
138	0x3bc47fa4	0.0059966613
139	0xbaa9cb3d	-0.0012954246
140	0xbd121c9e	-0.035671823
141	0xbb78b76f	-0.0037951132
142	0xbc2b820f	-0.01046802
143	0x3d6569de	0.056009166
144	0xbd90f593	-0.070780896
145	0xbc82156c	-0.015879355
146	0x3d232cce	0.03983765
147	0x3bc14c05	0.005898955
148	0xbc4e0824	-0.012575183
149	0x3d8dba6e	0.06920324
150	0xbd148bc2	-0.036266096
151	0xbce34bd0	-0.027746111
152	0xbd1860da	-0.03720174
153	0x3c3a24a8	0.011361279
154	0xbd4000dd	-0.046875823
155	0x3cfbb8d9	0.03072779
156	0x3d3df7f6	0.046379052
157	0x3cf93513	0.030420816
158	0xbc9cf699	-0.019160556
159	0xbc6302b4	-0.013855625
160	0x3d0f5d18	0.03500089
161	0xbbcb4125	-0.006202834
162	0xbcd12729	-0.025531368
163	0xbc4fcf50	-0.0126837045
164	0xbcc61d0f	-0.024183778
165	0xbabef66b	-0.0014569288
166	0x3c2d465d	0.010575858
167	0x3c8fe32f	0.017564384
168	0xbd080a6b	-0.03321306
169	0xbd08ac7b	-0.033367615
170	0x3c285d4a	0.010276148
171	0x3d1a1da9	0.037625942
172	0xbc36a0b2	-0.011146711
173	0xbcd8edf3	-0.02648065
174	0x3d8cb676	0.06870739
175	0x3da5cd83	0.08095839
176	0xbc59f340	-0.013302624
177	0xbcb39d9b	-0.021925738
178	0x3d17b54f	0.037038144
179	0xbc2e1cd7	-0.010626993
180	0x3c8106b2	0.015750263
181	0xbd28154b	-0.04103593
182	0x3cd7981e	0.026317652
183	0xbd203207	-0.03911021
184	0xbb05509e	-0.002034224
185	0xbc9a00d8	-0.01879923
186	0x3c82a41a	0.01594739
187	0x3a1def9a	0.0006024778
188	0x3cbdb5ff	0.023158072
189	0x3d66b8d7	0.05632862
190	0xbb103d3a	-0.002200915
191	0xbbdefd6f	-0.006805114
192	0xbd22ef6e	-0.03977912
193	0xbd790115	-0.060792048
194	0x3d1bc17b	0.038026314
195	0x3b89b600	0.0042026043
196	0xbc2dfc1d	-0.0106191905
197	0xbc68a45f	-0.014199345
198	0xbd2b5c17	-0.04183587
199	0x3be06b9a	0.0068487646
200	0x3ca1a873	0.019733643
201	0xbd018fcc	-0.031631276
202	0xbb90f786	-0.0044240383
203	0xbd02820f	-0.031862315
204	0x3c622552	0.013802843
205	0x3b179190	0.0023127533
206	0x3d0a423e	0.03375458
207	0xbd48f1bb	-0.049058657
208	0xbc3a9e3f	-0.011390268
209	0x3ca66467	0.020311547
210	0x3c97645c	0.018480472
211	0xbd1d3a43	-0.03838564
212	0xbc48f6ea	-0.0122659
213	0x3bdf6a5b	0.0068180985
214	0x3d008811	0.031379763
215	0xbd190814	-0.03736122
216	0x3cd47660	0.025935352
217	0xbb5d7e24	-0.003379711
218	0x3d564897	0.05231532
219	0x3c729e0b	0.014808188
220	0x3c7b776f	0.015348299
221	0x3d460298	0.048342317
222	0x3c9cd957	0.019146604
223	0xbc4dfe38	-0.0125728175
224	0x3c8534a5	0.016260454
225	0x3c91d974	0.017803885
226	0xbc7f7fda	-0.015594447
227	0xbbb5f99e	-0.0055534383
228	0xbcc15e8e	-0.023604658
229	0xbd3c6272	-0.045992322
230	0xbcb28044	-0.021789677
231	0xbd8adf21	-0.0678084
232	0x3cbbd657	0.022929354
233	0x3d08b31e	0.033373944
234	0xbd3d36f2	-0.046194978
235	0x3cae0608	0.02124311
236	0xbb342536	-0.0027488
237	0x3d9a7329	0.07541496
238	0xbd4ee214	-0.050508574
239	0xbbcb00cd	-0.006195164
240	0x3c1a046e	0.00940047
241	0x3c91460a	0.017733593
242	0x3d47b5a2	0.048757203
243	0xbcac459e	-0.02102929
244	0x3cd647df	0.026157318
245	0x3d38db54	0.045131043
246	0x3bddc034	0.006767297
247	0x3cfe13e2	0.03101534
248	0xbc56b24d	-0.013104034
249	0xbd18c9f2	-0.037301965
250	0xbc8af5b5	-0.016962865
251	0xbcb9673d	-0.022632236
252	0x3cc75376	0.02433179
253	0xbb901495	-0.004396985
254	0x3d3711ab	0.044694584
255	0x3a652788	0.00087415474

cls2.0.bias f4 [6]
0	0xbbec1e76	-0.0072057797
1	0xbad2335c	-0.0016037035
2	0x3cc62fde	0.024192747
3	0xba2142e0	-0.0006151628
4	0x3cf6f40f	0.030145673
5	0x3bf8e63b	0.007595805

cls3.0.weight f4 [2, 512]
0	0xbd1cde34	-0.038297847
1	0xbe475e3d	-0.19469543
2	0x3d5ece15	0.054395754
3	0x3e2d63c7	0.16932593
4	0x3e1fc8ff	0.15604018
5	0xbd6b4aa9	-0.05744425
6	0x3d99c3f7	0.075080805
7	0x3df433c5	0.11923937
8	0x3db9e7cd	0.090774156
9	0xbed58b74	-0.41707957
10	0xbda9979c	-0.0828087
11	0x3c367ff1	0.011138902
12	0x3c72548f	0.014790668
13	0x3e89ee90	0.2693982
14	0x3d77df46	0.060515665
15	0xbe128903	-0.14310078
16	0x3d8d5caa	0.0690244
17	0x3e6b896f	0.23001646
18	0xbd0dea3c	-0.03464721
19	0x3d1f0b93	0.038829397
20	0x3da93a09	0.082630225
21	0x3e44baa3	0.19211821
22	0xbcba7897	-0.02276258
23	0xbd7c022c	-0.06152551
24	0x3e755e14	0.23961669
25	0x3cbb2aa4	0.022847481
26	0x3e621725	0.22079141
27	0xbe190943	-0.1494494
28	0x3d4e02e0	0.05029571
29	0xbd840066	-0.064453885
30	0x3e8c8ff2	0.27453572
31	0xbe70a462	-0.23500207
32	0x3d91aecf	0.0711342
33	0xbd2585a3	-0.04041065
34	0xbd265f20	-0.040618062
35	0xbd43daa1	-0.047815923
36	0xbdf7da88	-0.121022284
37	0xbde88853	-0.11354127
38	0x3d965821	0.07341028
39	0xbd84506d	-0.064606525
40	0xbd00866c	-0.031378195
41	0x3b9369d0	0.004498698
42	0xbddc0d87	-0.10744768
43	0x3d6f772e	0.058463268
44	0x3c7ce6b6	0.015435865
45	0x3e1ba757	0.15200554
46	0x3dee6c19	0.11641712
47	0x3e183f40	0.14867878
48	0xbd8bf9e9	-0.06834776
49	0xbc04ed4d	-0.008113218
50	0x3d070aa6	0.03296914
51	0x3becce09	0.0072267097
52	0x3db75586	0.08951859
53	0xbdbb26f0	-0.09138286
54	0x3df07246	0.11740546
55	0x3e3c9cdf	0.18419217
56	0x3d352d12	0.044232436
57	0x3d7777e5	0.060417075
58	0x3d5fc12d	0.054627586
59	0x3d274991	0.040841643
60	0xbc9fb241	-0.019494178
61	0x3cd3799d	0.025814826
62	0x3d9e83e9	0.077400036
63	0x3e691b7c	0.2276439
64	0xbd9da0d5	-0.07696692
65	0x3c07bf9a	0.0082854275
66	0x3dc85a73	0.09782877
67	0x3d274937	0.040841307
68	0xbce019c9	-0.027356045
69	0x3d922c8b	0.07137402
70	0x3df26655	0.118359245
71	0xbd22ab99	-0.03971443
72	0x3dd921e6	0.10602169
73	0xbe2a3230	-0.16620708
74	0x3cf964f6	0.03044365
75	0xbdec19be	-0.115283474
76	0xbe4c811f	-0.19971131
77	0xbdb41756	-0.087935135
78	0xbdbf74af	-0.093484275
79	0xbdc9531f	-0.09830307
80	0x3e45642b	0.19276492
81	0xbc4f8730	-0.012666509
82	0xbdeed33e	-0.11661385
83	0xbd4f87cc	-0.050666615
84	0x3df70754	0.120619446
85	0x3d4426d1	0.04788858
86	0xbe01de8c	-0.12682551
87	0xbcb1d26c	-0.021706782
88	0x3c9be632	0.019030664
89	0xbd939f5c	-0.0720813
90	0x3d90dbd0	0.07073176
91	0x3e733af7	0.23752962
92	0x3cbaca3d	0.022801513
93	0xbd93757f	-0.07200145
94	0x3da304a4	0.079598695
95	0x3e1d45aa	0.15358606
96	0x39ed4322	0.0004525418
97	0x3c9f0d10	0.019415408
98	0x3dd40e3e	0.10354279
99	0x3e158cfe	0.14604566
100	0xbaa3117e	-0.0012441126
101	0x3df5d126	0.120027825
102	0xbe3a99fc	-0.18222803
103	0x3c032609	0.008004674
104	0xbdc21121	-0.09475923
105	0x3e06f056	0.13177618
106	0x3c2ea7f6	0.010660162
107	0xbd3773ff	-0.044788357
108	0xbc130b33	-0.008974838
109	0xbbad4589	-0.0052878303
110	0xbdb8bad3	-0.09020009
111	0x3d75d3a8	0.060016304
112	0xbcb230e2	-0.021751825
113	0x3d34ff7c	0.04418896
114	0x3d1560d0	0.03646928
115	0x3d37d8bf	0.04488444
116	0x3cbb45ca	0.022860426
117	0x3d06c922	0.03290666
118	0x3e85fbce	0.26168674
119	0xbde76baf	-0.11299836
120	0x3eb07eea	0.34471828
121	0xbc0e6767	-0.008691645
122	0xbded300e	-0.11581431
123	0x3e74a527	0.23891126
124	0xbd86eb07	-0.06587797
125	0x3df881de	0.12134145
126	0x3ceb7c27	0.028745724
127	0x3d59b63a	0.0531523
128	0x3d8af780	0.06785488
129	0xbd397350	-0.045275986
130	0xbd85cd3d	-0.06533287
131	0x3ded93c3	0.11600449
132	0x3d85e34a	0.065374926
133	0x3d51ef6e	0.05125373
134	0x3d989201	0.07449723
135	0xbd911a90	-0.070851445
136	0xbdb58777	-0.088637285
137	0x3c8c6cc8	0.017141715
138	0xbe0e38cf	-0.13888858
139	0x3de91fdd	0.113830306
140	0xbd5dad5c	-0.054120407
141	0x3d10f561	0.03539026
142	0x3ce4fede	0.027953561
143	0xbde6b554	-0.11265054
144	0x3c6b2630	0.014352366
145	0x3ceca096	0.028885167
146	0x3c697b46	0.014250582
147	0xbd13a2c3	-0.036043894
148	0x3d50fcbe	0.051022284
149	0xbe8882bb	-0.2666224
150	0xbcd4b39b	-0.025964549
151	0xbda465de	-0.08027242
152	0x3d0d5e28	0.034513623
153	0xbbd268dd	-0.006421192
154	0x3d063109	0.032761607
155	0xbd8d1a55	-0.06889788
156	0x3d809984	0.06279281
157	0xbd6f06f5	-0.058356244
158	0xbe0b9559	-0.1363119
159	0xbe30483a	-0.17215052
160	0xbdba1acf	-0.090871446
161	0xbd803fa8	-0.062621415
162	0xbc67fd10	-0.014159456
163	0xbd51d34e	-0.051226906
164	0xbd5eafd9	-0.05436692
165	0xbc467db0	-0.012114927
166	0x3d8f0d03	0.06984904
167	0x3c1b9841	0.009496749
168	0x3dca5bc0	0.09880781
169	0x3e3e74bd	0.1859922
170	0x3d908f3d	0.070585705
171	0xbe057301	-0.13032152
172	0x3e84ad25	0.2591335
173	0xbda8d9e9	-0.08244688
174	0x3e07da85	0.13266952
175	0x3ce6a5db	0.028155258
176	0x3cb8f897	0.022579474
177	0xbe072f16	-0.13201556
178	0x3d26fe15	0.040769655
179	0xbdb1f3ae	-0.08689056
180	0xbe7d01ca	-0.24707714
181	0x3e1a9774	0.15096837
182	0xbd77f607	-0.060537364
183	0x3df0c617	0.11756533
184	0xbdbfb220	-0.093601465
185	0x3d140e4e	0.036146455
186	0x3e317582	0.17329982
187	0xb8f196c7	-0.0001151986
188	0xbdc0fc02	-0.09423067
189	0xbc37e4e3	-0.011224004
190	0xbcf104e6	-0.029421281
191	0x3dfbd00e	0.12295543
192	0xbea177b2	-0.31536633
193	0xbd23c84b	-0.039985936
194	0x3e8bc0c4	0.27295506
195	0xbb7e46f9	-0.0038799627
196	0xbcf44c15	-0.029821435
197	0x3c77a951	0.015116052
198	0xbcca8e50	-0.024726063
199	0x3d102c9a	0.035198785
200	0x3d6ea524	0.05826296
201	0xbd61db9e	-0.055141084
202	0x3d85f8f5	0.065416254
203	0x3d94d664	0.07267454
204	0xbe5dea86	-0.21671495
205	0xbd6b3959	-0.057427738
206	0xbdf20ad2	-0.1181847
207	0x3e042b3d	0.12907119
208	0x3ec2dcdf	0.38059136
209	0xbdef6c56	-0.11690585
210	0x3e44c8da	0.19217244
211	0x3d2409f1	0.040048543
212	0xbd736066	-0.059418105
213	0xbc9e4f58	-0.019324943
214	0xbe5ab129	-0.21356644
215	0x3d495cac	0.049160644
216	0xbd204d0f	-0.03913599
217	0x3c50d472	0.012745963
218	0x3d9c9d4b	0.07647189
219	0xbdac7950	-0.08421576
220	0x3da028f6	0.07820313
221	0xbd69d927	-0.05709186
222	0xbceedef7	-0.029159052
223	0x3aa6d935	0.0012729528
224	0x3cf8dfb3	0.030380106
225	0xbdf34749	-0.11878831
226	0xbdc50299	-0.09619636
227	0x3d96d043	0.073639415
228	0x3e2a14e4	0.16609532
229	0xbdf504af	-0.11963784
230	0x3d82cc7f	0.06386661
231	0x3d14a764	0.03629245
232	0x3d959248	0.073032916
233	0xbd106714	-0.035254553
234	0xbdab1bd9	-0.08354921
235	0xbc3b7d23	-0.011443409
236	0xbaca0098	-0.0015411554
237	0x3e3675af	0.1781833
238	0x3c554a33	0.013018179
239	0x3dd02c6f	0.10164725
240	0xbd23365d	-0.039846767
241	0x3d679573	0.05653901
242	0x3cc9b29f	0.024621306
243	0xbcd6999a	-0.02619629
244	0xbac08c62	-0.0014690275
245	0xbe063ac7	-0.1310836
246	0x3dfe81bc	0.124270886
247	0x3d84546f	0.06461417
248	0x3e90c1d5	0.28272882
249	0x3d265706	0.040610336
250	0xbb848545	-0.0040442073
251	0xbd8ddc4e	-0.069267854
252	0x3db31251	0.08743728
253	0x3d1af291	0.037828986
254	0xbe694a15	-0.22782166
255	0x3d582353	0.052768063

cls3.0.bias f4 [2]
0	0x3be0c019	0.0068588373
1	0xbd3f5ebf	-0.046721216
