CLIP/saved_models/model_CLIP-16_CLIP_2024-0424_weights.pth (torch, 38790 bytes, 2 tensors)

classifier.0.weight f4 [18, 512]
-0.22353683 -0.04879904 -0.11256943 -0.038997613 -0.09323869 0.15729515 0.025643777 -0.02569114
-0.2512444 0.082367614 0.032833505 0.09146544 0.028598694 -0.10011497 -0.058422636 -0.1674906
-0.074279465 -0.06559253 -0.11438644 -0.0155979665 -0.073890425 0.08940504 0.15464534 -0.16891453
0.12950692 -0.12572914 -0.05496768 -0.0011139465 -0.020153001 0.07206776 0.03401247 -0.0067967707
0.1849972 0.047110565 0.05635707 0.09367092 -0.11529717 -0.0045217862 0.0791707 -0.048689544
0.2676987 0.1958067 0.059264038 -0.06204738 0.049826242 0.15955424 -0.11625976 0.17083487
0.046134535 0.29267514 0.10126068 0.00528591 -0.0021956633 -0.2373584 0.08226063 0.18126321
-0.021739231 0.09034835 0.06756237 0.2063959 -0.001916317 -0.037322808 -0.025056688 0.03513509
-0.111281976 0.21774237 0.09486683 0.06034545 -0.15981202 0.20960833 0.11680189 0.05632305
0.038225263 -0.0138282 0.072778605 0.08940027 0.10016129 -0.06471523 -0.0447048 -0.095863506
-0.123537846 0.05283466 0.0746511 0.05289759 -0.03854742 -0.019226238 0.023062324 0.12075592
-0.032327637 0.18594289 -0.027037548 0.13508323 -0.09269444 -0.05784583 -0.01966261 -0.17870292
-0.13542481 -1.4344609e-05 0.026191188 -0.07352372 0.13695699 0.11948278 -0.038506687 -0.059378512
0.076863326 0.16317038 -0.023494007 -0.022787482 0.18577339 0.061135788 -0.062115036 0.07819845
0.046681702 -0.041390438 -0.18921499 0.008386447 0.01998397 0.35187477 -0.058781084 0.12993835
-0.11334112 0.10581364 -0.04952028 0.038913112 -0.20756312 -0.060734313 -0.07124563 0.0115934685
0.008724203 -0.074688025 0.38651833 0.10483911 0.20935732 -0.015046022 0.07025862 -0.20092759
0.05693481 -0.16761698 0.09561357 -0.088766046 0.023145858 -0.031516638 0.06219461 -0.24629848
0.1333432 0.016810482 0.26369628 -0.095506705 0.2943452 0.031093312 0.033732563 0.042225707
0.113074705 -0.04780671 -0.039792206 -0.15371223 0.2537134 -0.18322125 0.06571802 -0.12461393
-0.17447478 -0.06873516 0.11007813 0.032911092 -0.2136942 0.051677156 -0.06144966 0.094685316
0.08895523 0.039522152 0.119864486 -0.060212944 -0.05738052 0.13955034 0.013887222 0.019605244
-0.025382815 0.2667055 -0.22332303 -0.31639722 -0.16566612 0.20395815 0.06285802 -0.085459806
0.21260558 0.009192936 -0.0046677617 -0.004421456 -0.09290142 -0.10149189 0.084205076 0.09852308
-0.21036533 -0.020017868 0.08143724 -0.102279514 -0.1288305 0.041808188 -0.17501998 0.08334575
-0.12970378 -0.060535192 -0.102495186 0.08062664 -0.0660371 -0.11838821 -0.04794669 -0.051976897
-0.043596532 -0.05258012 -0.046523016 0.17548552 0.08689534 0.13511135 0.062460907 -0.027291115
-0.0006835368 -0.16600138 0.07875828 -0.09488358 -0.042033195 0.09095747 -0.14442326 0.011972165
-0.019015169 0.1329114 0.095837526 -0.07764493 0.071336575 -0.04389615 -0.0061109895 -0.15717605
-0.06361949 -0.059233572 0.1787335 -0.0008590944 -0.14083444 0.14672087 0.0371533 -0.09575019
0.14650148 -0.21803254 -0.058746893 -0.06414241 -0.022299921 0.07131099 -0.123033285 -0.01883011
0.13956457 0.06602983 -0.39101443 0.17153308 0.070468396 0.037843198 -0.013934515 0.031869117
00000000: d7e6 64be 81e1 47bd cd8a e6bd f6bb 1fbd
00000010: edf3 bebd fb11 213e e612 d23c 3a76 d2bc
00000020: 1ba3 80be 5ab0 a83d 6d7c 063d 3c52 bb3d
00000030: cf47 ea3c 1409 cdbd 934c 6fbd a882 2bbe
00000040: d51f 98bd 6055 86bd 7043 eabd 9d8e 7fbc
00000050: dd53 97bd fd19 b73d 595b 1e3e eef7 2cbe
00000060: 769d 043e 24bf 00be ca25 61bd d801 92ba
00000070: e817 a5bc 4398 933d a950 0b3d 72b7 debb
00000080: e86f 3d3e 02f7 403d acd6 663d 8ad6 bf3d
00000090: ec20 ecbd 7e2b 94bb 3f24 a23d b06e 47bd
000000a0: ce0f 893e 8d81 483e d9be 723d 6525 7ebd
000000b0: 9a16 4c3d 3062 233e 9919 eebd 56ef 2e3e
000000c0: 91f7 3c3d 84d9 953e c261 cf3d 6d35 ad3b
000000d0: 1ee5 0fbb 150e 73be 4378 a83d 109d 393e
000000e0: 7916 b2bc 8e08 b93d 245e 8a3d 7259 533e
000000f0: ee2c fbba cddf 18bd af43 cdbc d0e9 0f3d
00000100: cee7 e3bd dbf7 5e3e 8a49 c23d ca2c 773d
00000110: c3a5 23be 91a3 563e d435 ef3d 00b3 663d
00000120: 1892 1c3d ad8f 62bc f30c 953d 7d17 b73d
00000130: 5d21 cd3d 6b89 84bd 611c 37bd 1654 c4bd
00000140: 6901 fdbd 2869 583d ade2 983d 25ab 583d
00000150: e6e3 1dbd 5880 9dbc 33ed bc3c e14e f73d
00000160: fc69 04bd d067 3e3e d97d ddbc 4253 0a3e
00000170: 95d6 bdbd c0ef 6cbd 7b13 a1bc e6fd 36be
00000180: cdac 0abe a0a9 70b7 e78e d63c 9b93 96bd
00000190: 743e 0c3e 63b3 f43d 30b9 1dbd e236 73bd
000001a0: 856a 9d3d 2316 273e 8176 c0bc d0ac babc
000001b0: 613b 3e3e 8569 7a3d 566c 7ebd 8226 a03d
000001c0: 5035 3f3d 0589 29bd 93c1 41be 4f67 093c
000001d0: 6cb5 a33c ee28 b43e 6fc4 70bd 8f0e 053e
000001e0: 641f e8bd d2b4 d83d c7d5 4abd 5b63 1f3d
000001f0: 6d8b 54be 8bc4 78bd 3be9 91bd 88f2 3d3c
00000200: f6ef 0e3c 09f6 98bd bbe5 c53e e3b5 d63d
00000210: c461 563e 9783 76bc c0e3 8f3d f6bf 4dbe
00000220: 7a34 693d c9a3 2bbe 0cd1 c33d f9ca b5bd
00000230: 629c bd3c 9717 01bd c6bf 7e3d ab35 7cbe
00000240: 1f8b 083e 23b6 893c 3303 873e 0599 c3bd
00000250: 6ab4 963e 67b7 fe3c 282b 0a3d ddf4 2c3d
00000260: b693 e73d f8d0 43bd 27fd 22bd bd66 1dbe
00000270: b9e6 813e 5a9e 3bbe 2b97 863d 9735 ffbd
00000280: 84a9 32be 05c5 8cbd a570 e13d c8cd 063d
00000290: a7d2 5abe 6dab 533d a4b2 7bbd 60ea c13d
000002a0: 292e b63d fbe1 213d 837b f53d d9a1 76bd
000002b0: d607 6bbd 49e6 0e3e 3b87 633c 2d9b a03c
000002c0: 9fef cfbc a08d 883e cbae 64be d1fe a1be
000002d0: 61a4 29be 68da 503e b5bb 803d 8d05 afbd
000002e0: 47b5 593e f89d 163c 06f4 98bb dce1 90bb
000002f0: 1a43 bebd fbda cfbd b673 ac3d 78c6 c93d
00000300: 026a 57be 83fc a3bc 91c8 a63d ec77 d1bd
00000310: 25ec 03be 103f 2b3d 7038 33be 2db1 aa3d
00000320: 11d1 04be c0f3 77bd ffe8 d1bd 941f a53d
00000330: 763e 87bd 8575 f2bd c063 44bd bae5 54bd
00000340: 4792 32bd 405e 57bd eb8e 3ebd 7ab2 333e
00000350: 2ff6 b13d a15a 0a3e 02d7 7f3d 9e91 dfbc
00000360: 612f 33ba 44fc 29be 054c a13d 5352 c2bd
00000370: 002b 2cbd e947 ba3d b1e3 13be e626 443c
00000380: b3c5 9bbc ed19 083e 7746 c43d 4e04 9fbd
00000390: e918 923d 73cc 33bd b23e c8bb c2f2 20be
000003a0: ef4a 82bd e79e 72bd ea05 373e d934 61ba
000003b0: e736 10be ff3d 163e 0f2e 183d ad18 c4bd
000003c0: 7c04 163e ec43 5fbe 95a0 70bd 195d 83bd
000003d0: 53ae b6bc 7f0b 923d e0f8 fbbd 9a41 9abc
000003e0: 04ea 0e3e a63a 873d 0b33 c8be 5ea6 2f3e
000003f0: bc51 903d 7801 1b3d 984d 64bc 3189 023d

classifier.0.bias f4 [18]
0.012691615 0.0063247946 0.0013896407 -0.023396883 -0.021404726 -0.0114486115 -0.018780256 -0.0111183785
-0.027024338 0.030193936 0.001600075 -0.016141936 -0.019292608 -0.0019247191 -0.0063221958 0.0030018988
-0.022446688 -0.010506396
00000000: 7ef0 4f3c 3940 cf3b 9b24 b63a d2aa bfbc
00000010: f758 afbc f592 3bbc 0dd9 99bc dc29 36bc
00000020: 2562 ddbc 4659 f73c 9cb9 d13a 183c 84bc
00000030: 880b 9ebc db46 fcba 6c2a cfbb 81bb 443b
00000040: 1ee2 b7bc 0523 2cbc
