CLIP/saved_models/model_CLIP-14_CLIP_2024-0724_weights.pth (torch, 58474 bytes, 6 tensors)

cls1.0.weight f4 [10, 768]
0.032892957 -0.10553683 0.1197306 0.050509073 0.059946723 -0.10695761 0.0078110327 0.18322572
-0.068121895 0.071079955 -0.037643757 0.021706248 -0.17366816 -0.1078747 0.13122384 0.056778967
0.025139619 0.06275581 -0.14181876 -0.11563948 -0.25507545 -0.030148698 0.09330336 -0.24987692
0.017428191 -0.06029084 -0.056415666 -0.10515695 -0.043087453 -0.02167318 0.15495315 -0.022531128
0.05249101 0.17827672 -0.23545969 -0.02087197 0.12337105 -0.0030717046 0.0662915 0.06132682
-0.10399605 -0.23206347 0.34837708 0.016072951 0.081245534 -0.03489025 0.14654055 -0.0097322175
0.1060644 0.13023794 -0.0032065639 -0.09784881 0.15708561 0.06476444 0.053429756 -0.046285335
-0.02699002 0.0468558 0.010560992 0.15622601 -0.3132398 0.30207872 -0.04195475 0.21847904
-0.07236504 -0.063163705 -0.16798638 0.065413356 -0.026983231 0.016633973 -0.07070513 0.017186329
0.04552315 0.10295734 0.05395099 0.18410996 -0.01928665 -0.09865682 0.08957444 0.12295787
-0.111623704 0.008443271 -0.010908439 0.052065093 0.15868573 -0.22151534 -0.06771975 0.01450637
-0.068291046 0.051735714 -0.18635912 0.009636939 0.26452604 -0.04270657 0.16090828 0.039008986
0.027691424 0.06350248 -0.07735452 -0.0966163 -0.16028394 -0.04166631 -0.19928472 0.17681047
0.0061514177 0.016594188 0.042967554 -0.042775802 0.1293281 0.02779635 0.04579852 0.055101372
-0.13016465 0.06942598 0.17078453 0.14982165 -0.08197801 0.051267162 0.042764165 0.005700392
0.015405098 -0.053667713 -0.004725316 0.041119825 -0.023134682 0.041134194 -0.0613666 -0.078235276
0.046805058 0.011325421 0.09332956 0.017984172 -0.017798845 -0.047006708 0.20332375 0.026275663
-0.043635447 -0.0051777987 0.02305035 0.09734356 -0.13166136 -0.08360683 0.07907126 -0.032268573
-0.29894385 0.009474479 -0.03708339 0.025729695 0.07721678 -0.03436691 0.29581347 -0.13554285
-0.12698886 0.047183733 -0.014979706 -0.031283252 0.18452248 -0.06527756 -0.0742277 0.23528121
0.16302362 0.21647839 0.22316611 -0.04136253 -0.044661712 -0.08310847 -0.14276433 -0.23286526
0.020605879 0.16807224 0.040565245 0.06705107 0.061617743 -0.008936798 0.051998768 -0.07898244
-0.11064483 -0.11696038 0.29892018 -0.026068838 -0.0083994195 0.079190634 -0.04830958 -0.004050781
0.02819853 -0.05528687 0.21202268 -0.09310375 -0.045438766 -0.015770633 -0.023193002 -0.06675134
0.13941672 0.077768646 0.006571811 0.027453206 -0.022164144 0.02482524 0.10293449 -0.0020081326
0.0165782 0.011668309 0.01624911 0.087241106 -0.10108724 -0.097042434 0.1337197 0.26157558
0.018396689 -0.08134454 -0.16431451 -0.12840155 0.04327544 -0.058211084 0.08970474 -0.06603986
-0.0036737495 0.08292578 -0.15947528 -0.01618362 0.1907332 0.023328751 -0.024592843 -0.013122389
-0.19714922 -0.020263983 0.0604942 0.14341213 -0.03157152 -0.23482323 -0.15782687 0.046239268
0.023573615 -0.37875044 0.2391719 0.15271793 -0.18464613 -0.13563794 0.16690399 0.04464949
-0.14060336 -0.041224677 0.26751354 0.033489842 0.0035922127 0.049251165 0.009106737 -0.06882183
0.015106639 0.025763333 0.13870144 -0.025082456 0.058835477 0.09645845 0.010384727 0.076296665
00000000: c4ba 063d b223 d8bd 5135 f53d 9ae2 4e3d
00000010: b28a 753d 970c dbbd b1f3 ff3b 869f 3b3e
00000020: 7e83 8bbd 5e92 913d 5730 1abd 4dd1 b13c
00000030: 11d6 31be 69ed dcbd 8b5f 063e 1091 683d
00000040: 9af1 cd3c 1e86 803d f038 11be 64d4 ecbd
00000050: 4099 82be 67fa f6bc d515 bf3d bcdf 7fbe
00000060: 91c5 8e3c 87f3 76bd 1d14 67bd 875c d7bd
00000070: 787c 30bd f48b b1bc 0aac 1e3e 3393 b8bc
00000080: d000 573d 2c8e 363e 581c 71be b2fb aabc
00000090: f6a9 fc3d a74e 49bb d7c3 873d d531 7b3d
000000a0: e2fb d4bd 0ca2 6dbe 7b5e b23e 6cab 833c
000000b0: 0f64 a63d 14e9 0ebd ba0e 163e e173 1fbc
000000c0: 4b38 d93d 185d 053e 3725 52bb f564 c8bd
000000d0: 0ddb 203e 38a3 843d 29d9 5a3d b195 3dbd
000000e0: 2d1a ddbc deeb 3f3d 0308 2d3c b6f9 1f3e
000000f0: f860 a0be 10aa 9a3e bed8 2bbd f8b8 5f3e
00000100: 1f34 94bd f95b 81bd 9f04 2cbe 70f7 853d
00000110: f00b ddbc f843 883c dacd 90bd 58ca 8c3c
00000120: 7c76 3a3d 4cdb d23d b7fb 5c3d 5287 3c3e
00000130: 09ff 9dbc 960c cabd ce72 b73d 56d1 fb3d
00000140: f89a e4bd a555 0a3c 4fb9 32bc 3542 553d
00000150: 837e 223e ebd4 62be a7b0 8abd 20ac 6d3c
00000160: 2ddc 8bbd d4e8 533d edd4 3ebe 40e4 1d3c
00000170: f56f 873e 16ed 2ebd 24c5 243e e3c7 1f3d
00000180: 20d9 e23c 970d 823d 0c6c 9ebd c4de c5bd
00000190: 7921 24be 4baa 2abd 4b11 4cbe ce0d 353e
000001a0: d591 c93b 89f0 873c bffe 2f3d ae35 2fbd
000001b0: 966e 043e 2cb5 e33c 3b97 3b3d fab1 613d
000001c0: e249 05be 352f 8e3d 24e2 2e3e d96a 193e
000001d0: 16e4 a7bd 84fd 513d 7a29 2f3d 5bca ba3b
000001e0: aa65 7c3c add2 5bbd d3d6 9abb 436d 283d
000001f0: f284 bdbc 547c 283d 8b5b 7bbd d139 a0bd
00000200: a9b6 3f3d 428e 393c 9123 bf3d 8b53 933c
00000210: e2ce 91bc 1b8a 40bd 1a34 503e 0f40 d73c
00000220: 15bb 32bd 86aa a9bb 16d4 bc3c 0f5c c73d
00000230: 3cd2 06be 0f3a abbd 1df0 a13d 0d2c 04bd
00000240: 2b0f 99be d83a 1b3c c1e4 17bd 15c7 d23c
00000250: d523 9e3d 51c4 0cbd dd74 973e bfcb 0abe
00000260: 5e09 02be bb43 413d 716d 75bc de22 00bd
00000270: 76f3 3c3e 3eb0 85bd b104 98bd 8fed 703e
00000280: aaef 263e 83ac 5d3e a885 643e c26b 29bd
00000290: 33ef 36bd c634 aabd d030 12be 3b74 6ebe
000002a0: a9cd a83c 211b 2c3e be27 263d 1252 893d
000002b0: e362 7c3d a66b 12bc a9fc 543d 8cc1 a1bd
000002c0: c299 e2bd ec88 efbd 110c 993e 518e d5bc
000002d0: b89d 09bc b32e a23d 44e0 45bd 6abc 84bb
000002e0: 9b00 e73c 7c74 62bd 791c 593e 2ead bebd
000002f0: 001e 3abd 6a31 81bc 40ff bdbc edb4 88bd
00000300: 42c3 0e3e 2b45 9f3d 5958 d73b 8ce5 e03c
00000310: 9491 b5bc 4d5e cb3c 51cf d23d e09a 03bb
00000320: 01cf 873c 6f2c 3f3c db1c 853c 77ab b23d
00000330: d406 cfbd 2fbe c6bd d1ed 083e 3ced 853e
00000340: a7b4 963c f797 a6bd 1042 28be b27b 03be
00000350: 9641 313d bf6e 6ebd 1eb7 b73d e83f 87bd
00000360: 4ac3 70bb fed4 a93d 7d4d 23be 8393 84bc
00000370: 904f 433e f01b bf3c ee76 c9bc 4aff 56bc
00000380: 7ce1 49be a700 a6bc c4c8 773d a1da 123e
00000390: 2351 01bd 8075 70be 5e9d 21be 6365 3d3d
000003a0: 741d c13c 94eb c1be 7be9 743e 1762 1c3e
000003b0: e013 3dbe ace4 0abe e1e8 2a3e 62e2 363d
000003c0: 54fa 0fbe 35db 28bd 89f7 883e a52c 093d
000003d0: 546b 6b3b 97bb 493d 6c34 153c 76f2 8cbd
000003e0: d681 773c a00d d33c c007 0e3e b979 cdbc
000003f0: 78fd 703d 028c c53d b424 2a3c 6d41 9c3d

cls1.0.bias f4 [10]
0.023172468 0.0012083149 0.032514513 -0.0141878575 0.014137534 -0.028906425 0.0047203056 -0.0095456
-0.028440189 0.01141791
00000000: 30d4 bd3c 5260 9e3a f02d 053d 3074 68bc
00000010: 1ea1 673c 2bcd ecbc cbac 9a3b 2665 1cbc
00000020: 66fb e8bc 3012 3b3c

cls2.0.weight f4 [6, 768]
0.04471492 0.032385875 0.025734503 -0.009507419 0.030006066 0.027885199 0.016700508 -0.02095331
0.032913808 0.028315736 0.006525625 -0.01207561 -0.011863599 0.01554279 0.009669816 7.4816795e-05
0.019108519 0.019515282 0.028882466 0.06429215 0.05316842 -0.026131159 0.0211288 0.010207138
-0.014789403 0.036763784 0.029711785 -0.025534099 0.05002158 0.02252266 0.039110303 -0.03240135
0.020208776 -0.02803389 -0.011913297 0.067445464 0.09006586 -0.029543212 0.01883298 0.0008506629
0.027734965 0.005408057 -0.010924143 -0.030486971 -0.01717129 0.028477175 -0.008066493 0.033220056
-0.0012328194 0.005916329 0.02059363 -0.026542347 -0.0202533 -0.048040725 -0.05749771 0.025302026
0.00422866 0.03447024 -0.0635749 0.010347978 -0.053692523 0.0055690724 0.03184551 -0.0047717597
-0.0405973 0.014056382 -0.045670014 0.008193608 0.039380755 0.046905134 -0.019122904 -0.024743157
-0.021687513 -0.02316105 0.034532826 0.0015659645 -0.0062320884 -0.044164438 -0.0085836295 0.060302444
0.035012286 0.016054623 -0.04071887 0.0197349 -0.044483937 0.027154772 -0.0034080688 0.005117183
0.006763265 0.020583445 -0.02015597 0.0016187152 0.025871722 0.041035276 -0.024757726 0.0015510381
-0.019140612 -0.014056748 -0.008981766 0.061808705 -0.026990417 -0.027990926 -0.024625124 0.034997504
0.010454131 -0.02484216 0.009280175 0.021622622 -0.045842882 -0.009511676 0.0064767897 0.0075190756
0.06812501 0.0275248 -0.07600028 -0.032310806 -0.01709807 -0.047547843 -0.027155265 -0.059040893
-0.048598167 0.058347423 -0.026522184 0.021890141 0.013199682 -0.0017505017 -0.010074692 -0.03926137
-0.0179211 -0.0026950862 0.02568946 -0.019789107 0.035534926 0.0151587995 -0.012040078 0.042296074
-0.0021508893 0.02275053 -0.011900573 0.0057910318 -0.0098576 0.02341973 0.013875931 0.004049868
0.045370623 -0.01755408 -0.032351855 0.014869257 -0.041031055 0.011983752 -0.060521457 0.014508366
0.010500119 -0.015924135 0.0026209105 0.073927484 0.01343799 -0.0121536525 0.059204914 -0.03942822
-0.05193296 0.019878155 0.042473637 -0.063294224 -0.03457481 0.05766813 0.014887126 0.023388626
-0.010752706 -0.014101526 0.026619567 -0.046471328 -0.012556499 0.032404196 0.026799675 -0.0031175255
0.001056663 0.01635105 0.031196464 -0.022339106 0.037279703 -0.056872588 -0.04976831 0.059932414
0.0061256755 0.014417248 -0.025253044 0.031420223 -0.00534037 -0.007323914 0.0070685307 -0.044148117
0.014343716 -0.006508693 0.029239038 0.016418096 -0.019718062 -0.0008734789 0.06322201 0.012608822
-0.0065797027 0.021676676 0.031413265 0.048883054 0.042710125 -0.023704516 0.0072344197 -0.010353088
0.012440048 0.043149438 -0.075143486 0.020055313 0.013370643 -0.010981639 -0.031001814 -0.0037111118
-0.03047227 0.037964065 0.01288299 -0.011159571 -0.04223303 0.024699599 -0.0025214572 -0.0040690643
0.011208537 -0.033958107 0.011815918 0.020808358 -0.025663048 0.046670493 0.0021262374 0.010998368
-0.017531954 0.061508946 -0.11338383 0.11397513 -0.025877336 -0.007572952 -0.0029942691 -0.054549783
-0.0023139133 0.0065804715 -0.030527618 0.06700032 -0.07607336 -0.009415658 -0.019231671 -0.04350686
0.01302086 0.037643522 -0.020982843 -0.017822953 0.034193937 0.0588345 0.00025970957 -0.013281826
00000000: fe26 373d 0da7 043d 2ad1 d23c 01c5 1bbc
00000010: 48cf f53c 806f e43c 81cf 883c 47a6 abbc
00000020: a1d0 063d 67f6 e73c e9d4 d53b c8d8 45bc
00000030: 8a5f 42bc 30a7 7e3c 266e 1e3c f6e6 9c38
00000040: 7889 9c3c 83de 9f3c ec9a ec3c 9aab 833d
00000050: 21c7 593d 0311 d6bc 4e16 ad3c d73b 273c
00000060: 414f 72bc 9f95 163d 2166 f33c e32c d1bc
00000070: 6ee3 4c3d 7181 b83c 2032 203d 47b7 04bd
00000080: e08c a53c 54a7 e5bc fd2f 43bc d920 8a3d
00000090: 7374 b83d 9b04 f2bc 9f47 9a3c 05ff 5e3a
000000a0: 7034 e33c 1236 b13b 2dfb 32bc d0bf f9bc
000000b0: ceaa 8cbc f748 e93c 5329 04bc c111 083d
000000c0: 8e96 a1ba c4dd c13b f9b3 a83c 566f d9bc
000000d0: 40ea a5bc 5ac6 44bd b882 6bbd 3246 cf3c
000000e0: 9290 8a3b ab30 0d3d 8f33 82bd 918a 293c
000000f0: b1ec 5bbd c47c b63b 7070 023d 6c5c 9cbb
00000100: 5b49 26bd bd4c 663c 7b10 3bbd 7c3e 063c
00000110: b74d 213d 991f 403d a3a7 9cbc 29b2 cabc
00000120: 03aa b1bc 3ebc bdbc 4b72 0d3d 0d41 cd3a
00000130: 8c36 ccbb c5e5 34bd 5aa2 0cbc b2ff 763d
00000140: 0b69 0f3d fc84 833c d4c8 26bd 16ab a13c
00000150: ca34 36bd af73 de3c e859 5fbb 0bae a73b
00000160: 619e dd3b 9d9e a83c 221e a5bc 122b d43a
00000170: eff0 d33c 9b14 283d b7d0 cabc 344c cb3a
00000180: c6cc 9cbc 464e 66bc 4228 13bc 202b 7d3d
00000190: 021b ddbc 3a4d e5bc a1ba c9bc 8b59 0f3d
000001a0: ce47 2b3c c981 cbbc e00b 183c ed21 b13c
000001b0: bfc5 3bbd dcd6 1bbc 403b d43b 9462 f63b
000001c0: 2085 8b3d b07b e13c 09a6 9bbd 5658 04bd
000001d0: 4011 8cbc 87c1 42bd b874 debc ddd4 71bd
000001e0: df0e 47bd b5fd 6e3d 0d45 d9bc f452 b33c
000001f0: 7b43 583c 1771 e5ba 5210 25bc 88d0 20bd
00000200: 45cf 92bc 0ba0 30bb b472 d23c c41c a2bc
00000210: 128d 113d 9d5c 783c bf43 45bc a63e 2d3d
00000220: eff5 0cbb 525f ba3c 9ffa 42bc b2c2 bd3b
00000230: c581 21bc bcda bf3c df57 633c c1b4 843b
00000240: 8cd6 393d 93cd 8fbc 6183 04bd 2f9e 733c
00000250: 2e10 28bd 8057 443c 59e5 77bd 7fb4 6d3c
00000260: b108 2c3c 5573 82bc 95c3 2b3b 4b67 973d
00000270: 042b 5c3c 1d20 47bc da80 723d 7c7f 21bd
00000280: a8b7 54bd 83d7 a23c d6f8 2d3d 67a0 81bd
00000290: 519e 0dbd 6b35 6c3d 22e9 733c 8199 bf3c
000002a0: 1e2c 30bc 160a 67bc 4711 da3c b858 3ebd
000002b0: c6b9 4dbc 43ba 043d fe8a db3c 664f 4cbb
000002c0: ba7f 8a3a a3f2 853c ba8f ff3c 8000 b7bc
000002d0: 9ab2 183d 3bf3 68bd dbd9 4bbd b17b 753d
000002e0: e4b9 c83b 5236 6c3c 79df cebc 7eb2 003d
000002f0: 45fe aebb 72fd efbb 229f e73b a8d4 34bd
00000300: e801 6b3c e046 d5bb b586 ef3c 3e7f 863c
00000310: c687 a1bc 2dfa 64ba 8b7a 813d 3c95 4e3c
00000320: 8c9a d7bb 4993 b13c 32ab 003d 9939 483d
00000330: d0f0 2e3d f92f c2bc b60e ed3b 00a0 29bc
00000340: 58d1 4b3c 77bd 303d d4e4 99bd 0a4b a43c
00000350: 8b10 5b3c 55ec 33bc 84f7 fdbc 2036 73bb
00000360: fba0 f9bc 3580 1b3d 2d13 533c a2d6 36bc
00000370: 8bfc 2cbd d056 ca3c 083f 25bb c955 85bb
00000380: 03a4 373c a817 0bbd 8d97 413c 4a76 aa3c
00000390: 503b d2bc 8f29 3f3d 5858 0b3b 8032 343c
000003a0: 2c9f 8fbc cef0 7b3d c835 e8bd cb6b e93d
000003b0: b5fc d3bc 8726 f8bb 803b 44bb 986f 5fbd
000003c0: 06a5 17bb ffa0 d73b 0e15 fabc 7737 893d
000003d0: 5acc 9bbd 2244 1abc bd8b 9dbc 4034 32bd
000003e0: 7255 553c 1830 1a3d 36e4 abbc 7101 92bc
000003f0: f10e 0c3d 72fc 703d a129 8839 049c 59bc

cls2.0.bias f4 [6]
0.015047228 -0.013541158 -0.011255061 0.0042470396 -0.0074826274 0.027268397
00000000: a688 763c bcdb 5dbc 2667 38bc c02a 8b3b
00000010: d430 f5bb f961 df3c

cls3.0.weight f4 [2, 768]
0.12400873 0.0026852996 -0.014098344 0.03629814 -0.047427237 -0.010286163 -0.05545627 0.031639393
-0.049635958 0.15760325 0.022917507 -0.011731978 -0.07730261 -0.038783655 0.025815368 -0.010347388
0.052519444 0.07330422 0.14852042 -0.02073773 -0.09596162 0.13331535 0.019344995 0.054842286
-0.02627847 0.048755318 -0.074509 0.034730043 -0.0249702 -0.08031219 -0.0064601065 -0.007661344
-0.015462829 0.04980139 -0.027523236 -0.15117341 0.029390033 0.10840786 0.056301262 -0.045138843
0.026880104 -0.058267992 -0.3235081 -0.014720539 0.2008196 -0.028832506 -0.085464545 -0.053821232
-0.085739605 -0.12888725 -0.015562599 -0.011742852 0.1275962 -0.037431788 0.008071855 0.12480998
-0.087563135 -0.05960072 -0.111381635 0.009006759 0.008706309 0.01721721 -0.005452742 -0.003369213
0.16343634 0.12972711 -0.015301825 0.029197283 0.17721055 -0.082911566 -0.108931094 0.014546629
0.027889658 0.14991577 0.0048563182 0.039601237 -0.07066066 -0.12419852 -0.0704534 0.08380226
0.029600026 0.043633748 0.2522811 0.04355777 0.072386324 -0.0062405667 -0.048470788 0.06199765
-0.021107852 0.07048628 0.06941585 0.041769143 0.040036857 0.18065158 -0.06232427 -0.017046146
0.0207101 -0.03741992 0.038537152 0.030608306 -0.05765884 -0.025216298 -0.061579414 -0.081963666
-0.08846063 0.08602303 0.052425075 0.17532067 0.012705055 0.12209576 -0.022055464 -0.08156973
-0.13261177 0.04362148 -0.009729817 0.077091806 0.0028081625 0.29198226 0.0051132496 -0.05261714
-0.24736388 0.006516876 -0.018989002 -0.02787681 -0.1415477 0.026392333 0.004146066 0.2686013
0.057395376 0.2098208 -0.072799616 0.01261513 -0.1167162 0.046648346 -0.13769141 0.003749555
0.021516481 0.11043484 -0.038895313 0.05127404 0.06561011 -0.05710899 0.0579083 0.05239551
-0.028429488 -0.008287519 0.05989376 -0.066517785 0.013022264 -0.021568026 0.0010893883 -0.26917398
0.07624816 -0.068406776 0.15814973 -0.02435965 0.129544 -0.023938743 0.078874305 0.070921995
0.032287844 0.0016057626 0.070290945 0.050324745 -9.739056e-05 -0.08954284 -0.07509326 -0.0854749
-0.008553081 0.029417899 0.28320038 -0.032636892 0.024148887 0.050568186 -0.14982197 0.080125555
-0.040684354 0.025707075 0.0075549893 0.040987097 0.02426883 0.051902648 0.08951909 0.060670696
0.03734877 0.05235238 -0.027435951 0.016048552 0.018417077 -0.10779581 -0.19129305 0.3211191
-0.020236546 0.023398122 0.0018931675 -0.020938512 0.066643946 0.09937975 -0.11888012 0.029761067
-0.14920507 0.02954009 0.06587014 0.058050703 -0.17779107 0.048357338 0.06767125 -0.1724062
-0.024500981 -0.037103243 -0.089501105 -0.015720427 0.04496433 0.05084078 0.01637634 0.04985829
-0.0011420139 -0.06643546 -0.047086027 -0.12556058 -0.010518736 0.2992094 0.13806029 0.11155537
-0.05200415 0.006359824 0.05860244 -0.049882952 -0.012866269 0.046317507 -0.20234714 0.017178264
0.15305234 -0.106641896 0.1861572 -0.16719873 0.19765717 -0.040246446 0.21401174 -0.011953044
-0.16139205 -0.0042729573 0.12842889 0.048654824 -0.027901605 0.012442357 0.0028874842 -0.052078918
-0.06829267 -0.014730851 -0.076882906 0.21044983 0.04375978 -0.056090828 -0.26244575 -0.049189586
00000000: 4af8 fd3d dafb 2f3b befc 66bc 5cad 143d
00000010: 1043 42bd 4b87 28bc 1d26 63bd 4f98 013d
00000020: 134f 4bbd bf62 213e 7fbd bb3c 7b37 40bc
00000030: d550 9ebd 9cdb 1ebd c07a d33c 1788 29bc
00000040: a11e 573d 8620 963d bd15 183e 2ce2 a9bc
00000050: 8787 c4bd d283 083e 6579 9e3c 4ea2 603d
00000060: f245 d7bc a8b3 473d 2d98 98bd 1741 0e3d
00000070: 4e8e ccbc b87a a4bd 4daf d3bb 030c fbbb
00000080: ce57 7dbc 8bfc 4b3d 6978 e1bc 34cd 1abe
00000090: 5ec3 f03c f104 de3d 279c 663d 82e3 38bd
000000a0: aa33 dc3c 6baa 6ebd dba2 a5be 6a2e 71bc
000000b0: a7a3 4d3e 2632 ecbc 0908 afbd a773 5cbd
000000c0: 3f98 afbd 05fb 03be 45fa 7ebc 1765 40bc
000000d0: 94a8 023e 1352 19bd d03f 043c 609c ff3d
000000e0: 4d54 b3bd e21f 74bd 0e1c e4bd 1691 133c
000000f0: e8a4 0e3c 1b0b 8d3c eaac b2bb 04ce 5cbb
00000100: db5b 273e 2fd7 043e 81b4 7abc 242f ef3c
00000110: af76 353e 8acd a9bd 4417 dfbd fc54 6e3c
00000120: da78 e43c 8583 193e c021 9f3b e834 223d
00000130: 89b6 90bd cb5b febd df49 90bd 85a0 ab3d
00000140: c17b f23c 4db9 323d fd2a 813e a269 323d
00000150: 483f 943d ab7d ccbb 4e89 46bd 3ff1 7d3d
00000160: 60ea acbc 1c5b 903d e629 8e3d 1f16 2b3d
00000170: b0fd 233d bafc 383e bc47 7fbd 5ca4 8bbc
00000180: 3aa8 a93c a145 19bd 22d9 1d3d 45be fa3c
00000190: ad2b 6cbd 6992 cebc b23a 7cbd 91dc a7bd
000001a0: d92a b5bd d82c b03d adbb 563d 4387 333e
000001b0: dd28 503c 580d fa3d a9ad b4bc 080e a7bd
000001c0: 61cb 07be 70ac 323d cf69 1fbc 4fe2 9d3d
000001d0: 2609 383b b37e 953e 0c8d a73b 1285 57bd
000001e0: f54c 7dbe 858b d53b d38e 9bbc e85d e4bc
000001f0: e1f1 10be bc34 d83c b9db 873b 1c86 893e
00000200: 6a17 6b3d 44db 563e f717 95bd b1af 4e3c
00000210: e708 efbd 5612 3f3d fafe 0cbe 18bb 753b
00000220: 5543 b03c a92b e23d b150 1fbd ba04 523d
00000230: 985e 863d 1eeb 69bd 4131 6d3d ad9c 563d
00000240: f5e4 e8bc 60c8 07bc 2953 753d 7a3a 88bd
00000250: 555b 553c 6eaf b0bc cec9 8e3a 2cd1 89be
00000260: ff27 9c3d da18 8cbd 01f2 213e e48d c7bc
00000270: 2fa7 043e 2f1b c4bc da88 a13d 8d3f 913d
00000280: 4240 043d 7478 d23a b3f4 8f3d 5221 4e3d
00000290: 293e ccb8 3d62 b7bd 7fca 99bd 770d afbd
000002a0: 3922 0cbc cefd f03c a4ff 903e 43ae 05bd
000002b0: e3d3 c53c 9620 4f3d ee6a 19be de18 a43d
000002c0: a3a4 26bd a597 d23c d88f f73b 16e2 273d
000002d0: 6dcf c63c df97 543d c955 b73d d681 783d
000002e0: 06fb 183d 736f 563d 5cc1 e0bc 4178 833c
000002f0: 69df 963c 0dc4 dcbd 53e2 43be b969 a43e
00000300: 1dc7 a5bc 6bad bf3c 2924 f83a 3e87 abbc
00000310: 9f7c 883d 9c87 cb3d 6c77 f3bd 7bcd f33c
00000320: 37c9 18be 0ffe f13c ede6 863d 93c6 6d3d
00000330: dd0e 36be 5812 463d 3997 8a3d 408b 30be
00000340: 48b6 c8bc 92f9 17bd 5b4c b7bd 20c8 80bc
00000350: 842c 383d 6c3e 503d ad27 863c 3538 4c3d
00000360: a1af 95ba 500f 88bd 47dd 40bd f492 00be
00000370: c756 2cbc f931 993e ad5f 0d3e 2477 e43d
00000380: 4e02 55bd 1266 d03b 1d09 703d 1152 4cbd
00000390: 0bcd 52bc 6db7 3d3d 1734 4fbe 6eb9 8c3c
000003a0: c1b9 1c3e 1167 dabd fe9f 3e3e 2536 2bbe
000003b0: a466 4a3e 75d9 24bd e525 5b3e b3d6 43bc
000003c0: f543 25be 2a04 8cbb dd82 033e 484a 473d
000003d0: e891 e4bc 07db 4b3c f23b 3d3b b450 55bd
000003e0: 07dd 8bbd ab59 71bc c974 9dbd 2980 573e
000003f0: 743d 333d 7fbf 65bd 4a5f 86be 057b 49bd

cls3.0.bias f4 [2]
0.023331665 0.01618085
00000000: 0c22 bf3c b48d 843c
