CLIP/saved_models/model_CLIP-16_CLIP_2024-0725_weights.pth (torch, 40042 bytes, 6 tensors)

cls1.0.weight f4 [10, 512]
00000000: e37a eebe 5e01 f2bc 194a c6bd 0c83 b1bd
00000010: 2f7e 14be 91d1 293e ec5d 25bd 520e 22be
00000020: 20a7 e7be 9fd2 02bc 12f0 58bd 1e62 e23d
00000030: 8cbf b9bd c0b8 03be 4e46 2dbe 4613 b0be
00000040: ca02 dabd 7baf 19be 43ac c9bd bbbc eabd
00000050: ae4d 523c 2760 173e 2b5e 5e3e 5501 58be
00000060: fc02 233e 2c9c cebd 414e 82bd 1438 02bd
00000070: 9aaf 833d 4a2d 4c3e 36f8 0f3a d1eb f6bd
00000080: 3b42 203e c633 863d 8fe9 b23d 786a 193e
00000090: bafa 06be 8d07 563d ef0c 3a3d 204d a8bd
000000a0: fc2c e13e a56f 773e fd97 353e aa8e 31bd
000000b0: ce3a 9bbd fc95 a83e 5859 03be a228 533e
000000c0: 67db 3d3e 2a45 073f c6da 3e3e 9cf9 bfbd
000000d0: 3c9f 9bbb 3874 7dbe 9ae3 433e 0448 2e3e
000000e0: 9402 01be 6594 c43d 05ac 003e a81f 3b3e
000000f0: 220f ec3d 221e 0e3c 0ff0 f9bd 1048 243e
00000100: 51a9 6cbe 8994 a23e 2495 fa3d 74ef e73d
00000110: f61e 76bc b828 3c3e dff7 8a3e 104d 333e
00000120: 13c0 303d 336b cdbd 0c5d 113c 76d7 ca3d
00000130: 4cda 923d 9889 5bbe 9e33 01bd 213c 2eb9
00000140: d12c 84be 3634 473d 9e59 ad3d 87bf 8c3d
00000150: 69cd 3f3d 69fe f4bd ecc5 f93c 807b 333e
00000160: a2b5 21bc bf09 463e 2050 82bc 07ae b53d
00000170: 95b3 91be de83 28bd abee 843b 4114 abbe
00000180: 5056 1bbe 7855 b73c 4eb9 ae3d 06c8 143d
00000190: 0d4c 523e eaeb 5f3d 461f 8dbd 6744 a1bc
000001a0: 69c2 393d 27a0 2f3e 3899 623c 4bc2 bcbd
000001b0: 5940 893e f935 9a3d 852e e5be c250 233e
000001c0: 86fa 803e 04f6 db3c 4142 b5be d3db 97bd
000001d0: bc71 203e f6f9 2e3f 049b b4bc 9edc 9a3d
000001e0: 48ea 04be c8f4 5c3d 0225 2dbe 05ff 5e3d
000001f0: 8e31 46be 0bcf cbbd 31be bdbd 4f49 a13d
00000200: 9bba 23bd 6912 ecbd 0360 113f 0dc6 8f3e
00000210: 26e2 f93d 9fad a1bc d67e 0a3e 0e3c 47be
00000220: 4818 c2bc 177e 00be 88cf 913d 3a22 4d3d
00000230: 7bd1 343a e119 0ebd b212 bb3d 9b7d 7bbe
00000240: 8823 423d 162b 9fbc 624b b33e bf88 babd
00000250: d2f6 dc3e b388 b13c e4f6 493d 8e62 143e
00000260: 6446 7a3e 7fe6 073e e059 84bd 34e5 1dbe
00000270: 2559 803e 1f36 29be 4f3b 293d 8782 91be
00000280: c856 d9bd 0f4d 58bd 1398 903d 9ea8 04bc
00000290: 576d 7ebe b84f dd3d 6464 023d 6c0c 463d
000002a0: eafc 0d3e bd36 fb3b 221a ea3c 3e82 e5bd
000002b0: d75f 91bd 2fe2 163e 130f 983d b09c 663d
000002c0: 796c 2dbd f29a c23e 050e 5cbe ea5f debe
000002d0: 0902 21be 7f83 bc3e dc11 1e3d 56e0 07be
000002e0: 552e 523e 44e9 9dbb eca1 82bc d61e 8bbd
000002f0: 127b ebbd 7724 babd 2ad9 c03d ffbe 243e
00000300: 6cc1 58be 211e ccbd 7ad9 803e 64d8 d8bd
00000310: 46b1 11be 4aea ac3c 25f2 b2be fa65 593d
00000320: ce77 39be f2ed abbd 4a48 b6bd 4929 0abd
00000330: b9e7 c0bd 59ba 59be b604 8ebd f09d 5dbd
00000340: 5909 003d 4533 eebd 6273 9a3c 4b1e 4e3e
00000350: 7aad 093e 9ee5 fe3d 9a27 693d 742f bd3c
00000360: 9852 443d cfbb 51be b958 a53d 054a c2bd
00000370: 6c42 24be 5644 3c3d 162a 4bbe 42c6 2c3d
00000380: 4a56 96bd fbb3 3a3e a044 293e 3b16 24be
00000390: c03f ba3d 748f 453a 3af4 c23d 9c90 87be
000003a0: 2007 c2bd 5132 60bd 7a53 9f3e 28a8 a53d
000003b0: 1bd6 52be a091 263e c9b9 c1ba b1af 69be
000003c0: 9b63 1fbb 9523 b7be 9bf6 debd eabf b7bc
000003d0: 8f1c 19be bbcd 96bd decc 05be 6d1c b23d
000003e0: d73e c53d 41b5 4f3e fba9 13bf b6a7 9c3e
000003f0: fcea 473e e356 2fbe be74 b4bc fc02 213e
-0.4657813 -0.029541668 -0.09682102 -0.08667573 -0.1450126 0.1658385 -0.040372774 -0.15825775
-0.45244694 -0.007984786 -0.052963324 0.110538706 -0.09069738 -0.12863445 -0.1692135 -0.34389704
-0.10645063 -0.15008347 -0.098473094 -0.11461779 0.012835903 0.14782773 0.2171561 -0.21094258
0.15919107 -0.10088381 -0.06362582 -0.03179176 0.06429978 0.19939151 0.00054920034 -0.12056697
0.15650265 0.06552844 0.08735954 0.14982021 -0.13181582 0.052253295 0.04542249 -0.082178354
0.43979633 0.24163683 0.1773376 -0.043348946 -0.075795755 0.3292693 -0.1282705 0.20620969
0.18540727 0.5283991 0.18638143 -0.09373781 -0.004749207 -0.24751365 0.19129792 0.1701966
-0.1259864 0.095986165 0.1256562 0.18273795 0.11526324 0.008674176 -0.12203991 0.16043115
-0.23111464 0.31753948 0.122354776 0.11324969 -0.01502203 0.18374908 0.27142236 0.17509866
0.043151926 -0.10030212 0.008872282 0.09904377 0.07170543 -0.21439207 -0.031543367 -0.00016616333
-0.25815442 0.048633777 0.08464359 0.068724684 0.046826754 -0.119625874 0.030489884 0.1752758
-0.009869965 0.19339655 -0.015907347 0.08871084 -0.28457323 -0.041141383 0.0040567718 -0.3341389
-0.15169644 0.022379622 0.08531438 0.03632357 0.20536824 0.054668345 -0.068907306 -0.019685937
0.04535142 0.17150937 0.0138304755 -0.09216746 0.26806906 0.07529826 -0.44762054 0.15948775
0.25191134 0.026850708 -0.3540211 -0.07414975 0.15668386 0.6835016 -0.022046573 0.07561611
-0.12979996 0.05394438 -0.16908649 0.054442424 -0.19354841 -0.099516 -0.09264792 0.07875311
-0.039972883 -0.11526949 0.5678713 0.28080788 0.122013375 -0.01973611 0.13524947 -0.19456503
-0.023693219 -0.125481 0.071196616 0.05008147 0.000689767 -0.03469265 0.09134425 -0.24559633
0.047397166 -0.019429725 0.3501845 -0.091081135 0.4315706 0.021671629 0.04930772 0.1449072
0.24440914 0.13271521 -0.06462455 -0.15419465 0.25068012 -0.16524552 0.041316327 -0.28419897
-0.10612255 -0.052807864 0.07060256 -0.008096842 -0.24846397 0.10806221 0.03183402 0.04835169
0.1386601 0.0076664374 0.028576914 -0.11206482 -0.07098358 0.1473472 0.0742475 0.056301773
-0.042339776 0.3800884 -0.21489723 -0.43432552 -0.15723433 0.36819074 0.03859125 -0.13269171
0.20525487 -0.004819067 -0.015946351 -0.06792991 -0.11498083 -0.09088986 0.09416421 0.16088484
-0.21167535 -0.09966684 0.2516592 -0.10588148 -0.1422778 0.021107811 -0.34950367 0.053075768
-0.18112108 -0.08394994 -0.08900507 -0.03373078 -0.094191976 -0.21262492 -0.06934492 -0.0541057
0.031258915 -0.11630873 0.018853847 0.20128743 0.13445082 0.1244614 0.056922533 0.023093916
0.04793033 -0.204818 0.08073563 -0.09486774 -0.16040963 0.045963608 -0.19840273 0.04218126
-0.07340677 0.1823272 0.16530085 -0.16024105 0.090941906 0.000753633 0.09519239 -0.26477516
-0.09474015 -0.054735485 0.31118375 0.08088714 -0.20589487 0.16266489 -0.00147801 -0.22820927
-0.0024320844 -0.35769334 -0.1088688 -0.022430379 -0.149523 -0.07363459 -0.13066432 0.08696828
0.096311264 0.20283987 -0.57681245 0.30596703 0.19523233 -0.17122988 -0.022028323 0.15723795

cls1.0.bias f4 [10]
00000000: 699a 13bc 91bd a43c c73a 1fbd 28a3 1b3d
00000010: e5c5 39bd aed9 de3c afdc 653c 8d0e 563c
00000020: a264 0a3d fa41 c9bc
-0.009008982 0.020109924 -0.038874414 0.037997395 -0.045354743 0.027203407 0.014029666 0.013064993
0.033787377 -0.024567593

cls2.0.weight f4 [6, 512]
00000000: 504b e93c 7b21 e0bc 2368 db3a 9e4e bc3c
00000010: dde4 dbbc dd68 81bd ae13 29bd 8e39 1fbd
00000020: 8462 e4bb 1bad 663d f5ab ddbc a8ad d6bc
00000030: 1a22 2dbc a273 7bbc 6075 693c e17f bcbd
00000040: cbad 153d 764e 553c 0aa1 3c3d e944 c739
00000050: afb0 523d 421a b23d 3e58 903c 9dd1 b33c
00000060: 6f3f c33c f186 113c d31a 873c a8e0 583c
00000070: 2fb9 8c3c 19d1 d43d 04ec c93b 497d d7bc
00000080: b715 51bd 68e0 13bd ba13 8abb 080f 67bd
00000090: d1f9 9c3d 3ce6 29bc 59d9 abbb 2870 bc3c
000000a0: a249 293d 7511 0a3c eade 07bd a9cc 96bc
000000b0: eaa6 a53a 4876 3b3d d064 0dbd d6fd 74bd
000000c0: 7fab 27bd 6137 d739 5ce4 d6bc ee2b 213c
000000d0: bcf9 273d 411d 97bd fa2e 2fbd b960 183c
000000e0: 7358 f53c 0193 21bd a547 1ebb 234e 2cbc
000000f0: c9e4 a53c 8383 42bc 73f6 9cbc f0dc 863d
00000100: e5e0 a43d 37d7 02bd c605 58bd e3ab 953c
00000110: 85a9 c0bc b574 9dbd bbaa 5fbc e717 9e3c
00000120: 90a2 cc3c 4f04 5dbc 9ee1 583d 99e7 023c
00000130: 8cc0 e8bc 9494 433d b639 31bd 65b4 363c
00000140: ae75 ffbc f55a 57bc 20c0 103b e23e e4bb
00000150: 5290 663d b1ac bbbc 70ee 33bc 7876 ddbc
00000160: 4f4f 04bd ad43 8d3d ba98 b4bc 85a0 313b
00000170: dd30 0cbd 2e2a b1bd 110a 9bbd 4933 213d
00000180: 4e8e ff3a a10d 863c 522c 82bd ce64 003d
00000190: ca44 b33c 220d fb3c 2d21 223d a3d2 4a3d
000001a0: a106 403d 6fca 47bd 1210 6f3c bfbc f63c
000001b0: 1ee5 49bb 5b3a 83bd 9a89 dbbc 9bda 49bd
000001c0: 6654 453d fe28 3abc e1f1 2c3d e3b6 963c
000001d0: e88f a2bc c73c 4abc 4cdf d8bc a199 efbb
000001e0: f2bc 7abc 2b5e 41bd 743f 09bd 8386 10bd
000001f0: 17b0 003d a986 c23c 38a7 933c efc8 23bd
00000200: 6bdf b7bd 2724 5cbd 7490 50bd b321 4fbd
00000210: f36b 88bd 1b67 dd3c d3f3 d13c a180 653c
00000220: aa37 f33b fc08 4dbc d435 503c 5d7c 773b
00000230: f943 2ebd bc9b fcbb 5894 5abc b6ab 773d
00000240: 5435 a0bd 8e40 72bc ab38 383d f8fe 8e3b
00000250: b035 11bc 44ce 9d3d 744a 13bd eda9 e1bc
00000260: 0f19 16bd e918 603c b85c 4ebd cf2d fd3c
00000270: 2151 453d 46b7 073d 4422 dfbc a521 7fbc
00000280: 2d56 213d 6585 08bc 0fe7 c5bc 395d 40bc
00000290: 7a86 ccbc 9145 afba 258a 4b3c 5d30 9e3c
000002a0: e271 00bd cf3e 00bd e572 173c 2b47 393d
000002b0: 0733 36bc 8c2f f0bc cff4 953d 0fd8 b13d
000002c0: 8af1 2abc 1100 a8bc 95c6 253d 3aac 66bc
000002d0: 3360 9c3c c93d 39bd 2589 f13c bf21 23bd
000002e0: b912 cf3a 2f12 c2bc 93fd 843c f23f b53a
000002f0: bf47 fa3c 63c8 6b3d 13eb 95bb ca08 2ebc
00000300: 58d7 1ebd d1dc 88bd a9f0 233d 888e 683b
00000310: 8a49 06bc 4e61 7dbc be16 39bd 5922 083c
00000320: 651f c53c 4c74 0fbd e779 a6bb e552 03bd
00000330: b9f7 833c e432 ab3a 20bd 253d 86bd 51bd
00000340: 4646 60bc b277 943c 3acb 8f3c 891f 29bd
00000350: a361 52bc c726 383b 0f69 013d fb72 20bd
00000360: 73b9 e83c 9192 6238 1371 5e3d 87b2 7c3c
00000370: 1e81 573c 203c 4a3d 74d3 9f3c aff3 57bc
00000380: 9868 8b3c a999 793c 9b2c 64bc ad4e 9fbb
00000390: b097 b9bc 5bda 4ebd a38a cdbc 90f8 94bd
000003a0: 979a b73c 7bd9 083d 5e0c 40bd 49d9 a43c
000003b0: 8883 08bc 7aef a73d f060 58bd 92b9 8dbb
000003c0: a536 243c 4bf8 7f3c d347 523d d520 8ebc
000003d0: 80a8 d33c 2efc 483d cf3e 903b c969 f23c
000003e0: 4c2f 2dbc eb4c 1cbd 8bd8 9abc edf8 debc
000003f0: b84e c83c 578e 6ebb 4d58 423d 8138 bf3b
0.028478295 -0.027359715 0.0016739409 0.022986706 -0.026842529 -0.06318829 -0.041278534 -0.038873248
-0.006969752 0.05631743 -0.027059535 -0.026205853 -0.0105672125 -0.015347393 0.014249176 -0.092040785
0.036542695 0.013019195 0.046052016 0.0003800758 0.05143803 0.086964145 0.017620202 0.021950537
0.023833958 0.00888227 0.016492283 0.013237156 0.017178146 0.10391445 0.0061621685 -0.026304858
-0.0510461 -0.036102682 -0.0042137774 -0.05641082 0.07664836 -0.010369834 -0.0052444157 0.023002699
0.041329987 0.008427014 -0.03317157 -0.018408136 0.0012638245 0.0457671 -0.03451997 -0.05981239
-0.040935036 0.00041049256 -0.026231937 0.009837134 0.04100965 -0.073786266 -0.04276941 0.009300404
0.029949402 -0.039446834 -0.002415159 -0.010516676 0.020250695 -0.011872175 -0.019160485 0.06585109
0.08050708 -0.031943526 -0.05273988 0.018270439 -0.023518333 -0.07688276 -0.013651545 0.019298507
0.02497986 -0.013489797 0.05294954 0.0079897875 -0.028412126 0.047749117 -0.043267928 0.011151408
-0.031184044 -0.013144244 0.0022087172 -0.006965504 0.05628998 -0.022909494 -0.010982141 -0.02703403
-0.032302197 0.06897674 -0.022045482 0.0027103734 -0.034226287 -0.08650623 -0.075702794 0.03935555
0.0019497366 0.01636392 -0.0635611 0.031346135 0.021883387 0.03064591 0.03958242 0.049517285
0.04688132 -0.04877704 0.014591234 0.030119298 -0.003080673 -0.06407615 -0.026799012 -0.049280744
0.04817619 -0.011362312 0.04222286 0.018397754 -0.01984401 -0.012343592 -0.026473664 -0.007312015
-0.015303837 -0.047208946 -0.03350778 -0.03528453 0.031417932 0.023745852 0.018024072 -0.039986547
-0.089781605 -0.053745415 -0.05091901 -0.050569247 -0.06661215 0.027026704 0.02562896 0.014007718
0.007422407 -0.012514349 0.012708146 0.0037763335 -0.042545293 -0.0077089947 -0.013341032 0.06046649
-0.078226715 -0.014785899 0.044975918 0.0043638907 -0.008862898 0.07705358 -0.035959676 -0.027546847
-0.03664499 0.013677814 -0.050381392 0.030905632 0.048173074 0.033133768 -0.027238019 -0.015571986
0.039388824 -0.008332585 -0.024158029 -0.011740976 -0.024966467 -0.0013372173 0.012423073 0.01931017
-0.031358607 -0.0313099 0.009243702 0.045233887 -0.011120564 -0.029319547 0.07322084 0.08683788
-0.010433564 -0.020507844 0.040472586 -0.014079148 0.01908884 -0.04522494 0.02948434 -0.039827105
0.0015798426 -0.023690311 0.016234195 0.0013828261 0.03055179 0.05756415 -0.004575142 -0.010622213
-0.038779587 -0.066827424 0.040024433 0.0035485346 -0.008196244 -0.015465094 -0.045187704 0.00830897
0.024062822 -0.03502302 -0.00508045 -0.032061476 0.016109334 0.0013061431 0.040463567 -0.051206134
-0.0136886295 0.018123481 0.01755296 -0.04128984 -0.012840661 0.0028099285 0.031594332 -0.039172154
0.028408742 5.40191e-05 0.054307055 0.015423424 0.0131533425 0.049373746 0.019510008 -0.013180657
0.017017648 0.015234389 -0.01392665 -0.004861674 -0.022655338 -0.05050121 -0.025090521 -0.07273972
0.022412581 0.03341053 -0.046886794 0.02012314 -0.008332141 0.081999734 -0.05282682 -0.0043251
0.010022794 0.0156231625 0.05133803 -0.01734964 0.025837183 0.049068622 0.0044020186 0.029591458
-0.0105703585 -0.038159292 -0.018902084 -0.027218306 0.024451599 -0.003640076 0.04744749 0.005835593

cls2.0.bias f4 [6]
00000000: aaf7 f4bb c528 d6ba ae5d ca3c 0f47 2dba
00000010: decd f83c ab91 e53b
-0.007475813 -0.0016339055 0.024702873 -0.0006610015 0.030371603 0.0070058904

cls3.0.weight f4 [2, 512]
00000000: f0d9 dfbc 6309 51be ad17 713d 5e12 363e
00000010: 70ad 2b3e 0bf2 7dbd 63a8 993d a842 033e
00000020: 22f3 c83d afa6 f7be 3cdd a7bd 0246 7c3c
00000030: 0377 923c a62f 9a3e 3c67 903d acd7 2bbe
00000040: 046f a13d b52d 833e ed7b 1fbd 21aa 3a3d
00000050: 1caf b13d 7565 5b3e 057e ddbc c69a 73bd
00000060: da5b 873e 06e0 c53c a8ae 713e 67bd 3bbe
00000070: b1d8 5e3d 7454 91bd e048 a13e 6d5b 8abe
00000080: fc6a 9a3d dd03 2ebd 6f32 34bd 9800 3dbd
00000090: bc4f 09be f042 08be f40c a33d 2f09 86bd
000000a0: 9fee 1dbd 67f6 3e3c ed3a e1bd f802 6d3d
000000b0: 8254 ce3c 2518 263e 6780 f23d 37f6 393e
000000c0: 4fee 9cbd 7aaf 02bc f4bf 103d 916b 0fbb
000000d0: 4f97 c43d fc25 cfbd b3d7 163e e6b6 533e
000000e0: 4250 2e3d 9b97 923d 64d0 853d 49f0 2e3d
000000f0: b266 b3bc 0a50 c73c 0a4b a53d 872c 803e
00000100: 61b0 8cbd 750b 2bbc fd8d ef3d bf05 263d
00000110: b0eb cdbc adc2 9e3d 2dae 003e 7f3c 25bd
00000120: fe13 e63d 7e0f 46be d623 2f3d e7b5 0fbe
00000130: 0b70 60be 3fcd bdbd d24c d4bd b635 dabd
00000140: 7e32 5c3e 3685 58bc b534 fbbd eaad 55bd
00000150: 08e2 093e e2b6 473d 089d 0ebe 84b8 fcbc
00000160: 8a79 913c 9b8c 6fbd ba5b 873d 374c 8d3e
00000170: 3313 b83c b2aa aabd 82e4 b63d e3e4 253e
00000180: f834 6dba d951 b33b 9848 ed3d 3a0f 283e
00000190: fde5 43bb f7a7 073e 2ee9 4ebe 3c3f d33b
000001a0: 71cf e7bd 948f 1b3e f4d1 bf38 71e0 20bd
000001b0: 35bb 103b b3ea 21bc 81c1 c7bd 7bd4 5a3d
000001c0: 0fb0 d8bc de87 143d 41fe 373d f7b6 543d
000001d0: bca1 993c 95c9 2f3d f041 913e e7f9 05be
000001e0: 8c25 c63e ce54 65bc f097 0ebe 5ce7 833e
000001f0: 3065 a2bd 4223 093e 367a f03c 3231 833d
00000200: 1383 8a3d 7688 81bd 5631 92bd 2c8e 0b3e
00000210: 519b 8b3d 33a7 9c3d c88a 983d 7a37 a7bd
00000220: a3a0 c7bd f23b 943c 85f3 1dbe 0de3 023e
00000230: cf64 59bd 3831 1d3d 1b01 333d 05e3 f7bd
00000240: b951 493c c5db 133d f5b4 bc3c 7d65 35bd
00000250: 9b9a 893d 920a 94be adef e9bc 9577 bdbd
00000260: d343 0e3d f5fa 67bb 406b 1c3d e62e 84bd
00000270: 85f1 8d3d 8de7 79bd 81fd 25be 02e1 37be
00000280: 25aa dfbd edd8 9ebd 5bef 73bc 749d 5abd
00000290: b6ba 4ebd df3d 20bc b44a a23d 2c48 3e3c
000002a0: a4e0 d93d e2f2 4b3e c5e6 8f3d d336 11be
000002b0: 64bd 913e bea1 a8bd 99c0 193e bb33 113d
000002c0: b777 b73c d6d8 16be 9783 303d d744 c8bd
000002d0: 1706 88be 4eb8 1d3e cba7 95bd b248 dd3d
000002e0: cee7 c9bd e2ca 013d 4375 543e 322f 233b
000002f0: 3f1e dfbd bb93 59bc 91ef f0bc b462 e03d
00000300: 088a b3be 99d8 4fbd 02b7 983e bbda cbb9
00000310: b74a ebbc 0abb 913c 1a78 09bd 5293 ce3c
00000320: 73ff 973d 0bb1 42bd 1a4e 853d 0c69 ac3d
00000330: fd54 7bbe 7207 88bd 72a4 00be 96cd 083e
00000340: 8cee d53e d60d 05be fdb7 5a3e 6376 3d3d
00000350: 3446 6ebd ad06 62ba 75ae 6ebe a630 783d
00000360: 5079 30bd f125 883c 2d15 a03d eb31 b4bd
00000370: 1b72 b03d 8c9c 51bd 75a7 26bd 0bc8 883c
00000380: 99b1 043d 44db 0abe 7539 f4bd 61e2 a13d
00000390: 690b 393e bf9d f3bd ee24 783d f03c 063d
000003a0: 785a a73d e3bd 19bd 62a7 bdbd 18d3 aabc
000003b0: 9155 1bbc e93e 443e 504f 553c 2875 ec3d
000003c0: 7e72 36bd 0f14 8d3d 81d7 e23c 97c5 dfbc
000003d0: 6670 373c 7270 17be fd12 023e c0b4 983d
000003e0: d288 a43e 786d 493d 6f3d 3fbc 9cc4 bcbd
000003f0: 25b1 d03d a1dd 303d 4f37 7fbe 5fb9 573d
-0.0273256 -0.20413737 0.05886047 0.17780444 0.1676538 -0.06199841 0.0750282 0.12818396
0.09811999 -0.48369357 -0.08196494 0.015397551 0.017879015 0.30114478 0.070509404 -0.16781491
0.07882503 0.2562081 -0.038936544 0.045572404 0.086759776 0.21425422 -0.02703763 -0.059473775
0.26437265 0.024154674 0.23601782 -0.1833397 0.05440587 -0.07096186 0.31500912 -0.27022877
0.07539937 -0.042484153 -0.04399341 -0.046143144 -0.13409323 -0.13306785 0.07961455 -0.065447204
-0.038557645 0.011655427 -0.10997567 0.05786416 0.02518678 0.16220148 0.11840897 0.1816033
-0.07662641 -0.007976407 0.03533931 -0.0021884183 0.09599172 -0.10114667 0.1473072 0.20675239
0.04255701 0.07157823 0.06533888 0.042709623 -0.021899555 0.024330158 0.08070953 0.25033972
-0.06869579 -0.010439743 0.11697004 0.040532824 -0.025136799 0.07751975 0.12566443 -0.040340897
0.11234282 -0.19341847 0.042758785 -0.14034234 -0.21917741 -0.09267663 -0.10366215 -0.10654776
0.21503636 -0.013215354 -0.122659124 -0.05216781 0.1346513 0.048758395 -0.1392709 -0.030849703
0.01775815 -0.0584837 0.06609292 0.2759721 0.022470092 -0.08333339 0.08930303 0.16200595
-0.00090487255 0.0054724035 0.11586112 0.16412058 -0.0029891722 0.13247667 -0.20206138 0.006446747
-0.11318863 0.1519149 9.1466965e-05 -0.039276544 0.002208424 -0.009882617 -0.09753705 0.053425293
-0.026451139 0.036262386 0.04492021 0.0519323 0.018753879 0.042916853 0.2837062 -0.13083611
0.3870052 -0.01399727 -0.13925147 0.2576245 -0.07929456 0.13392356 0.02935515 0.06405868
0.06763282 -0.06324856 -0.07138316 0.13628453 0.06816734 0.07649078 0.074483454 -0.08164878
-0.09747436 0.01809499 -0.15424927 0.12781925 -0.053074654 0.038377017 0.043702226 -0.121038474
0.012287551 0.03609826 0.023035506 -0.04428624 0.06718942 -0.28914315 -0.02855667 -0.09251324
0.03473265 -0.0035397385 0.03818822 -0.06454258 0.06930832 -0.06101184 -0.16209985 -0.17956927
-0.10921124 -0.07756219 -0.01488861 -0.053372815 -0.05047103 -0.009780376 0.07924405 0.011613887
0.1063855 0.19916871 0.07026438 -0.1418107 0.28464806 -0.08233975 0.15014876 0.035449725
0.022395952 -0.14731154 0.043094244 -0.09778755 -0.26567146 0.15402338 -0.073073946 0.10804881
-0.09858666 0.031687625 0.20747857 0.0024899957 -0.10894441 -0.013279851 -0.02941111 0.10956326
-0.35066247 -0.050743673 0.29827124 -0.00038882144 -0.02872215 0.017789382 -0.033561803 0.025216732
0.0742177 -0.047532123 0.06509037 0.084184736 -0.24544139 -0.06642045 -0.12562731 0.13359675
0.4178356 -0.12993559 0.21359248 0.04625548 -0.05817242 -0.00086222106 -0.23308738 0.06059327
-0.043084443 0.016619654 0.07816539 -0.087985836 0.08615514 -0.051174685 -0.040687043 0.01669695
0.032395933 -0.13560206 -0.119250216 0.079045065 0.18070759 -0.11895322 0.060582094 0.03277296
0.081715524 -0.037534606 -0.09260441 -0.02085261 -0.00948085 0.19164623 0.013019398 0.11545783
-0.044542782 0.068885915 0.02769065 -0.027315898 0.0111962315 -0.14788988 0.12702556 0.0745635
0.32135636 0.049176663 -0.011672362 -0.09217188 0.10190038 0.04318011 -0.24923442 0.052667018

cls3.0.bias f4 [2]
00000000: 55f5 f73b 7545 42bd
0.0075670877 -0.04742952
