CLIP/saved_models/model_CLIP-16_CLIP_2024-0424_weights.pth (torch, 38790 bytes, 2 tensors)

classifier.0.weight f4 [18, 512]
00000000: 1535 e2be f4db 67bd a828 11be 9696 92bd
00000010: 4f1f 21be 27ac 683e edf3 3b3c bf9e 82bd
00000020: 69e5 e2be 64f4 153d d120 ff3b f4d9 343e
00000030: 83cc c2bb 92d3 b7bd 21aa fcbd 7b05 8fbe
00000040: 50e5 93bd 106c 0fbe 9733 2abe de24 8ebd
00000050: 0e78 a5bd e427 1e3e 6714 353e 9bff 89be
00000060: 9fb3 433e a110 47be 4700 61bd 6005 9fba
00000070: 2712 94bc bff5 103e 92cb 2c3d 613b 9bbd
00000080: 6fc3 343e 84cf 7e3d 469b a63d b718 073e
00000090: fec1 21be 3dd0 2ebd 41a3 b93d d5ab 89bd
000000a0: 6df5 d63e cf67 923e 17f5 093e 78b1 70bd
000000b0: 747e d23b ba74 a23e 5d34 13be b2a4 883e
000000c0: aaa9 d33d 3f0b 013f b765 1d3e 56e4 bbbc
000000d0: 5368 03bd 03e0 adbe 3777 d03d 2b78 913e
000000e0: 25c9 5cbd 3b63 0e3e efb2 d73d 4016 973e
000000f0: f8ce 133d ae5a afbd 7568 34bd 0f62 bb3d
00000100: f62c 3bbe ade5 a13e 3bce 0d3e b053 de3d
00000110: 3087 67be eb52 8c3e 0e17 613e 02d6 e73d
00000120: 3afd 083d fa9d b9bc 3dff 7a3d 039e 0b3e
00000130: edc7 fd3d a243 0bbe 6c2e 89bd 0590 e5bd
00000140: 2be5 4dbe 4f70 8b3d ac42 e33d 9d69 6b3d
00000150: 2c44 07bd 042b 47bd 8a28 1b3c e5ba 3c3e
00000160: 7e62 61bd 3bd7 763e 2222 fb3b e419 f33d
00000170: 6fc6 54be bae9 b1bd de75 16bd dc95 a3be
00000180: 08d4 2dbe 6144 8dbb 5adc a23d e32c 74bc
00000190: 86f8 723e e533 1b3e cd42 8bbd 2c9f cfbd
000001a0: 874a ee3d ea86 313e 22d4 12bd 4153 b8bd
000001b0: 42e5 803e dd6e 953d e09c 8fbe e921 f73d
000001c0: 8693 153e f705 b43b 7166 acbe 03e7 c93b
000001d0: cbc8 b43d d684 273f 1e24 63bd a5b4 df3d
000001e0: 9378 2cbe de6b c93d 4bed 01be 5c67 363d
000001f0: aa28 85be 2875 07be aae5 01be 9dbd 223d
00000200: 42aa 8a3c 41bb 0abe 016f 203f e504 733e
00000210: 7a4e 8b3e 3af5 6abd 03c3 0a3e a163 74be
00000220: 9f92 583d 4f83 3dbe fdf8 0e3e 0969 24bd
00000230: 8f39 f83c 2e6e 7fbc b109 de3d 0379 a5be
00000240: 3797 193e 7705 c43c 256a d23e 6b27 f6bd
00000250: 222a 003f ebc4 303d b722 023d ca55 ac3d
00000260: c6ad 223e 9e03 6c3c 1f28 c0bd ba26 45be
00000270: 7096 c53e 7c55 66be 3bb4 973d 2e40 5dbe
00000280: a2ff 3fbe 28aa d5bd 1b74 403e 2917 a03c
00000290: 80b6 90be f9c3 a03d 0fc1 b9bd fdeb b13d
000002a0: 283b eb3d 06b5 1d3d 73ce 1c3e 9b6b bbbd
000002b0: a068 7cbd 33c6 3b3e 2808 393d d97f 4a3d
000002c0: 8c79 82bd a9e7 dd3e 9692 8bbe bf4f 06bf
000002d0: 1508 73be 790d ac3e 2b5e a33d c347 07be
000002e0: deff 7c3e 5a77 ccbb de9d 96bc 6784 cebb
000002f0: af25 d3bd f57c e2bd 3a08 fe3d 6a40 2f3e
00000300: 1145 8abe cab7 0cbd c179 323e 2769 f6bd
00000310: 3ce5 40be d571 9a3d 131e 93be 0bf2 ec3d
00000320: ed86 0dbe b7fa d2bd ddfc cbbd 2b19 9d3d
00000330: bcde ddbd 3bc7 2bbe b8a7 35bd 8652 69bd
00000340: 853b 1c3c e11b b7bd a7a7 debc 55bd 8b3e
00000350: 87ef 0c3e 2c90 253e fa12 b13d 85a3 d5bc
00000360: 1525 0b3c b04a 84be db11 0e3e be14 07be
00000370: 86ab debd ee2a af3d 81cb 85be 9181 b83a
00000380: 7cec 1dbd a521 593e 85e3 483e d5b0 f8bd
00000390: 39fc 153d 9539 b13a 8419 0c3d 7e5b 71be
000003a0: 21fc f0bd a61a 3bbd 43d5 ad3e 6a6b 103c
000003b0: 72d4 6ebe 3a9b 2a3e 651f 043d 5d53 15be
000003c0: d6e0 173e d24d a4be 9d66 cfbd 8435 95bd
000003d0: ebfb 0bbe edde 77bc 7f15 10be 89b1 0e3c
000003e0: 791d 493e 43a6 223e 9674 35bf 61f2 713e
000003f0: 531d 063e 7114 38bd d957 18bd 0ca9 c73d
-0.44181123 -0.056606248 -0.14175665 -0.07157628 -0.157346 0.22721921 0.011471731 -0.06377935
-0.4431565 0.036610022 0.0077858944 0.17661268 -0.00594479 -0.08975901 -0.12337137 -0.2793387
-0.07221472 -0.14006066 -0.16621242 -0.069406256 -0.08079539 0.15444905 0.17683564 -0.26952824
0.19111489 -0.19439937 -0.054931905 -0.0012132339 -0.018075062 0.14156245 0.042186327 -0.07579685
0.17652677 0.06220962 0.08135085 0.13193022 -0.15796658 -0.04267906 0.09064341 -0.067222275
0.4198412 0.28594825 0.134724 -0.058762997 0.006423766 0.3172968 -0.14375444 0.26688153
0.10335095 0.50407785 0.15370832 -0.022936027 -0.032081913 -0.3395997 0.101789884 0.28411993
-0.053902764 0.13905041 0.10532176 0.29509163 0.036086053 -0.08562218 -0.04404493 0.091495626
-0.1827887 0.3162054 0.13848202 0.10855806 -0.22610164 0.2740701 0.21981451 0.113201156
0.03344462 -0.022658337 0.06127857 0.13634495 0.123916484 -0.13600019 -0.066983074 -0.1120911
-0.20106952 0.068085305 0.11096701 0.057473768 -0.033024 -0.048625007 0.0094701145 0.1843067
-0.05502557 0.24105541 0.007663981 0.118701726 -0.20778821 -0.08687158 -0.0367335 -0.3195027
-0.16975415 -0.00431113 0.07952185 -0.01490328 0.23727617 0.15156515 -0.067998506 -0.101377815
0.11635309 0.17336622 -0.035846837 -0.090002544 0.2517491 0.07296536 -0.28049374 0.12067015
0.14607057 0.005493875 -0.33671907 0.006161572 0.08827361 0.65437067 -0.055454366 0.10923127
-0.1684287 0.09835027 -0.12688176 0.044532165 -0.26007587 -0.13228285 -0.12685266 0.03973161
0.016926888 -0.13547994 0.6266938 0.23732336 0.2720831 -0.057362773 0.13550954 -0.2386613
0.052874204 -0.18507122 0.13962169 -0.04013923 0.030300884 -0.015590234 0.10841692 -0.32318887
0.1499909 0.023928387 0.41096607 -0.12019237 0.5006429 0.043156546 0.031771388 0.084148005
0.15886602 0.014405159 -0.093826525 -0.19253054 0.38591337 -0.22493547 0.07407423 -0.21606514
-0.1874986 -0.10432845 0.1879429 0.019542294 -0.28264236 0.07849879 -0.09070026 0.08687589
0.114858925 0.038502716 0.15313129 -0.091513835 -0.061623216 0.18337326 0.045173794 0.04943833
-0.063708395 0.43340805 -0.27260274 -0.5246543 -0.23733552 0.3360403 0.079769455 -0.13210969
0.2470698 -0.0062398138 -0.018385824 -0.0063024047 -0.10309922 -0.1105899 0.12403913 0.17114416
-0.27005818 -0.034354962 0.17429258 -0.12031775 -0.18837446 0.07541243 -0.28733882 0.115696035
-0.13821001 -0.10301726 -0.09960339 0.07670816 -0.10833499 -0.16775219 -0.044349402 -0.056963466
0.009535675 -0.08940864 -0.027179552 0.27292886 0.13763247 0.16168278 0.086461976 -0.026078949
0.008492728 -0.25838232 0.13873999 -0.13191506 -0.10872559 0.0855311 -0.26131824 0.00140767
-0.038555607 0.2120424 0.19618042 -0.12143103 0.03661749 0.0013521189 0.03420402 -0.23570058
-0.1176684 -0.04567971 0.33951768 0.008814672 -0.23323229 0.16660777 0.032256503 -0.14582582
0.14831862 -0.32090622 -0.10126994 -0.07285598 -0.13670318 -0.015128833 -0.140707 0.00870932
0.19640149 0.15883736 -0.7088102 0.23627616 0.13097124 -0.04494137 -0.037193153 0.0974904

classifier.0.bias f4 [18]
00000000: fa52 1f3c 3d22 693b 5256 0fba 40d1 acbc
00000010: 2423 b4bc 888c 78bc 9472 b3bc 4370 6cbc
00000020: 6e72 efbc 9b0a f63c 7273 1c3c 40d3 8bbb
00000030: 2bb5 33bc 92bb 583b a7b3 abba 5df2 063c
00000040: 089a 9abc 9ce0 63bc
0.009724373 0.0035573386 -0.000546788 -0.021095872 -0.021989413 -0.015170224 -0.021905221 -0.014431062
-0.029229369 0.030034354 0.009549009 -0.0042671263 -0.010968487 0.0033070785 -0.0013099805 0.008236495
-0.018872276 -0.0139085315
