CLIP/saved_models/model_CLIP-16_CLIP_weights.pth (torch, 39878 bytes, 6 tensors)

cls1.0.weight f4 [10, 512]
000000 6d 4d d3 be aa 76 45 bd f4 ac 7c bd 92 82 ba bd
       -0.4127001 -0.04820887 -0.06168838 -0.091069356
000010 05 33 26 be f9 fd 6e 3e c2 19 98 bd 76 c7 1c be
       -0.162304 0.2333907 -0.07426788 -0.15310463
000020 8b dc e6 be 63 ac 8c bd 7f 19 0a 3c 2d 60 83 3d
       -0.45090136 -0.06868818 0.00842893 0.064148284
000030 03 77 7c bd f4 c6 21 be 9e 27 29 be 1f 72 ae be
       -0.061636936 -0.15798551 -0.16519019 -0.34071442
000040 2c f2 96 bd d0 32 05 be c9 21 87 bd f9 f7 ad bd
       -0.07370409 -0.13007665 -0.06598241 -0.08494563
000050 e4 c9 33 bb f1 93 23 3e b2 c5 34 3e f5 01 8e be
       -0.0027433569 0.15974404 0.1765354 -0.27735868
000060 67 19 17 3e e6 93 b4 bd e6 35 97 bd e2 7a 70 3c
       0.14755784 -0.08817272 -0.07383327 0.014677735
000070 b3 57 c4 3d f3 fe 2c 3e 2b 3f 4c bc a4 ce db bd
       0.0958704 0.1689413 -0.012466232 -0.10732773
000080 98 e5 1f 3e ea 1e b7 3d 59 64 8a 3d 2e 3a 0f 3e
       0.15614927 0.08941443 0.06757421 0.13987038
000090 2f ee c0 bd 95 92 9a bc 03 70 39 3d 46 39 96 bd
       -0.0942043 -0.018868724 0.04527284 -0.07335143
0000a0 de a2 fe 3e 50 3a 4f 3e b8 71 18 3e a4 eb d4 bc
       0.49733633 0.20237088 0.1488713 -0.025991268
0000b0 28 9f d4 bb d2 f4 84 3e c1 10 0d be 5c 6c 83 3e
       -0.0064886995 0.25968033 -0.13775922 0.2566861
0000c0 d8 b2 33 3e 09 57 07 3f 4e a3 62 3e 47 6e ae bd
       0.17548692 0.5286718 0.22132608 -0.085171275
0000d0 45 1a 60 bd 29 3b 82 be 93 56 28 3e 3e 2f db 3d
       -0.054712553 -0.2543576 0.16439275 0.1070237
0000e0 7a 5c f6 bd f8 d0 f6 3d 7a 8e 10 3e 25 f2 4a 3e
       -0.12029357 0.120515764 0.1411685 0.19818933
0000f0 9e f1 de 3d a6 c1 db bc a1 3d 09 be a4 a8 48 3e
       0.108859286 -0.026825737 -0.13402416 0.19595581
000100 5c 27 4b be 6d c1 a6 3e b5 de c5 3d 2d 32 cd 3d
       -0.19839233 0.32569447 0.096616186 0.10019336
000110 0c 46 6c bd 25 ba 64 3e 6c cd 89 3e 4f 5a 24 3e
       -0.05768399 0.22336634 0.26914537 0.16050075
000120 3b 99 a2 3d ba 6e d1 bd 36 5c 9a 3d d4 da bd 3d
       0.07939383 -0.102261975 0.07537119 0.09270254
000130 29 53 8d 3d d2 c3 37 be 39 89 93 bd 04 02 ec bc
       0.06900627 -0.17945793 -0.072039075 -0.028809555
000140 c6 34 81 be 9e c1 39 3d ef e6 e2 3d 8b c1 93 3d
       -0.25235575 0.045350663 0.11079203 0.0721465
000150 14 26 23 3d 9d 3b 12 be 7f 5d 1b bc 29 6e 26 3e
       0.039831236 -0.14280553 -0.00948274 0.1625296
000160 44 e4 a4 3c 65 6c 6e 3e 7b f7 ff 3c 96 94 1e 3e
       0.020128377 0.23283537 0.031245938 0.15486369
000170 63 67 96 be d3 a7 a7 bd 22 07 92 bc 81 42 a9 be
       -0.29375753 -0.08186307 -0.017825667 -0.3305855
000180 93 92 c4 bd 1f e7 81 bc 23 ce ed 3d e0 7e a9 bc
       -0.09598269 -0.015857277 0.11611583 -0.020690382
000190 62 f2 1b 3e 31 e2 8b 3d 1d 60 89 bd 07 9f 7c bd
       0.1522918 0.06830252 -0.06707785 -0.061675098
0001a0 9e 91 1c 3d 63 1f 2e 3e 1f e9 d1 bb 50 72 06 be
       0.03822481 0.1700416 -0.006405964 -0.13129544
0001b0 0a 49 5d 3e 52 6f 75 3d 70 77 d7 be 3e b3 ff 3d
       0.21609893 0.059920616 -0.4208331 0.124853596
0001c0 16 48 8a 3e 59 70 25 bc d8 16 92 be ae d8 28 bd
       0.27008122 -0.010097587 -0.28533053 -0.041222267
0001d0 a4 e4 0f 3e 10 10 33 3f 89 ef 45 bd f5 21 29 3d
       0.14052063 0.69946384 -0.04832414 0.04129215
0001e0 e4 c6 47 bd 8c b6 d9 bb 44 7c 3f be 82 21 2e 3d
       -0.04877366 -0.0066440757 -0.18699747 0.042512424
0001f0 85 bb 29 be 20 e1 00 be 79 20 96 bd 1f fe d5 3d
       -0.1657544 -0.12585878 -0.073304124 0.104488604
000200 99 36 be 3c 64 f6 2c be 17 d1 0c 3f 28 83 b5 3e
       0.023219394 -0.16890866 0.55006546 0.35451627
000210 72 36 ab 3d 11 4d 20 bd 3d 62 0e 3e 69 ef 1e be
       0.08359994 -0.039135996 0.13904662 -0.15521015
000220 d5 22 28 3d b5 d9 0f be d5 ca e7 3d 2e db 70 3c
       0.041048843 -0.14047892 0.11317984 0.014700694
000230 93 94 83 bd 41 e4 0f bd d8 98 97 3d 28 a6 63 be
       -0.06424823 -0.03512979 0.074021995 -0.22231352
000240 90 f8 de 3d 27 29 09 3d cf 96 bb 3e 74 f1 dc bd
       0.10887253 0.03348651 0.36638495 -0.10788241
000250 cf 80 ed 3e 7b 21 8d 3d be 35 13 3d 9f 6e 03 3e
       0.46387336 0.068911515 0.035939924 0.12835167
000260 78 36 56 3e ef 93 17 3e 45 dd ff bd 4d db 27 be
       0.20919216 0.14802526 -0.12493376 -0.1639225
000270 ba b1 9e 3e e0 07 d6 bd 15 2d a3 3c 3b 7b 83 be
       0.3099497 -0.10450721 0.019918958 -0.25679955
000280 f4 03 23 be 00 3e 95 bd f6 fd e1 3d 77 d8 01 3d
       -0.15919477 -0.07287216 0.11034767 0.031700578
000290 c0 73 4a be f4 48 89 3d 55 b3 a0 3d eb 9b 7f 3d
       -0.19770718 0.06703368 0.07846705 0.062404554
0002a0 05 92 05 3e 1a 9c 2f 3d ab 31 15 3c 37 3a 8f bd
       0.13043983 0.04287348 0.00910608 -0.069935255
0002b0 5d 38 ad bc aa 6b 18 3e 4f 8d 11 3d 0e f1 3f 3d
       -0.02114504 0.1488482 0.035535153 0.046860747
0002c0 6f 89 e9 bd a2 4c 9c 3e 4c 02 3d be 7f b2 c0 be
       -0.114031665 0.30527216 -0.18457907 -0.37636182
0002d0 77 c3 5a be 67 00 a2 3e e3 93 25 3d 9a c9 f5 bd
       -0.21363626 0.31640932 0.04042424 -0.12001343
0002e0 82 f4 26 3e 84 aa 07 bb ee 75 fd ba 59 a0 95 bd
       0.1630421 -0.0020701 -0.0019337514 -0.073059745
0002f0 2a 05 f2 bd 89 d1 04 bd d8 3f 03 3e 2c 5c 25 3e
       -0.11817391 -0.03242639 0.12817323 0.16148442
000300 f0 49 86 be e5 03 18 bd 16 1c 83 3e 9d 80 06 be
       -0.26228285 -0.03711309 0.25607365 -0.13135
000310 54 13 15 be b6 b1 df 3c 50 d0 96 be fc c0 68 3d
       -0.14558154 0.027306419 -0.29455805 0.05682467
000320 bd 04 5c be 2c 96 f2 bd 23 af 76 bc 13 3b 69 bc
       -0.21486183 -0.11845049 -0.015056404 -0.014235276
000330 4b 43 9c bd 45 b3 21 be 7b df 4d bd 85 bf 3c bd
       -0.076300226 -0.15791042 -0.050261956 -0.046081085
000340 39 f8 ba 3a 68 4e dd bd 56 8f dd bc d1 bb 33 3e
       0.001426465 -0.108059704 -0.027045887 0.17552115
000350 dd df ff 3d 06 80 2b 3e 09 5b b7 3d 95 20 78 3d
       0.124938704 0.16748056 0.089529105 0.060577948
000360 f3 55 28 bc 7a e9 76 be 44 e1 87 3d 02 f1 bc bc
       -0.010274398 -0.24112502 0.06634763 -0.02306414
000370 7e 66 0f be 4c 3d 7c 3d 8f a4 63 be b1 eb 97 3c
       -0.14003941 0.061581895 -0.22230743 0.018545004
000380 20 e9 93 bd 63 9c 24 3e 60 76 3b 3e 2b 0a 21 be
       -0.072221994 0.16075282 0.18306875 -0.15726535
000390 44 32 02 3e 56 cb 98 3c ab ee 9d 3d c7 0a 68 be
       0.12714487 0.018651646 0.07711538 -0.22660361
0003a0 4d 97 71 bd 04 06 56 bd 28 5d 9c 3e 39 da ce 3c
       -0.058982182 -0.05225183 0.30539823 0.025250541
0003b0 9b 52 17 be c6 69 19 3e cf c3 08 bc c6 4e 6c be
       -0.14777605 0.14981756 -0.008347466 -0.23076925
0003c0 ac d6 dc bc 10 a5 9e be 4b 45 2a bd c4 c5 35 bd
       -0.026957832 -0.30985308 -0.04156999 -0.044378057
0003d0 69 65 13 be 66 48 bc bd bd d4 20 be e4 84 82 3d
       -0.14394154 -0.091934964 -0.15706153 0.06373003
0003e0 70 f7 02 3e 4e 92 14 3e 6c 62 18 bf be 55 ab 3e
       0.12789702 0.14508936 -0.5952518 0.33463854
0003f0 c1 58 24 3e 9e a2 f3 bd 89 6d 06 3b 09 ff ce 3d
       0.16049482 -0.11896251 0.0020512065 0.10107238

cls1.0.bias f4 [10]
000000 6c 09 00 bd 73 8f d0 3c 8a 4e d0 3c ed 67 67 3c
       -0.031258985 0.025459027 0.025428075 0.014123899
000010 9e 5b 94 3c 77 e2 80 ba 3c 18 2b bc 9f 06 2f bd
       0.018110093 -0.0009833117 -0.01044279 -0.042730924
000020 95 47 e8 bc 09 f6 30 bd
       -0.028354445 -0.043203387

cls2.0.weight f4 [6, 512]
000000 84 67 40 3d ad 78 aa 3c c8 c8 01 3d 16 9c 6b bd
       0.04697372 0.020809496 0.03168562 -0.057521902
000010 c3 3f 0f bb a4 4f 95 bc bd ac 8d bc 59 4f 1c 3c
       -0.0021858073 -0.018226452 -0.017294282 0.009540402
000020 9d 9f 84 3c 5a 69 bb 3d 4f c6 33 bd e1 ea 4c bc
       0.01618939 0.091509536 -0.043890294 -0.012507171
000030 49 93 97 bd 86 d9 5e bd 2a 05 b2 3c 33 92 ba bd
       -0.07401139 -0.054406665 0.021730978 -0.091099165
000040 0c a2 8c 3c b2 ba 86 3c 1f f7 16 3d 4b aa da bc
       0.017167114 0.016446445 0.036856767 -0.02669253
000050 66 f4 61 3c d0 87 e0 3d 73 60 f1 3c 42 24 c6 3c
       0.013791179 0.10963404 0.029464936 0.024187211
000060 3b 4f b1 bc a9 fd e6 3b 0b 35 32 bd 33 28 a1 bc
       -0.021644225 0.0070492816 -0.043507617 -0.019672489
000070 14 7c f3 bc d4 d5 e6 3d 9f 43 38 3c 6f 3a 78 bd
       -0.029722251 0.11271253 0.011246591 -0.0606026
000080 33 18 cc bd 7a f9 3c bd 7c d1 e5 3c 01 79 96 bd
       -0.09965553 -0.046136357 0.028053991 -0.073472984
000090 27 8e 91 3d 5a d0 cb bb e0 f3 26 bb c6 e8 7e bc
       0.071071915 -0.006219906 -0.002547495 -0.015558427
0000a0 ee ab 47 3d 57 27 ec 3c f7 1d 2d 3d 6e f1 6f bc
       0.04874795 0.028827352 0.042264905 -0.014644964
0000b0 a9 8b 45 bc 06 f5 14 3d 4f 8c fe bc 75 ec c9 bb
       -0.012057223 0.036366485 -0.031072764 -0.006162221
0000c0 db 02 6f 3c 78 ef 73 bc 28 22 e7 bb a9 8e ac bc
       0.014588083 -0.014888637 -0.0070536323 -0.02106412
0000d0 13 2b 15 3d 5a b4 7e bd 67 f4 98 3a b4 e6 c0 bc
       0.036418032 -0.062183715 0.0011669517 -0.023547508
0000e0 d4 12 a5 3c fa 4f 2a 3c ee 95 62 3d 7f f7 02 bc
       0.02015058 0.010395044 0.055318765 -0.007993578
0000f0 3b af 24 3c 5d 53 7c bb f4 80 5c bc 70 28 57 3d
       0.010051544 -0.0038501837 -0.013458479 0.0525288
000100 7d c1 02 3d 17 b5 93 bd f6 3b a1 bb 15 eb 94 3c
       0.031922806 -0.072122745 -0.004920478 0.018178502
000110 96 4d 25 3a a9 00 ba bd c2 4d 8b 3c d9 31 16 bd
       0.00063058117 -0.09082157 0.017004851 -0.036668632
000120 38 35 3f 3d 62 94 5e 3b 54 66 43 3c 1a 44 c7 bc
       0.046681613 0.0033962955 0.011926252 -0.024324466
000130 48 21 91 bd f3 db 53 bc c8 43 08 3c d6 db 58 bd
       -0.07086426 -0.012930858 0.008316942 -0.052944027
000140 a5 d9 18 bd b0 06 02 bd 48 71 bd 3c e4 f4 31 3d
       -0.037316937 -0.03174466 0.023125306 0.043446437
000150 02 29 f4 bb 29 71 ba bb cb 99 09 bd 3f c3 22 bc
       -0.0074511776 -0.0056897593 -0.033593934 -0.009934246
000160 61 76 91 bd fb a3 4b 3d d5 ed cf bc 31 5f 99 bc
       -0.07102657 0.04971693 -0.025381962 -0.018722149
000170 7e 67 74 3c 40 11 01 bd 80 75 9d bb 52 cf 05 3d
       0.014917253 -0.03151059 -0.004805267 0.03266842
000180 57 a7 08 3d 62 f9 32 bd a1 0e ab bb 57 be 1a bd
       0.033362713 -0.04369486 -0.0052202498 -0.03777918
000190 77 53 1d 3d 81 07 60 3c 07 b8 e1 3c 2f 50 b4 3a
       0.038409676 0.013673664 0.027553571 0.0013756807
0001a0 5b a5 55 3d e3 36 21 bd c8 ba b7 3c 08 27 42 3d
       0.05215965 -0.039358985 0.022427931 0.047400504
0001b0 4d 86 2d 3d bf 06 84 bd c6 84 9b 3b 10 bb e8 3c
       0.042364407 -0.06446599 0.0047460524 0.02840951
0001c0 6c 2b 18 3d 47 eb e0 bc 21 0e f1 ba 2d 3d 18 bc
       0.037150785 -0.027455939 -0.0018391052 -0.009291929
0001d0 e5 62 eb 3c 01 8c db 3c b5 d0 29 3c eb bb 14 bb
       0.02873368 0.026800158 0.010364701 -0.0022695016
0001e0 f2 fe 18 bd ff 7e 42 bc bc fb 2d bd dd 05 9a b9
       -0.03735251 -0.011871099 -0.0424764 -0.00029377537
0001f0 3b 7c 2c 3d 95 d7 d8 bc ff 78 19 bc a8 e6 6c bd
       0.042110663 -0.026469985 -0.009367227 -0.05783716
000200 1e 0a 08 bd d2 73 89 bd cc d2 66 bd a5 88 66 bd
       -0.033212774 -0.06711544 -0.056353375 -0.056282658
000210 fa cc cc bc 01 4c 5f 3d 24 0b 3f 3c 0c 08 fb bc
       -0.025000084 0.054515842 0.011660371 -0.030643485
000220 b2 86 12 bd cc d0 33 3d 40 33 5b 3d 1d ab 76 3c
       -0.035772987 0.043900296 0.053515673 0.015055445
000230 d2 d2 9d bd 5b d4 8e 3c 50 2b 74 bd 65 70 6e bb
       -0.077062264 0.017435243 -0.05961162 -0.003638291
000240 79 8f be bc 2d b8 2d 3d 61 bb 53 3d a8 81 f6 3b
       -0.023261772 0.04241197 0.05169237 0.0075227804
000250 38 89 38 bc da 70 5d 3c 6e 3d 14 3d 39 a8 f0 3c
       -0.011263184 0.013515675 0.036191396 0.02937709
000260 3d 50 1e 3d 48 21 b5 3b 2a f7 28 bd 5d b0 fc bc
       0.03865074 0.005527649 -0.04125134 -0.030845815
000270 0e 85 84 bc 5f 07 89 bb f6 64 84 bd fc 8d da bc
       -0.016176727 -0.004181787 -0.06464569 -0.026679032
000280 1f 49 75 3a d4 6d 12 3c 00 85 04 bb 5c 45 19 3a
       0.0009356904 0.008937318 -0.0020220876 0.0005846822
000290 6e 52 30 bd 53 40 93 bc fe 44 62 3d e2 d2 12 3d
       -0.04304736 -0.017975008 0.055241577 0.035845645
0002a0 96 a5 13 3d b4 8d 3b 3d 8d b0 42 bd 1c 0e 42 3d
       0.036046587 0.045789436 -0.047531653 0.047376737
0002b0 6f 3c 36 3d ec ee 1a bd 88 d8 3c bb 34 94 b5 3d
       0.044491228 -0.03782551 -0.0028815586 0.08866158
0002c0 08 3c 4a 39 f4 9b 8c bc 47 54 66 3d c3 2e 65 bd
       0.00019286585 -0.017164208 0.056232717 -0.0559528
0002d0 d1 f5 4d 3d 4d 77 b0 bc 89 a5 2a 3c 54 b1 0d bd
       0.050283257 -0.021541262 0.010415443 -0.03459294
0002e0 e7 7d 06 3d ea 02 01 3b bb 74 39 bd f4 94 e7 3c
       0.032834914 0.0019685575 -0.04527734 0.028269269
0002f0 bc 0f ba 3d db d9 10 3d 3b 27 04 bc 4f 2f 37 bb
       0.09085032 0.035364013 -0.008065994 -0.0027951782
000300 a3 62 62 3c e8 3a 8c bd dc 94 19 3d 7d 14 17 3d
       0.013817462 -0.06847173 0.03749548 0.036884774
000310 04 9d 79 3d db 76 06 bc 8a da 0e bd a8 e7 cc 3b
       0.060940757 -0.008207048 -0.034876384 0.0062532015
000320 a6 a2 8a 3d 88 fb be ba d6 0b 94 bc 8d 91 f4 bb
       0.06769304 -0.0014570812 -0.01807205 -0.00746364
000330 ea df 4b bc 24 cf 15 3d 10 9e b5 3c 44 d7 3f 3c
       -0.012443522 0.036574498 0.022170097 0.011709038
000340 96 2e 45 bd f5 d9 1b 3c ef 18 07 bc 9e 45 88 3c
       -0.04814013 0.009512414 -0.008245691 0.016634759
000350 a4 4d b2 3c cf 77 5b bd ad 0d f7 3b 14 29 4f bd
       0.021765538 -0.053581055 0.007539472 -0.050576285
000360 be f8 25 3d 25 64 e3 bb 3d 59 4a 3d 52 f8 58 3d
       0.040520422 -0.0069394284 0.04940151 0.05297119
000370 af ff ce bc 1b db 1c bc 0d cb 29 3c 9c 33 98 3c
       -0.025268404 -0.009573723 0.0103633525 0.018579297
000380 de bc 45 3d b5 5b bc 3c c4 0c 2e 3d 92 8a a6 bb
       0.04827582 0.022992948 0.042492643 -0.005082437
000390 aa d4 07 3d a5 dc a6 ba 1c ad ed ba f8 e6 36 bc
       0.033161797 -0.0012730552 -0.0018133256 -0.011163466
0003a0 61 5c ee bc 6a b4 68 3c e8 27 68 bd b9 c8 9d 3c
       -0.029096784 0.01420317 -0.056678683 0.019260751
0003b0 ab fc 22 bc e0 ff ba 3d 73 26 0c bc 6b 08 09 3d
       -0.009947936 0.091308355 -0.008554089 0.033455294
0003c0 2d cc 62 3c f7 a2 9c bc 32 21 b3 bc a7 a8 39 3d
       0.013842625 -0.019120676 -0.021866415 0.045326855
0003d0 e6 a4 8f 3c c1 e1 2b 3d aa 5d 16 bd 93 ba 33 bd
       0.017534684 0.041963343 -0.03671042 -0.043879103
0003e0 a7 e2 b7 bc 9a e8 aa 3c f1 8d c6 3c d0 23 06 bd
       -0.022446943 0.020862866 0.024237605 -0.032748997
0003f0 3d 6b 9d 3c 2b 05 26 3c 6b 61 b5 3a 2f 04 52 3c
       0.019216174 0.010133068 0.0013838237 0.01281838

cls2.0.bias f4 [6]
000000 89 75 ce 3b 2f 9f 57 bc 21 9b 2c 3c aa 9a 04 3d
       0.0063006324 -0.013160511 0.0105350325 0.03237406
000010 ea 00 16 bd a1 00 19 3b
       -0.036621965 0.0023346322

cls3.0.weight f4 [2, 512]
000000 10 12 68 3c 5c 75 2a be bd 6e d2 3d c8 09 f1 3d
       0.014164463 -0.16646332 0.10275028 0.11769444
000010 06 a3 02 3e 69 6a a7 bc 02 cb 1c 3d e0 9f ec 3d
       0.12757501 -0.020436483 0.03827954 0.11553931
000020 33 48 93 3d 2e c7 ed be 8b 96 d5 bd 24 48 97 bc
       0.07191505 -0.46441025 -0.104291044 -0.018467017
000030 bd a4 4f 3c 41 6d 8b 3e 54 73 8c 3b 77 82 fd bd
       0.012673554 0.27231792 0.004286209 -0.123784
000040 f9 08 54 3d 6b 3c 51 3e 2c c6 d7 bc 62 53 76 3c
       0.05176637 0.20433204 -0.026339613 0.015034528
000050 e6 70 3d 3d de bb 7b 3e f8 48 25 bd 35 76 40 bd
       0.046250246 0.24583384 -0.04035279 -0.04698773
000060 b1 d3 7f 3e 7f f1 22 3b b1 27 20 3e 4e a2 43 be
       0.24983098 0.0024863181 0.15640141 -0.19104883
000070 6b 78 87 3d c6 7f e0 bd 89 19 9f 3e 12 a9 6f be
       0.06614765 -0.10961871 0.3107417 -0.23404339
000080 34 cf 2d 3d 80 67 2c bd c5 84 9f bd be d5 b9 3b
       0.042433932 -0.042090893 -0.07788996 0.005671232
000090 e5 c9 c9 bd 17 13 2e be 2d 35 8e 3d f6 2f b6 bd
       -0.098529615 -0.1699947 0.06943736 -0.088958666
0000a0 3a 14 cb bc 99 10 15 3c 88 58 30 be 1e 96 65 3c
       -0.024789918 0.0090981955 -0.17221272 0.0140128415
0000b0 3f 6a 97 3d d2 2b 06 3e b2 5b 0d 3e 10 11 e1 3d
       0.07393312 0.13102654 0.1380451 0.109895825
0000c0 e5 76 97 bc ba c4 46 3b 0f b5 d6 3b 43 8f 4e bd
       -0.01848931 0.003032966 0.0065523456 -0.050429594
0000d0 e7 60 d5 3d 15 11 c9 bd 01 fe 2f 3e 00 96 65 3e
       0.10418873 -0.09817711 0.17186739 0.22420502
0000e0 9a e2 73 3b a8 24 f7 3d 30 09 6e 3d 16 d1 d4 3c
       0.0037213922 0.120675385 0.05811423 0.025978606
0000f0 b4 cd 60 bd db ea 4f bc 21 ea 93 3d f6 d3 85 3e
       -0.054883674 -0.012690271 0.07222391 0.26138276
000100 b9 73 33 bd 0b 21 88 bc 51 d7 18 3e 1b 0f 35 3d
       -0.043811534 -0.016617319 0.14925887 0.04420386
000110 25 84 bc 3b 42 7b a7 3d 9e 58 9a 3d a8 43 c3 bc
       0.0057530575 0.081778064 0.07536434 -0.023835972
000120 77 6a 0a 3e 44 0c 38 be 97 6a a9 3d 07 b8 ef bd
       0.13517176 -0.17973429 0.082722835 -0.11705022
000130 ab 16 2f be f1 ac b2 bc 6c 70 1e be 29 73 91 bd
       -0.17098491 -0.02181098 -0.15472573 -0.07102043
000140 fe 24 19 3e b9 fc 0a bd 37 75 f4 bd 0f 86 f3 bc
       0.14955518 -0.03393242 -0.119364195 -0.02972701
000150 23 fd b5 3d 78 bb 90 3c 8f 98 95 bd e9 f2 53 bd
       0.088861726 0.017667517 -0.07304489 -0.05174533
000160 f7 dc 96 3c 70 97 31 bd c7 b8 94 3b 7c 7b 5c 3e
       0.018415911 -0.043357313 0.0045386287 0.2153148
000170 2b 47 22 bd 90 3e cd bd 76 cd e1 3d a1 e0 d1 3d
       -0.039618652 -0.100216985 0.11025517 0.10247923
000180 78 7a 54 3c 02 3e bb 3c 44 9a f4 3d ac 88 66 3e
       0.012968652 0.022856716 0.11943486 0.22513074
000190 9d b8 49 3d 63 d8 a4 3d 57 9d 7a be 8b f3 85 bd
       0.049248327 0.08049085 -0.24474083 -0.06540593
0001a0 a0 81 1e be 0e 79 0b 3e 9e 8f 88 bc 35 93 8d 3c
       -0.15479136 0.13620397 -0.016670045 0.017282108
0001b0 bf af 08 bd 75 fc 24 3d df d2 45 bd 03 b4 3f 3d
       -0.03337073 0.040279824 -0.048296805 0.046802532
0001c0 f3 bb 4f bd 01 50 18 3d 2f 11 2c 3d df 61 4d 3d
       -0.05071635 0.037185673 0.042008575 0.050142165
0001d0 10 73 50 3d c2 e3 aa 3d 89 11 90 3e 61 43 86 bd
       0.050890982 0.083442226 0.28138378 -0.0655582
0001e0 7d b2 dd 3e 94 e5 0e bd 66 08 1b be 1b ff 4a 3e
       0.43300238 -0.03488691 -0.15139922 0.19823878
0001f0 82 d9 58 bd 61 76 c2 3d 50 91 36 bc c4 6c 01 3d
       -0.052941807 0.09495235 -0.011143044 0.031597868
000200 53 e9 f9 3c 10 5f 97 bd 49 6b d3 bd c6 26 0d 3e
       0.030506765 -0.073911786 -0.103231974 0.13784322
000210 e2 93 d2 3c 5c ba 49 3d 8d ed 21 3d 42 60 b1 bd
       0.025705282 0.04924999 0.039533187 -0.08660938
000220 dc 70 17 be 8a 47 9e bb 0f 05 ec bd 97 1e fc 3d
       -0.14789146 -0.0048303055 -0.11524402 0.12310522
000230 85 51 ae bd 9b 05 ba 3d 5d 44 6f 3d 97 c6 88 bd
       -0.08511642 0.090831004 0.058414806 -0.06678503
000240 da a2 1d bc 27 4a cf 3d d7 4e 5f 3d 68 12 04 bd
       -0.009621346 0.10121565 0.054518547 -0.032244116
000250 45 5f 53 3d 74 34 51 be 31 60 fd bc 47 e9 8f bd
       0.051604528 -0.20430166 -0.030929657 -0.07026916
000260 a2 8f 37 bb 3f 2f de 3c d6 17 cc 3d 68 38 f8 bc
       -0.0028009196 0.027122138 0.09965484 -0.030300334
000270 37 c0 67 3c 80 43 c5 bc 9b a8 d0 bd ca a8 1c be
       0.014144949 -0.024080038 -0.10188409 -0.15298763
000280 ef 9c 25 be af 7a 76 bd 8f be d8 bc b9 3b 61 bd
       -0.16173147 -0.060175594 -0.026458053 -0.054988597
000290 bf 4b 8d bb 20 25 c3 3c 8e 34 c1 3d ed 09 bb 3c
       -0.004312008 0.023821414 0.09433852 0.022831881
0002a0 2b dd bd 3d 6c 2e 12 3e 74 33 92 3d 81 81 e8 bd
       0.092707 0.14275521 0.0713872 -0.11352826
0002b0 96 0c 82 3e 16 f2 d7 bd 30 97 07 3e 64 51 7a 39
       0.25400227 -0.10544221 0.13241267 0.00023872178
0002c0 8b 08 35 3c bf 35 11 be 61 c1 4c bb ef 26 00 be
       0.0110494 -0.14180659 -0.0031243192 -0.12514852
0002d0 4a 05 88 be dc 57 10 3e 97 4a 94 bc a2 ca 8b 3d
       -0.26566535 0.14096016 -0.018101973 0.068257585
0002e0 f2 9a b8 bd 4f 06 28 3d e9 3f 41 3e be ed d6 bb
       -0.090139285 0.04102164 0.18872036 -0.006559103
0002f0 af f1 96 bd bc 23 c6 bc b4 99 c4 3c 46 0c 9b 3d
       -0.07370316 -0.024186961 0.023999073 0.075707
000300 c5 41 b1 be 0e e2 97 bd 0c a0 75 3e 86 e2 61 bb
       -0.3462049 -0.074161634 0.23986834 -0.0034467294
000310 5c 2d 2a bc d5 b3 47 bb 19 55 31 3c 7f d7 60 3d
       -0.010386791 -0.0030472178 0.0108235115 0.054893013
000320 bd 77 d3 3d 1a 8d 3f bc 8c d3 a6 3d 6a a4 b0 3d
       0.10325573 -0.011691356 0.08145818 0.086251095
000330 e5 4d 67 be 48 1e 04 be 32 6b e1 bd ce de 01 3e
       -0.22588308 -0.12902176 -0.11006774 0.1268265
000340 a6 2e a9 3e 04 85 1a be 6a 0d 6b 3e ec 95 9b 3d
       0.33043402 -0.15089804 0.22954336 0.07596955
000350 f7 d7 b1 bc be 4a fa 3b 72 1a 49 be 2d 67 80 3d
       -0.021709425 0.0076383045 -0.19638994 0.06269679
000360 96 26 92 bd b4 ee b3 3b ed 9c e0 3d 5e 81 e1 bd
       -0.07136266 0.005491102 0.10967431 -0.11011003
000370 3e ec 00 3d 73 91 dc bc 61 8f 9b bd 15 98 7b 3d
       0.031475298 -0.026924824 -0.07595707 0.061424334
000380 e4 1d af 3c e8 4d a2 bd 76 5e 15 be c9 24 a3 3d
       0.021376558 -0.07925016 -0.14586815 0.079660006
000390 8a 18 2b 3e ac 82 d4 bd 89 13 bd 3d 0a 05 8e 3a
       0.1670858 -0.10376486 0.09232242 0.0010835242
0003a0 85 cc 73 3d 12 c5 75 bd b7 f3 c1 bc eb 2e 98 bd
       0.059521217 -0.060002394 -0.023675783 -0.07430824
0003b0 4d ca 70 bd cb 5f 21 3e 41 fd 9d bc 15 10 c0 3d
       -0.05878668 0.15759198 -0.0192858 0.093780674
0003c0 97 cb f7 bc cb a9 ed 3d d4 7a b0 3c 91 64 c0 bc
       -0.030248446 0.11604651 0.021542944 -0.023485454
0003d0 8e 6c e1 3c 0a 86 10 be 5d 6f 2b 3e cb 9c d5 3d
       0.027517583 -0.14113632 0.167417 0.104302965
0003e0 a5 07 90 3e 05 6a 68 3d 53 ca 13 bd 4a d9 d3 bd
       0.28130832 0.056741733 -0.036081623 -0.10344179
0003f0 9d fa 87 3d 86 7a 8e bc 9a 56 65 be 42 d7 ac bc
       0.066395976 -0.017392408 -0.22396317 -0.021098737

cls3.0.bias f4 [2]
000000 54 c6 1e 3d 49 fd 54 bc
       0.03876336 -0.012999841
