CLIP/saved_models/model_CLIP-16_CLIP_weights.pth (torch, 39878 bytes, 6 tensors)

cls1.0.weight f4 [10, 512]
000000 e3 95 74 bd 15 a7 4d bd ce 67 f5 bc b9 6e 2e bd
       -0.059713256 -0.05020817 -0.029956724 -0.042586062
000010 14 90 26 bd 7a 02 1d 3c 30 73 37 3c 37 c0 47 3c
       -0.040664747 0.00958311 0.011196896 0.012191824
000020 50 4a a0 bd 85 2a c0 3c 01 14 2b bc a3 55 5b bc
       -0.07826674 0.023457775 -0.010441781 -0.013387117
000030 e4 7c 07 3d 7d bc 4e bd 61 79 1e bd 9d 49 96 bd
       0.03307809 -0.050472725 -0.038689975 -0.07338259
000040 74 52 0a 3d 08 7e 29 bd 15 26 a7 bc a7 f7 a0 3c
       0.03377004 -0.04137996 -0.020403901 0.01964934
000050 a4 5e 22 bd 75 f2 42 3d 1f e2 bb 3c cb 92 33 3c
       -0.039641038 0.047594506 0.022934971 0.010960291
000060 c3 8d 43 3d 30 1a 1b bc 11 d0 71 bd bd d7 2d 3c
       0.047742616 -0.009466693 -0.05903632 0.010610518
000070 38 99 ff bb 48 32 1c 3d 70 7a a9 3c 0c d5 1c 3c
       -0.0078002475 0.03813389 0.020688266 0.009572279
000080 3f bf bc 3c a6 03 40 3d dc f6 31 3c 9e ad b8 bb
       0.023040412 0.04687848 0.0108620785 -0.005635931
000090 09 73 89 3c c9 44 d9 bb 02 5e ff bb 9b b6 bd bc
       0.016778486 -0.0066305143 -0.007793189 -0.023158362
0000a0 4a db 6d 3d f0 33 6d bc b4 43 ff 3c 99 0e fb 3c
       0.05807046 -0.014477715 0.031160213 0.03064661
0000b0 0c 5b b7 3c 31 44 44 3c 6c a4 50 3c 7a 5a 79 bc
       0.022382282 0.011979149 0.012734514 -0.015219325
0000c0 63 ed 63 3d e6 9e 84 3d fe 53 24 3c cc d5 6c bd
       0.05564631 0.0647562 0.010029791 -0.05782108
0000d0 4d b5 12 3c 9c 4a a4 bc bf fd 4a ba 61 da 60 3d
       0.008954358 -0.020055108 -0.00077434996 0.054895762
0000e0 9b 53 e1 bc 3b ab 02 3b 54 dc 5e 3d 85 9a a1 3b
       -0.027505687 0.0019938487 0.05440934 0.0049317502
0000f0 6a b3 48 3d 05 f7 ec 3b 00 76 06 bd ef d3 40 3d
       0.048999228 0.0072315955 -0.032827377 0.047077116
000100 12 03 2a bd 0e 5a 3f 3c 47 24 ae 3c 7b 3b e4 bc
       -0.041506834 0.011679186 0.021257533 -0.027860394
000110 af e4 88 3c 15 f2 0d 3d bf 85 6b 3d f0 7d e6 3c
       0.016710607 0.034654696 0.057500597 0.028136224
000120 ab fc e8 bc bd 53 c5 3c ba 77 ea bc 6b 3d 3b bc
       -0.028440794 0.024087781 -0.028621543 -0.011428217
000130 87 aa 02 bd 76 b0 8f bc 0f 88 d0 bc 36 64 7c 3b
       -0.03190091 -0.017540198 -0.025455503 0.0038511879
000140 5f c1 97 bd 4c c9 80 3c fe 80 11 3d 9d db 52 3d
       -0.074099295 0.015720986 0.035523407 0.05147897
000150 e1 11 de 3c ec 27 ff bc a1 28 34 3d 4c c4 29 bb
       0.027108135 -0.031146966 0.04398406 -0.0025904356
000160 a7 98 15 bd 54 ee 55 3d c6 7c f1 bc 76 b0 3c 3d
       -0.036522534 0.05222924 -0.029478442 0.046066724
000170 c2 b0 6e bd 32 42 ff bc 6f 0f 06 bc 2f 5a a9 3b
       -0.058274038 -0.031159494 -0.008182391 0.0051682214
000180 d8 c6 78 bd 47 13 6a 3c a1 5c 2f 3b 9e 0b 7a bc
       -0.060736507 0.014286823 0.0026758092 -0.015261559
000190 aa a7 0b 3d b9 4f 2e 3b 13 12 c6 bc 93 ae 21 3d
       0.034095444 0.0026597811 -0.02417854 0.039473128
0001a0 d6 15 26 3d 0d c3 27 3c 80 54 04 3c c6 8d b9 3c
       0.040548168 0.010239375 0.008076787 0.02265061
0001b0 63 3c 37 bc b4 45 c7 3c 87 af a0 3c 02 29 d3 3c
       -0.011183831 0.02432523 0.019614948 0.02577639
0001c0 19 f2 51 3d b5 8a 22 bd f5 0a 42 bb 12 81 e6 ba
       0.051256273 -0.039683063 -0.0029608582 -0.0017586073
0001d0 3f 26 a5 bb da 65 7f 3d d6 cf 57 bd fc f1 a7 bc
       -0.0050399597 0.062352993 -0.052688442 -0.02050113
0001e0 07 72 19 bd 1b cf 9d 3c 8e 10 af 3c ab 5a d7 bb
       -0.03746226 0.019263795 0.021370199 -0.0065720878
0001f0 be 8c 30 bd 10 c4 32 bd 2b ac 22 bb 05 89 03 3c
       -0.043102972 -0.04364401 -0.0024821858 0.0080282735
000200 c5 12 b4 bc 8a 4d ca 3c 86 14 12 3c 45 5f 02 3c
       -0.021981606 0.024695177 0.008916026 0.007957284
000210 db 28 0f 3c dc 2a 00 3d f2 62 b8 bc 7c 2c 56 bd
       0.008737768 0.031290874 -0.022508118 -0.052288517
000220 fa 24 11 3c 25 16 2a bd 0c 48 31 39 f3 9b d5 3b
       0.008858914 -0.041525025 0.00016906875 0.0065188347
000230 0a be ab bc 27 89 c8 3c 6e 60 06 3d 6c f3 ed bc
       -0.020964641 0.024479462 0.032806806 -0.029046737
000240 6e 68 c1 3c 7d 5f 1b bc b0 4a d8 bb af 4e de 3c
       0.023609366 -0.009483215 -0.0066007003 0.027137129
000250 f3 c1 c3 3c 58 fa 92 3b 27 e0 dc 3a 26 4f c0 3a
       0.023896193 0.0044854097 0.001685147 0.0014672026
000260 61 b9 e5 bb 36 78 bf bb c4 a0 07 bd 4d b4 2b bd
       -0.0070106243 -0.0058431877 -0.033112302 -0.041919995
000270 fa a2 36 3d 7a b4 b8 bc 2c 38 12 3d 70 e4 14 3c
       0.04458902 -0.022546995 0.0356981 0.009087667
000280 eb 4c 10 bd 5e eb b2 3c ce 5b 9a bc 17 68 8d 3b
       -0.035229605 0.021840747 -0.018842604 0.004315387
000290 05 b2 19 bc 83 85 fa bc 93 e9 c4 3c b6 49 0b 3d
       -0.009380822 -0.030581241 0.024037158 0.034005843
0002a0 96 f8 e0 3c c6 7b 21 3c f7 71 0e 3c 0d 13 2a 3c
       0.027462285 0.00985617 0.0086941635 0.010380519
0002b0 7e d0 07 bd 20 fb 2d 3d 57 b7 81 3c b5 85 e1 3c
       -0.033157818 0.04247582 0.015834494 0.027529577
0002c0 28 2a c7 3b 52 be 34 3d bb 01 34 3b 12 82 3b bd
       0.0060780235 0.044126816 0.0027466852 -0.04577834
0002d0 71 e8 59 bd b3 e4 2c 3d 5c d1 17 3d aa ff 46 3c
       -0.05320019 0.042210292 0.037064895 0.012145916
0002e0 71 f1 f5 3c c6 36 b4 3c 75 b2 ad bc 32 68 33 3c
       0.030022355 0.021998774 -0.021203259 0.010950135
0002f0 3c 60 e0 bc 99 07 84 bc e3 3a c6 3c 7a 8d 36 3d
       -0.027389638 -0.016116904 0.024198001 0.044568516
000300 79 b7 56 bd 00 3e a3 3b 5f fe 83 3d 06 e2 76 bd
       -0.052421067 0.004981756 0.06445002 -0.060274146
000310 89 ba 0d 3a ce aa 84 bc f7 87 59 bd 4d 15 88 3c
       0.0005406519 -0.016194727 -0.05310818 0.01661172
000320 29 61 6c bd 1d a9 a6 bb 32 82 34 bd 3b 6c f2 b9
       -0.057709847 -0.005086078 -0.044069476 -0.00046238475
000330 b5 14 f5 bb 3b f0 6e 3c 3b 2f 1e 3d e6 f9 9e bc
       -0.007479275 0.014583643 0.03861926 -0.01940627
000340 b1 35 e5 3b bc 24 0b bd 03 88 83 3c 73 31 4d 3d
       0.006994926 -0.03397058 0.016056066 0.050095987
000350 76 df 36 3d 67 3f 2c 3d cb 02 c9 bc d6 62 56 3d
       0.044646703 0.042052653 -0.024537465 0.05234035
000360 9b 6a 0f 3d 88 ab 2b bd b8 97 0a 3d ee 27 0f bc
       0.035013776 -0.04191163 0.033836097 -0.008737547
000370 6e f9 1c bd ed 06 f3 bc 76 2d 47 bc ad 27 07 bd
       -0.038323812 -0.029666388 -0.012156835 -0.032996822
000380 31 a6 db bb e1 d8 04 3d f6 a6 81 3c d1 13 05 bd
       -0.006703161 0.032433394 0.015826683 -0.0324896
000390 4a bd 62 3c 2e 3a 74 3d 74 cc bd bc 06 6f 75 bd
       0.013839075 0.059625797 -0.02316878 -0.059920333
0003a0 1a 28 95 3c 0f af 18 3d 6f b7 9d 39 0d c4 37 3d
       0.018207598 0.037276324 0.00030082042 0.044864703
0003b0 1e 2b 4e bc 6d 91 72 bc f3 06 7b 3c 0d b3 84 3c
       -0.012583522 -0.01480518 0.015321481 0.01619866
0003c0 ac 64 11 bd ba 9a 0d bc e2 2b d4 ba 60 a0 28 3b
       -0.0354964 -0.008642847 -0.0016187395 0.0025730357
0003d0 c8 f7 01 3c d7 5d a5 3b 45 7a 95 ba 7e 4e 4c 3d
       0.007932611 0.005046587 -0.0011404237 0.049879543
0003e0 c3 10 95 bb 5c 7b b7 3b dc cf 8d bb f1 7e 8b 3d
       -0.0045491173 0.0055994224 -0.0043277573 0.068113215
0003f0 3a a8 8f bc a7 9a 23 3c bd cd 37 bc 44 e6 0c 3c
       -0.017536271 0.009985602 -0.011218485 0.0085998215

cls1.0.bias f4 [10]
000000 82 47 13 3d f9 87 23 3b a0 75 86 bc c5 86 78 3c
       0.035956867 0.0024952872 -0.01641351 0.01516885
000010 df 88 3d bc 68 f3 21 3d b0 c2 16 3b e2 e8 0b 3d
       -0.011568277 0.03953877 0.0023004226 0.03415764
000020 32 26 0f 3d c0 60 c3 3c
       0.034948535 0.023849845

cls2.0.weight f4 [6, 512]
000000 0a 07 16 bc 58 bd e7 bb c5 b0 9f bc 0b 6f 2b bc
       -0.009156952 -0.007072132 -0.01949347 -0.010463486
000010 3c ae b0 bb c1 3b 7f 3c e2 5f 36 bd bc ad 50 bb
       -0.005391864 0.015578211 -0.044525035 -0.0031841835
000020 d5 c3 0d 3d 47 1d 77 3c bd 08 83 3c 93 5d 08 bd
       0.034610588 0.015082664 0.015995378 -0.033292364
000030 c7 32 57 3c dd 8a 53 bd 22 b1 2d 3d 05 5b 24 3c
       0.013134665 -0.051646102 0.042405255 0.010031466
000040 f0 ae 9d 3b 5e d0 5b 3b cb 36 38 3c cd e6 75 3c
       0.004812114 0.0033540945 0.011243532 0.0150086405
000050 e2 43 60 3c 33 4e ec 3c 08 1c c4 bc 5b 72 90 3b
       0.0136880595 0.028845882 -0.023939148 0.0044081635
000060 35 c2 34 bd d9 7b 6d 3b 7f 7e 80 bc fc 56 2e 3b
       -0.044130523 0.003623715 -0.015685318 0.002660214
000070 bf 06 22 bd 8a 95 8e 3d 75 ea e0 3c b4 02 29 bc
       -0.039557215 0.06962116 0.027455548 -0.010315586
000080 70 b1 e4 bc 99 5d 5d 3c 11 78 80 bc 4d 61 0c 3c
       -0.02791664 0.013511085 -0.015682252 0.00856812
000090 26 6c 36 3d 32 7f 4d 3c d1 48 7a bb 26 43 3a 3c
       0.044536732 0.012542533 -0.0038190375 0.0113685485
0000a0 2f 4a 09 ba 7c f8 44 bc 4c b9 9d 3c 76 5e 6a 3c
       -0.00052371895 -0.012022134 0.019253395 0.014304748
0000b0 83 be b8 3c 7f 01 cd bb 9e 8d cd 3b 40 a9 b6 bb
       0.02255178 -0.006256282 0.0062729856 -0.0055743754
0000c0 22 10 a0 3c a7 8f 18 3d 8f 5d 92 3c 55 8c 33 bd
       0.019538943 0.037246373 0.017866878 -0.043835003
0000d0 be 6f 00 bd e1 fe 98 3c af b3 07 bd e1 5a c7 3c
       -0.031356566 0.018676223 -0.033130344 0.024335327
0000e0 af db 37 3d 9d 42 cd bc f4 d8 88 bc f3 44 14 3d
       0.04488724 -0.025056178 -0.016705014 0.036198568
0000f0 4b 88 9b 3c f1 c2 cb bc 65 21 a7 3b 36 bc 22 3d
       0.018985888 -0.024873229 0.0051004165 0.039730273
000100 47 9d 5f 3d 39 39 90 3c 6f 99 31 bd 89 90 35 3c
       0.05459335 0.01760541 -0.043359216 0.011081823
000110 8b 8a 49 3d 2c cd 91 bc 9f 05 1e bd f7 c8 53 bb
       0.04920439 -0.017798029 -0.03857958 -0.003231583
000120 bc 5a f0 3c 7c 9e cb 3c 05 92 83 3b 91 46 39 3d
       0.02934014 0.024855845 0.0040152096 0.045233313
000130 18 79 47 3c 70 0f b4 bc 5d 2b 1c 3d e5 9b a3 3c
       0.012174867 -0.021980017 0.038127292 0.019971797
000140 bb 89 25 bb 5c 4b 30 3c 6e bd c9 3c 3a 01 c6 3c
       -0.0025259096 0.010760155 0.02462646 0.024170507
000150 d6 2f eb ba 9a c0 8e bc 66 68 86 bb 1f 37 bf bc
       -0.0017943333 -0.017425824 -0.0041018007 -0.023341713
000160 12 86 9c bc 9d 34 33 bb fb 15 1e bd c6 cb c6 3b
       -0.019106898 -0.0027344592 -0.03859518 0.006066772
000170 52 95 b4 bb c8 f4 1d 3c 0b 01 fd bc e6 cf ce bb
       -0.0055109644 0.00964088 -0.030884286 -0.0063114045
000180 8e 40 48 3c 9a 0a 7d 3c b0 79 ad bb 14 5d a5 3b
       0.012222422 0.015444422 -0.0052940473 0.005046496
000190 6a 4a 1e 3d 7e 32 f9 3c 06 e1 f1 bb c6 4b 2a 3d
       0.038645186 0.030419584 -0.007381561 0.04157617
0001a0 1a 28 33 3d 09 cb 3c bd 3e a0 4c 3c 9d 9b b0 bc
       0.043739416 -0.046092067 0.012489377 -0.021558577
0001b0 19 7d e5 b9 52 e6 4a bd eb 85 31 bb 97 26 1c 3b
       -0.0004377149 -0.049536057 -0.0027087878 0.0023826712
0001c0 11 5d 87 3c 91 03 9e 3c 19 c3 e0 3c 9b 73 52 3b
       0.01652387 0.01928881 0.02743678 0.0032112363
0001d0 42 5d 46 3c 10 72 c2 3c f3 ec f1 bc 47 0f 0a bd
       0.012107195 0.02373603 -0.029531932 -0.033705976
0001e0 c6 86 3e bc 11 2a 4d 3c a2 18 16 bd 1a c9 4a bd
       -0.011628812 0.012522236 -0.036644585 -0.04950819
0001f0 13 12 62 bb 5b 8f 7b bb e0 49 ce bc 2b 68 1d 3b
       -0.0034495636 -0.0038385007 -0.02518171 0.0024018388
000200 06 27 85 bc 01 cd 59 3b a4 3f ff bb 6e 86 6c bb
       -0.01625396 0.0033233764 -0.007789569 -0.0036090869
000210 0c cd 6a bd 4f e7 d1 bc 64 2b 92 bc 96 fa 09 bd
       -0.057324454 -0.025622992 -0.017842956 -0.033686243
000220 60 55 c2 bc ce 21 f1 bc ff 23 8a 3b d5 02 0a bc
       -0.02372235 -0.029435065 0.004215717 -0.008423527
000230 ff 2c db bc 4a 14 82 bc bd 57 03 3c 86 4f 8d 3c
       -0.026754854 -0.015878815 0.008016524 0.017249834
000240 f0 79 6d bd 52 b9 96 bc f0 4f 97 3c 09 dd d5 3b
       -0.057977617 -0.018398914 0.018470734 0.0065265936
000250 bd 91 47 3d 62 99 c7 3c 50 14 94 bc 41 16 2a bd
       0.04872297 0.02436513 -0.018076092 -0.04152513
000260 38 4c d8 3c cc f1 be 3c ed 95 0e bd a1 69 a4 3c
       0.026403531 0.023308657 -0.03481095 0.020069899
000270 21 c6 01 bd 99 fd 57 3d 87 e4 fb bb 09 d0 0a bd
       -0.03168309 0.052732084 -0.0076871547 -0.033889804
000280 f7 c3 81 3c 70 e7 ad bb ef ac 79 3c 51 15 21 bb
       0.015840514 -0.0053071305 0.0152389845 -0.0024579356
000290 34 e5 0a 3d cd cd 47 3c e8 af ec bc 0e ed fe bc
       0.03390999 0.012195063 -0.028892472 -0.031118896
0002a0 29 01 75 3b 3c a0 6c bc b0 df 0e 3d 5d ce 55 3d
       0.0037384725 -0.0144425 0.034881294 0.052198756
0002b0 94 fa 28 3b 64 ad 5b 3c d8 f9 50 3d 7c 0c bd 3c
       0.0025784122 0.013408039 0.05101952 0.023077242
0002c0 a2 59 da bc 69 33 a8 bb 8f fa 1d 3d 0c 6e c5 bc
       -0.026654068 -0.0051330817 0.03856903 -0.024100326
0002d0 72 00 fb 3c c3 ef 78 3c eb 6b 16 3d 15 75 bc bc
       0.03063986 0.015193882 0.036724012 -0.023005048
0002e0 17 9a be 3c a9 21 6c bc b4 b1 e6 bc f1 a2 94 bc
       0.023266835 -0.014412322 -0.028160907 -0.018144103
0002f0 f7 7f 60 3a 62 da 33 bc 92 ab 85 bb f0 ed 60 bd
       0.000856399 -0.0109773595 -0.0040792907 -0.054914415
000300 5c 99 39 bc ee 71 e5 bb a0 85 46 bc 94 d5 18 bd
       -0.011328068 -0.007002107 -0.01211682 -0.03731306
000310 db 7b ab 3b 86 f0 cc 3c ba 86 bf bc 44 e5 ee bc
       0.0052332706 0.025017034 -0.023379672 -0.029162057
000320 05 7f 67 3d c3 af c0 3b 83 fb 1a bd cf 60 cb 3c
       0.05651762 0.0058803274 -0.037837517 0.024826435
000330 9c de 56 bc d9 fe 8d 3c 25 04 56 3d 6c 63 be bc
       -0.013114598 0.017333435 0.052250046 -0.023240767
000340 cb fe 2e bc 3b dc b6 3c 52 b9 fb 3c f4 30 88 3c
       -0.010680865 0.022321811 0.030728016 0.016624905
000350 c1 58 d9 bb 91 98 ac 3c dd 7f dc bb f5 17 1d bd
       -0.0066328947 0.021068843 -0.0067291097 -0.038352925
000360 fe 6e 77 3c 2c ff f1 3c 77 61 61 3c 43 c9 49 3d
       0.015102146 0.02954062 0.013756148 0.049264204
000370 68 01 c3 bc 20 49 0d 3d af 86 03 bd 81 b1 e5 3c
       -0.023804381 0.034493566 -0.032110866 0.028038742
000380 38 18 32 3d 1e 63 2f bd a3 50 0e 3d 7f a3 c6 bc
       0.043480128 -0.042819135 0.03474487 -0.024247883
000390 6e bf d1 bc ca 32 80 bb 25 0a cb bb 26 b5 93 bc
       -0.025603976 -0.0039123045 -0.0061962777 -0.018030714
0003a0 02 2c de 3c 22 a4 83 3a c3 f0 bf 3c 40 06 20 3d
       0.027120594 0.0010043422 0.023430234 0.03906846
0003b0 9b 18 3c bd 47 84 22 3c a4 f1 ec ba 24 71 8e 3b
       -0.045921903 0.009919233 -0.0018077386 0.0043469835
0003c0 d7 e8 5c bc a8 4f 99 bc 15 8a 7a bc d5 55 10 bc
       -0.013483248 -0.01871474 -0.01529171 -0.008809526
0003d0 40 00 de 3c 07 0d dd 3c ef 4f bb bb c5 e8 c1 b9
       0.027099729 0.026983751 -0.005716316 -0.00036985255
0003e0 f0 62 0e 3d 97 00 07 3d 50 4f 9e 3c f6 72 cb ba
       0.034762323 0.032959547 0.019324929 -0.0015521932
0003f0 e4 44 c8 3c 50 65 e2 bc 9d e2 bf 3c 87 99 86 bc
       0.024446912 -0.0276362 0.023423487 -0.01643063

cls2.0.bias f4 [6]
000000 c1 1a be ba 4d 5b 4e bd b7 b6 23 3d 8a 0a b7 3c
       -0.0014503823 -0.05038004 0.039969172 0.022343893
000010 bf 8e f0 bc 92 44 fa 3a
       -0.029364942 0.0019093922

cls3.0.weight f4 [2, 512]
000000 93 89 3f bd 95 d0 ce bc 64 08 21 bc 50 5f 29 3d
       -0.04676206 -0.025245944 -0.009828661 0.041350663
000010 4e f6 9f 3b 40 c1 f2 bc 17 f8 a2 3b f3 e9 41 3d
       0.0048816567 -0.029633164 0.0049734223 0.047342252
000020 ce c7 e2 3c aa cd 19 39 50 3b e4 38 45 22 0c 3b
       0.027683165 0.00014667833 0.00010882935 0.002138273
000030 ed a0 0d bd 96 0e 0f bc 04 2f fc bc fb 0b c8 bb
       -0.0345773 -0.008731505 -0.030784138 -0.006104944
000040 52 a2 b0 3b 22 8d 3b bb 7e 1b 01 bc 00 d3 36 bd
       0.005390444 -0.0028618057 -0.00788009 -0.04463482
000050 7e 6a 3f 3d 0b c9 c4 3c d5 39 4a 3c 82 2b d0 3b
       0.04673242 0.024021646 0.01234289 0.006352843
000060 05 38 14 3d 7b 6c 99 3c aa f9 6d bc 09 97 44 bc
       0.036186237 0.018728485 -0.014524857 -0.0119989
000070 1c 3e 32 3d 95 6f b4 bc a1 69 8a 3c 45 75 11 bd
       0.043516263 -0.022025863 0.01689607 -0.035512228
000080 64 87 e2 bb f4 5f 04 bc f4 52 4e bd 32 2e 37 bd
       -0.0069131125 -0.008079518 -0.05037208 -0.04472179
000090 ff 3b 32 3d 0d f2 0e 3d a6 62 d1 3c 7b 00 1d bd
       0.043514248 0.034898806 0.025559735 -0.038330536
0000a0 0a 42 17 bd 88 a1 c4 bb a0 75 09 bc 58 02 1e 3c
       -0.036928214 -0.0060007013 -0.00838986 0.0096441135
0000b0 d3 23 5a bb 91 52 7b bc 76 20 dd ba ad 1f 35 3c
       -0.0033285513 -0.01533951 -0.0016870636 0.011054915
0000c0 eb 75 0b bc d6 25 96 3c 97 c9 04 3c b0 9a 6b 3c
       -0.008512001 0.018328588 0.008104703 0.014380142
0000d0 61 d0 fe 3c e0 5b d7 3c 6a fd 60 3c 8d 72 1e 3d
       0.031105222 0.026288927 0.013732294 0.038683463
0000e0 3b 37 c2 3c 8d 42 02 3d c5 2b ac bc 79 4a 24 bb
       0.023707977 0.03180175 -0.021016965 -0.0025068803
0000f0 fb e7 17 bd 16 f1 d0 3c 7f 30 ca 3c dc 2a 29 3c
       -0.03708647 0.025505584 0.024681328 0.01032516
000100 df 9f 39 bd 5a 90 c1 3c 67 b3 de 3b e6 4b 92 bb
       -0.04531848 0.023628403 0.006796289 -0.004464614
000110 e5 ef dc bb 53 33 6a bc a3 68 74 3c e9 ab bc 3c
       -0.006742465 -0.014294463 0.014917525 0.023031192
000120 48 16 48 bc 4c 2b 9a bc e9 29 a1 bc 75 c9 ca bc
       -0.0122123435 -0.018819474 -0.019673305 -0.024754265
000130 ba fb 0d 3d e2 07 bf 3a 0d 5b df 3c 88 6c 05 bd
       0.034663893 0.0014574493 0.027265096 -0.032574207
000140 30 a0 bf bb f9 79 c6 3a 89 95 29 bd 8b 93 07 3d
       -0.0058479533 0.0015142552 -0.041402373 0.033099692
000150 0e fc 18 3d c2 78 28 bc fb 23 2e bd 2b 78 13 3d
       0.037349753 -0.010282697 -0.042514782 0.036003273
000160 c3 91 d5 3c ff 88 01 3d 6d bc f1 bc 9e 20 eb bc
       0.026070481 0.03162479 -0.029508794 -0.028702077
000170 29 db b4 bc b3 d3 50 3c 63 6a 40 bb 23 8f 27 bc
       -0.02207716 0.0127457855 -0.0029360286 -0.010226998
000180 c4 f8 d4 bc a8 3a 4b 3b 6f c8 1a 3c 4a 9f 80 bc
       -0.025997527 0.0031010304 0.009447201 -0.015700955
000190 26 43 1b bd 9f 3b db 3c 88 28 95 3c 0b 25 1b 3d
       -0.037905835 0.026761828 0.018207803 0.037877124
0001a0 12 39 0c 3d f5 25 d2 bc 72 f4 25 3d 2d 72 c5 bc
       0.034234114 -0.025652865 0.040516324 -0.024102295
0001b0 36 99 c4 3b 51 63 b6 bc b9 fc d3 3a 72 0d c6 bc
       0.0059997095 -0.022264155 0.001617334 -0.024176333
0001c0 a8 69 00 3b 18 05 2a 3d d3 fe 63 bc 3b a7 c2 bc
       0.0019594226 0.041508764 -0.013915735 -0.023761382
0001d0 3e 4a 8f 3c 45 0f fe b9 33 20 1e 3d 7e 32 12 bd
       0.017491456 -0.00048458032 0.038604926 -0.035692684
0001e0 2e 4f 3f 3c 39 93 26 bd ff 48 ea 3c 2a 5d c2 bc
       0.011676593 -0.040667746 0.02859926 -0.023726065
0001f0 d7 56 af 3c e4 b1 5d bb b8 b1 1f bd 29 1b 04 bd
       0.021403713 -0.0033827955 -0.038987845 -0.032252464
000200 6e f6 b9 bc 22 91 df bc 99 a2 c7 3c f2 e3 9a 3c
       -0.022700515 -0.027290884 0.024369525 0.01890752
000210 79 fb 32 3c 59 7f 8a bb 2c af 6f 3c 9b 42 05 bd
       0.010924214 -0.004226607 0.014629167 -0.032534223
000220 34 37 9e bc da 50 26 bd b9 b1 15 bb d1 d4 9c 3c
       -0.019313432 -0.04060445 -0.0022841527 0.019144448
000230 93 84 12 3d a4 90 0e bc 3c e8 7f 3c 1f 50 eb 3a
       0.035770964 -0.008701477 0.015619334 0.0017952955
000240 40 9e 3a 3c 41 b0 d9 3c 3a 0d bf 3b 1a 4f de 3c
       0.011390269 0.026573302 0.005830434 0.027137328
000250 69 25 48 bb 6a 95 9a bb dc 71 a3 39 08 3a 26 3c
       -0.0030539876 -0.0047175186 0.00031174615 0.010145672
000260 35 e8 d4 ba eb 37 8d bc f9 d0 23 3d 56 bc 07 bd
       -0.001624352 -0.017238578 0.039994214 -0.033138596
000270 75 3a bf bc dd a1 37 bd be 9c 10 3d 70 ca 86 3c
       -0.023343304 -0.0448321 0.03530573 0.016453952
000280 69 99 2a bd 4b c8 a8 3b 47 26 7b 3c 09 0f 05 3d
       -0.04165021 0.00515083 0.01532895 0.03248504
000290 36 39 12 bc 51 57 0b 3d 44 fd 9e bc 17 f4 3b bc
       -0.008924773 0.03401882 -0.019407876 -0.01147177
0002a0 80 b4 8e 3c 3e f1 06 3d cb bf 23 bb 1a f3 15 bc
       0.017420053 0.03294491 -0.0024986144 -0.009152198
0002b0 0d a1 5d bc db 12 73 3c 95 5e d6 bc 19 71 b5 bb
       -0.013527167 0.014836038 -0.026168147 -0.005537164
0002c0 ff 5e f5 3c 1a 37 a1 3c 01 b3 19 bc a9 15 08 3d
       0.029952524 0.019679595 -0.009381057 0.03322378
0002d0 6f 78 db bb 5b 3a 0c bd 8d 0d 1f 3d b9 a9 64 bc
       -0.0066977064 -0.03423534 0.038831282 -0.013956481
0002e0 7f ad 4a bc eb 16 03 3c 19 d1 d9 bc 97 fa 2a 3c
       -0.012370466 0.00800107 -0.026588963 0.010435722
0002f0 3e 5d 14 3c 5e e2 0c bd d7 00 34 bd 13 79 2d 3d
       0.009055434 -0.034395568 -0.043946113 0.042351793
000300 f6 05 d0 3b 28 63 19 bb f7 1e 25 3d 4e 9d 82 bc
       0.006348367 -0.002340505 0.040312734 -0.01594415
000310 f4 ed a4 bc ea d9 0f 3d c5 be a3 bc 0b 1a 36 3c
       -0.020132996 0.03511993 -0.019988427 0.011114608
000320 ec 27 87 3c 19 98 1c bd 99 08 07 bc 31 03 0a bc
       0.016498528 -0.03823099 -0.008241796 -0.008423612
000330 1c 15 5e bc 49 26 a2 3b fd 47 f7 bc 04 70 37 3d
       -0.013554838 0.0049484116 -0.030185694 0.04478456
000340 58 68 36 3d 3b 29 f6 bb ca bb 8f bc 43 d7 2c 3d
       0.044533104 -0.0075122393 -0.0175456 0.042197477
000350 f5 84 34 bd 70 69 49 bd 96 25 02 bd 0f 4d 3a 3d
       -0.04407211 -0.04917282 -0.031774126 0.045483645
000360 eb 92 fb bb bf 36 48 bc 61 86 3e 3b 37 73 48 bd
       -0.007677426 -0.012220084 0.0029071795 -0.048938002
000370 7a 95 b3 3c 7e 48 1f bd 97 ef 47 bc 1b 2a dd 3c
       0.021921862 -0.038887493 -0.012203119 0.026997617
000380 f7 b2 e7 3c e6 8f 26 3d dd c6 00 bd f1 c1 01 bb
       0.02828358 0.040664576 -0.03143965 -0.0019799436
000390 51 03 0f 3c 94 a3 08 bd d0 18 8c 3c 2e 5c bf 3c
       0.008728818 -0.033359125 0.017101675 0.023359384
0003a0 09 89 be 3b 0a a3 fb bc 16 7f a0 3c f5 04 3f 3d
       0.0058146757 -0.030717392 0.01959185 0.046635587
0003b0 c7 d5 f6 bc 4c c2 0d 3d f2 ea dd bb 45 56 72 bc
       -0.030131234 0.034609124 -0.0067723924 -0.014791076
0003c0 33 10 20 bc bd 5c 44 bc 8c 91 19 ba 43 77 d7 3c
       -0.009769487 -0.011985001 -0.0005858175 0.026301986
0003d0 98 5e c5 3c 77 e9 9f 3c 87 5e 4c bc d0 38 a9 3c
       0.024092957 0.019520504 -0.012473709 0.020656973
0003e0 13 d3 e7 39 a6 1c 4b bc ad 8d 7f bc 94 58 08 3d
       0.00044217016 -0.012396967 -0.015597743 0.0332876
0003f0 52 2c f1 3c f7 f5 13 3d a7 7b c1 3b 24 a7 4c b8
       0.029440079 0.036123242 0.005904633 -4.8793052e-05

cls3.0.bias f4 [2]
000000 f9 d3 8d bc d3 62 80 ba
       -0.01731299 -0.0009795077
