CLIP/saved_models/model_CLIP-16_CLIP_2024-0506_weights.pth (torch, 40042 bytes, 6 tensors)

cls1.0.weight f4 [10, 512]
00000000: 9e32 98be 5948 0c3a 48d5 cbbd 77ae adbd
00000010: 906b 25be e5f8 433e af28 19bd a07b a6bd
00000020: 7598 82be d0d0 3fbc cc90 59bc 6934 ca3c
00000030: 2334 87bd 5fdc 06be 42e1 c1bd 024f 6fbe
00000040: 38d2 d6bd 071e c9bd 845d adbd 6612 75bd
00000050: 12e6 52bd 9684 e13d ce0d 4b3e d569 2cbe
00000060: 691b 0a3e 777c 93bd 8971 c3bd 6343 053c
00000070: 2e6b a93d 144c 823d efdc 003c 563d cbbd
00000080: c5b8 563e 0b72 f23d 5481 f23d d4a3 a43d
00000090: c463 c7bd f42b fa3c f25d 113d 698e aabd
000000a0: 04ee ac3e 03f7 2e3e a46f 033e 74a3 74bd
000000b0: 482d ebbc 4448 163e 1b28 99bd 8799 243e
000000c0: fbd4 c53d f45b c43e 645b 2f3e e73a b5bd
000000d0: 695b 423a b784 36be 9eb7 133e ac98 c93d
000000e0: 0f85 2cbd e9ee 243d 4541 fd3d fd80 193e
000000f0: 5a8e ca3d c869 063d 411f 8dbd 00f1 013e
00000100: 30b6 d2bd bdbd 8f3e dcbb 073e 311c b83d
00000110: 0a6a 82bc 6323 0f3e d754 403e ecf3 ca3d
00000120: 3ed3 193d 9b43 d6bd f563 113d 938e b93d
00000130: ac6d 183d 8d8f 0bbe 827b 15bc b796 573c
00000140: 1ed7 3bbe 862f d83c 3056 f93c 5e05 be3d
00000150: 64df ac3c f963 65bd 79a3 773c 16eb cd3d
00000160: 28df 5b3c 80f9 2c3e 9977 43bc 395c 0b3e
00000170: c8e5 51be 0cbc 2dbd ac89 0a3d a5d9 61be
00000180: c028 eabd 139b be3c 1bb1 223d cc95 b5bc
00000190: b621 183e 3f47 793d e18c 80bd 66cf 5a3c
000001a0: f3e3 fd3c f5a1 403e 0db8 fb3c f041 98bd
000001b0: e3f2 343e 9b1e 293c a06b 9bbe 561a 743d
000001c0: bdf3 083e c6fc 44bd 6a33 6abe c8f7 9bbc
000001d0: 0c88 cd3d 2b12 ed3e df40 9abd a1d1 a83d
000001e0: a4a3 b6bd 02b4 7b3c 0532 96bd 2416 9f3c
000001f0: c843 d7bd e826 21bd d5e0 81bd 1e8c da3d
00000200: b531 30bd c4c1 78bd 87eb cc3e ff65 4c3e
00000210: f833 2d3d 61a0 e9bc 9e22 c83d f2a6 fdbd
00000220: cc8b e2bb 023a 0fbe 1a1f 8b3d 7466 053d
00000230: f2f0 f2bc cdfb 04bd 8a18 da3d 571f 30be
00000240: 234b 823d 215d 11bd d3ec 813e ef1c 06bd
00000250: 6802 843e 0c8e 843c 0d6b 573d 5e31 aa3d
00000260: 3426 193e 1a90 f73d 6606 fdbc bab3 20be
00000270: 2ecd 103e 988c e3bd f65f 8b3d 4f99 67be
00000280: a3d0 04be 1652 94bd a3ef 983c fd0d 8b3d
00000290: e8d2 11be ad64 0c3d 5c77 c83d 87a5 993d
000002a0: dead e03d cd79 193c e2fb 2fbd 0ea4 c4bd
000002b0: 918a 12bd fec8 b83d 0975 0f3d e6db 813d
000002c0: 3e7b 76bd 7a63 823e 3d0c 44be b126 6ebe
000002d0: 2683 24be dc6c 723e c3f8 043d 4ef7 9cbd
000002e0: e428 163e 16cc 5c3d 0f09 2ebd fe8e 11bd
000002f0: 913d c1bd a5fd b7bd 86d4 3e3d a240 143e
00000300: 3f4a 37be 13a0 bfbd b48b 2f3e 002a c9bd
00000310: 5f97 cbbd 49cf 0ebb c7d3 79be 804f d03d
00000320: 7292 00be d8d8 debd 264e 99bc f8ec d93c
00000330: f97c 7ebd 9d99 38be e9ee debd f554 593c
00000340: caf5 fbbb 69e6 55bd b4d6 adbc 2e5d ca3d
00000350: 4016 873d 5b7b 0f3e 8097 a73d 4b63 21bd
00000360: 4de7 2a3d f25d f1bd 6c5a 1f3d c47b 2fbd
00000370: f638 c2bd 15ab f13c 8eb4 05be 28ba 393d
00000380: 7fe0 6bbd 086e 203e 1717 153e 4934 8fbd
00000390: 855b 083e 180f 463d 2056 913d 0749 3dbe
000003a0: 3305 72bd 8cf3 68bd d007 3f3e 96f4 963c
000003b0: 0952 05be 9d8f 4f3e 7103 c63c c0f4 1bbe
000003c0: 3349 513d 1f04 60be 11f1 6ebc ac2f 72bd
000003d0: 3eb9 dabc 737d e9bc 6544 fcbd 06c6 043d
000003e0: c18a 943d e65d fd3d a7f8 cfbe e458 863e
000003f0: 6014 153e 8239 c5bd 55c5 3abd 6ff0 e03d
-0.29726118 0.0005351357 -0.099527895 -0.08480542 -0.16154313 0.19137914 -0.037392315 -0.08129048
-0.2550694 -0.0117075 -0.013279151 0.024683194 -0.06601741 -0.13170002 -0.09466793 -0.23369983
-0.10489315 -0.098201804 -0.08465102 -0.059832 -0.051488943 0.11011617 0.19829485 -0.16837247
0.13487019 -0.07201474 -0.095431395 0.008133742 0.08272396 0.06362167 0.007865175 -0.09923808
0.20968921 0.11838158 0.11841074 0.0803906 -0.09735826 0.030538537 0.035489984 -0.08327944
0.33775342 0.17086415 0.12835556 -0.059726194 -0.028708115 0.14676005 -0.07478353 0.16074191
0.096597634 0.38351405 0.17124707 -0.08849125 0.0007414134 -0.17824064 0.14425513 0.09843573
-0.042119082 0.040266905 0.12365965 0.14990611 0.09890433 0.032815725 -0.06890727 0.1268959
-0.10288656 0.28074446 0.13255256 0.08989752 -0.015919704 0.13978343 0.18782364 0.09909806
0.037554972 -0.104621135 0.035495717 0.09060397 0.037213966 -0.13628979 -0.009123685 0.013158492
-0.1834378 0.026389848 0.030436605 0.092783675 0.021102615 -0.056003544 0.0151146585 0.10054605
0.013419904 0.16892052 -0.01193037 0.13609399 -0.20497811 -0.042415664 0.0338227 -0.22055681
-0.11433554 0.023267305 0.039719682 -0.022166155 0.1485661 0.06085896 -0.062768705 0.013355112
0.030992484 0.18811782 0.03072741 -0.074344516 0.17670779 0.010322238 -0.3035555 0.05959543
0.13374229 -0.048092626 -0.22871175 -0.01903905 0.100357145 0.46302924 -0.075319044 0.082431085
-0.08917931 0.015362741 -0.07333759 0.019419737 -0.10510975 -0.039343745 -0.063417114 0.106712565
-0.043016154 -0.060731664 0.40023443 0.19960783 0.04228589 -0.028518857 0.09772228 -0.12385358
-0.0069136377 -0.13986972 0.067930415 0.03256841 -0.029655907 -0.0324667 0.10649212 -0.17199455
0.063619874 -0.035489205 0.25375995 -0.032742437 0.25783086 0.016181014 0.052592326 0.08310197
0.1495598 0.12088032 -0.03088684 -0.1569356 0.1414077 -0.111108005 0.068054125 -0.22617076
-0.12970214 -0.07242219 0.018668955 0.067897774 -0.1424061 0.0342757 0.09788391 0.07502275
0.109706625 0.0093674185 -0.042964824 -0.096016034 -0.03577668 0.09022711 0.035023723 0.063407704
-0.060176127 0.2546652 -0.19145294 -0.23256947 -0.16065654 0.23674339 0.0324638 -0.07664357
0.14664036 0.05390557 -0.042489108 -0.03553676 -0.09435571 -0.08983926 0.046589397 0.1447778
-0.17899416 -0.093567036 0.17143136 -0.09822464 -0.09940981 -0.0021791032 -0.24397193 0.101714134
-0.12555864 -0.108812034 -0.018714022 0.026602253 -0.062130902 -0.18027349 -0.10885412 0.013264884
-0.0076892124 -0.05222169 -0.021220542 0.09881054 0.06596041 0.140119 0.08183193 -0.039401334
0.041724492 -0.11785497 0.038904592 -0.04284264 -0.09483521 0.029500524 -0.13057157 0.045343548
-0.057587143 0.15666974 0.1455959 -0.069923945 0.13316162 0.04835424 0.07096505 -0.18484889
-0.05908699 -0.05687289 0.18655324 0.018427175 -0.13019575 0.20269628 0.024171563 -0.15230083
0.0510952 -0.21876572 -0.014583842 -0.059127495 -0.026699658 -0.028502202 -0.12317733 0.032415412
0.07253028 0.12371425 -0.40619394 0.26239693 0.14558554 -0.09630109 -0.045598347 0.10983359

cls1.0.bias f4 [10]
00000000: ccfd 2dbd 1c36 27bc 1cc6 00bd e2bb 8f3c
00000010: adc5 5b3c cb9b 23bd d9d9 c9bc 45cc e7bc
00000020: 37e5 12bd 3b71 21bb
-0.042478368 -0.010205772 -0.03143893 0.017545644 0.013413829 -0.039943498 -0.02464001 -0.028295645
-0.035863128 -0.002463414

cls2.0.weight f4 [6, 512]
00000000: 0503 9b3c 1d21 98bc 96b0 73bc 7f7f 40bd
00000010: 9ae4 213c b51a 00bd acc2 0bbd 4266 8aba
00000020: 0211 c43c 8461 ef3c 6718 aa3c 3765 5b3c
00000030: 1f49 da3a a9a7 4c3c 8405 063d 0543 a3bc
00000040: 3b0d 953c 83be 27bd 8b97 aebc 1930 073d
00000050: 4d6c 673c bdbf d73c f264 143d c178 f6bc
00000060: 16b0 8e3c d4a7 213d e5c4 d03b 0b99 f0bb
00000070: f81f 62bd 995a 243d 8a2a f1bc 2e0e 40bc
00000080: d086 26bc acc6 e6bc 2735 0f3c a3e3 8dbc
00000090: 9cb4 d8ba 0bba d53c 35b4 f23c 2f38 39bd
000000a0: 832f 99bb 67c2 5c3d 487b f0bc 4a88 b93c
000000b0: 8c83 d2bb ae25 2c3d 6c67 12bd ace1 ffbb
000000c0: f166 b5bc 9d29 a1bc a85b 063d e4e7 78bb
000000d0: 56c5 433c 1f11 33bd f769 48bd 51d1 b63b
000000e0: 79c0 adbc d289 28bd d4b8 493d 2c78 1b3d
000000f0: f8a5 f1bc 4d94 eabc f8ee a4bc 4f80 20bc
00000100: 8c59 edbb 0988 f43a c0b2 eaba 6f46 47bc
00000110: 1d51 c3bc 4912 bcbc a615 ab3b 7d99 3ebd
00000120: ddca 223d 91ae 36bc 67f5 293c d58b 463c
00000130: 2138 60bd e584 9f3c 8898 4dbb fd05 23bd
00000140: efc8 e2bc 9b06 ab3c 038b 113d a39b a73c
00000150: ec6e 363d 4ebe d43c 9733 33bc b1e8 143c
00000160: abb8 85bd 6305 e43b 637a 1bbd b913 5b3b
00000170: b3d5 1dbd 57d2 39bd 7f01 b1bc a7cb babc
00000180: 1034 183d 6dcf 40bd 0c79 183c 8f82 1e3d
00000190: f691 653d e929 eabc 5bee 473d 4a6d aabc
000001a0: 0407 b33c 669a b2bc 9790 18bb 83bf 8abc
000001b0: 354d e73c 5fc9 8abc b2d1 1abd f5b7 32bd
000001c0: 849d 783d 3afa aebc de00 2f3d 6cd4 0f3d
000001d0: 53ae efbc 24b5 15bd 5827 e83c b9fb 233b
000001e0: 1cf9 c6bc 485a 56bd ab4c 4cbd f72f 5abc
000001f0: d665 24bd dd4e 503c 5f67 1d3b e235 0bbd
00000200: 649d 86bd c294 143c 5b4a f9bc 20ab 0c3c
00000210: ec39 b5bc e8ac 41bc a348 143d 281a 2cbc
00000220: 1e58 ecbc 94d5 51bc 1327 4d3d cc1c 083c
00000230: 970f 5abc b9a0 e8bb 20d3 9cbc bbd7 b0bc
00000240: 96b5 21bd 9e52 ff3b 7c27 d83c 25ce 90bc
00000250: 6b57 bebc 5f1c 6b3d 21cf 56bc 249c 293d
00000260: 8a1a f73c 6fec d13c f2d2 2dbd 361e 72bb
00000270: cf2b 2d3d e398 8ebc 1fe2 35bd dd6d fe3c
00000280: 8405 813d 784a 27bd d702 c83c 10a6 02bd
00000290: fd3f 2cbd 9786 f5bc d97f 463d a423 f73c
000002a0: b165 21bd 1768 283d 67dd a9bc 933f 5d3d
000002b0: 795b 123d 08db 30bd 52a9 8d3c 5e9e 80bc
000002c0: a208 163d fc8d e7bc 1ad0 0fbc d43e 35bc
000002d0: b4e8 933c 6092 403b 6042 73bc 38cb 18bd
000002e0: fd8d e8bb c4b9 2abd 0d81 02bd 119a c4bc
000002f0: eadd 163d 3665 acbc d4e5 fabc 39d8 88bc
00000300: 8258 283d 239c d6bb 207c fa3c 65d4 3bbd
00000310: 7bdb 5a3d 0d35 d1bc c6fe eebb 681c 473b
00000320: 8a7a adbc 29e8 ca3b cecb 363d 106c a03b
00000330: 03df 4c3d b295 1ebd bada 033d fb42 44bc
00000340: 7d7a 8f3c 2294 37bc 3d13 883c 0536 903c
00000350: c2ad 20bd 8b2f edbc 4b43 04bd 60cc 32bd
00000360: 0edc 423d 0574 673c b909 033d 00ef 5b3c
00000370: d86a ac3c 02de b93b ff3d dbbc 32f5 28bd
00000380: 2067 fbbc cb6b ed3c 3ee1 993c 7771 1dbd
00000390: 0517 d33c da29 75bb d5ad f3bc 24ef cdbc
000003a0: be67 cdbc 345e cbbb 5963 b33c 6c52 3e3c
000003b0: c039 77bd 44c7 093d ecd6 c63b 642c 0ebd
000003c0: 213e 65bb 24f6 23bc 91fe 063d cd32 babc
000003d0: 4e37 3c3d e2da b6b9 4fb0 a6bb d368 153d
000003e0: def8 a53c 9cbf 16b9 f8d6 6d3c 41c5 5e3c
000003f0: c8b0 233d 9256 8abc a28c f83c 704e b23c
0.018922338 -0.018570477 -0.014873644 -0.04699659 0.009881163 -0.03127547 -0.0341212 -0.001055904
0.023933891 0.029221304 0.02076359 0.013390831 0.0016653872 0.012491145 0.032720104 -0.019929418
0.018194785 -0.04095317 -0.021312496 0.033004854 0.014124942 0.026336545 0.03622908 -0.030086877
0.017417949 0.039466694 0.006371128 -0.007342463 -0.05520627 0.040125463 -0.02943923 -0.011722131
-0.010163978 -0.028170906 0.0087407 -0.01732046 -0.0016533318 0.026089689 0.029626945 -0.045219596
-0.0046748533 0.053896334 -0.02935566 0.022647996 -0.006424373 0.04202812 -0.035743162 -0.0078088846
-0.022143813 -0.019673163 0.032802254 -0.0037980014 0.011948904 -0.0437175 -0.04892918 0.0055791517
-0.021209942 -0.04114706 0.04924853 0.0379564 -0.029498085 -0.028635168 -0.02013348 -0.009796216
-0.007243341 0.0018656264 -0.0017906055 -0.012162789 -0.023842389 -0.022957938 0.0052210866 -0.046533097
0.039744247 -0.011150018 0.01037345 0.0121182995 -0.05474103 0.019472549 -0.0031371433 -0.039800633
-0.027683703 0.020877173 0.035532963 0.020459956 0.044539377 0.02596965 -0.010937593 0.009088681
-0.06529363 0.00695865 -0.037958514 0.0033428504 -0.038533878 -0.04536661 -0.021607159 -0.022802187
0.037159026 -0.047072817 0.009306204 0.03869873 0.056047402 -0.028584437 0.048811298 -0.020804066
0.021853931 -0.021802139 -0.0023279542 -0.016937023 0.028235057 -0.016941724 -0.037797637 -0.043632466
0.060697094 -0.021359552 0.042725436 0.03511469 -0.029257929 -0.036549702 0.028339073 0.0025021865
-0.024288706 -0.052332193 -0.049877804 -0.0133171 -0.04013618 0.012714115 0.0024017913 -0.033986934
-0.06572989 0.00906867 -0.030430963 0.008585721 -0.022122346 -0.011821009 0.036202084 -0.010504283
-0.028850611 -0.012807269 0.050086092 0.008307647 -0.013309381 -0.0070992378 -0.019143641 -0.021587243
-0.039479814 0.007791831 0.026386015 -0.017676422 -0.023235044 0.057400104 -0.013110907 0.041408673
0.030164022 0.025625436 -0.0424375 -0.0036944277 0.042278107 -0.017406886 -0.0444051 0.031058246
0.0629988 -0.040842503 0.024415417 -0.03189665 -0.04205321 -0.029971404 0.04846177 0.030168362
-0.03940362 0.041114893 -0.020735456 0.054015707 0.035731766 -0.043177634 0.017292652 -0.015700515
0.036629327 -0.028265946 -0.008777643 -0.011062343 0.018055297 0.0029384121 -0.014847368 -0.03730318
-0.0070970044 -0.041681066 -0.031861354 -0.023999246 0.036832727 -0.021044355 -0.030627169 -0.016704665
0.041100033 -0.0065493747 0.030576766 -0.045856852 0.05343197 -0.025537992 -0.007293555 0.0030381922
-0.021176595 0.0061922264 0.044627957 0.0048956946 0.050017368 -0.03871698 0.032191016 -0.01197886
0.017514462 -0.011204751 0.016610736 0.017603884 -0.03922821 -0.028953334 -0.032290738 -0.04365194
0.04757314 0.014126782 0.031991694 0.013423681 0.02104704 0.0056722173 -0.02676296 -0.04124946
-0.030688822 0.028982064 0.018784162 -0.038438287 0.025767813 -0.0037408979 -0.029745976 -0.025138445
-0.025073882 -0.0062062982 0.021897959 0.011616331 -0.06035781 0.0336373 0.006068101 -0.034710303
-0.0034979659 -0.010007415 0.032957617 -0.022729302 0.04595118 -0.00034876826 -0.0050869356 0.03647692
0.02026027 -0.00014376495 0.014516585 0.013596834 0.039963514 -0.016886983 0.030340496 0.021765918

cls2.0.bias f4 [6]
00000000: d181 be3b 27cc ddbc 5f0a 25bd 25bc b9bc
00000010: 00de 0ebd 19f1 d53c
0.005813815 -0.027074886 -0.040293094 -0.022672722 -0.034879684 0.02611594

cls3.0.weight f4 [2, 512]
00000000: fb31 9cbd 23c6 57be e904 563d 0f48 1a3e
00000010: d23a 0b3e cb72 28bd 820f bd3c f930 fa3d
00000020: b460 9c3d f96b 8dbe 176c 28bd 6d51 813c
00000030: a27c 20bd 9704 153e a0a5 223d 1706 e5bc
00000040: ef79 ac3d bb89 263e c1e0 7fbd 60f5 0dbd
00000050: b0d2 4fbb 2df7 253e a6f9 e4bc 59db 8fbd
00000060: 7ce1 373e 7d83 063d 9197 143e 8b49 2abd
00000070: f116 1cba b23e 53bd b6ba 2e3e b133 0fbe
00000080: d40c 3a3d 3dce 3abd 7492 efbc 76e6 a13c
00000090: cb40 cfbd 4174 93bd 505f 4c3d 0696 08bd
000000a0: 994e 79bc f7aa 02bc 7d08 26be 98f1 6f3d
000000b0: 64bd f4bb a19c f43d a908 603d c981 473d
000000c0: f33a 47bd d04d 2ebd d004 c43c 3f53 39bd
000000d0: a5bf c93d 6d6c 08bd 02ac c63d c4ed 403e
000000e0: 422f 9ebb 7d7a 233d b2e1 603d 5100 293d
000000f0: 059b f0bc 4531 a63b 0e11 a63d 13a4 403e
00000100: aea1 15bd dd53 3e3c c95b c23d f589 f33c
00000110: 3db2 66bd e732 523d c0e9 be3d 0167 6a3b
00000120: 3d9f 933d b490 dfbd c166 2b3c 1430 94bd
00000130: 4e43 cfbd 7be8 29bc 4c42 a0bd 756a 0bbd
00000140: ad95 d43d ab3e 9c3b df96 debd 8abf d3bc
00000150: d327 8a3d 3a43 743d 1835 dcbd f1d6 b2bc
00000160: da47 193b 1b42 9ebd 58e4 023c 177c 2a3e
00000170: 1a04 8d3c 47df b2bd 336d 093d b32d 113e
00000180: ad15 bebc afc9 0a3d aa3b d43d 4805 393e
00000190: 5e5a 783d 780e 933d 5c30 f4bd 740e 1abd
000001a0: 0641 efbd ce2b d23d 59d7 403b 52f6 f6bc
000001b0: 6c3a fabb 083f 163d e843 80bd deba ae3d
000001c0: 2134 e5bc 460a fc3c 51f9 babc fc54 943b
000001d0: 49f3 473d 089d 323d 68a7 093e 56cd 9dbd
000001e0: bd84 823e 63b4 16bd 31b0 b4bd 0f06 0d3e
000001f0: 2aab ecbc c05e 4c3d f11b 89bc 2377 973c
00000200: 65ed a33d f9e8 ccbc 7021 c0bd 7e94 933d
00000210: 5a7c 753d e076 e5bc 5b11 f43c aa0b 81bd
00000220: 08bd 83bd b17d 3d3c 38be 50bd 408c 883d
00000230: fa07 47bd e8d4 a13d 4cfe 023d 8d9d ccbd
00000240: 82a0 4c3d 3d47 b03d 454f 3d3d 4e0c ecbb
00000250: dfa6 333b 9001 23be ae3c ecbc 3996 2dbd
00000260: ff9f 89bb 0cc8 df3c b8d8 a73d 04ef 14bd
00000270: 0e38 1cbc 575a 01bd c1ea 81bd d419 e8bd
00000280: f6ca d1bd b631 00bd 643f 4bbd 3811 02bc
00000290: f226 c0bc 31cc 673d ab5e 8a3d cf4b 783c
000002a0: fd9d c63d ce15 fd3d d211 353d 2fdc c9bd
000002b0: a735 1f3e 65d6 a0bc a493 043e 662c e93c
000002c0: 323b 4b3c bd35 10be 4e8c 9fbc 8910 c7bd
000002d0: b89c 04be b83b 023e 4355 73bc eda4 d93d
000002e0: a25a 05be c1cf 0e3c 8e07 b83d b78a 65bd
000002f0: e3de 4cbd 20cc 6bbd 5160 4fbc e235 1b3e
00000300: 283e 45be 2462 48bd 566d 493e e9e3 613c
00000310: 68f0 013d f0e2 77bd 8c6f 513d b00f 4b3d
00000320: 8521 bf3c b9cc 6cbd cc7a 243d 2800 633d
00000330: d8e9 3bbe c58b b2bd 38a4 a7bd 8378 fc3d
00000340: f5dc 993e 461e a2bd d3a3 3a3e 3cb4 ab3c
00000350: 0e63 87bd 2392 b3bd 6f1d 06be 8343 323d
00000360: 2dbb a03c 216e 033d 8cc5 4b3d c623 38bd
00000370: f583 cf3b cef4 50bd 40c4 58bd 89bf 953c
00000380: 2956 db3c f7af aabd cca3 dfbd 8fc0 803d
00000390: 74cd 363e ffec f1bd febc c73d 6716 933b
000003a0: e5b3 803c 951c 5e3c 63b9 e8bc d01e ae3c
000003b0: 5c46 82bc e3f4 a93d 6bce 083d cb63 153c
000003c0: 45c9 9f3c f80e 863d 5bcd 223d c43c 24bd
000003d0: 3334 b13c 7c32 c4bd 584a 1f3e 56b8 923d
000003e0: 5244 223e 14bd 813d 07b6 5abc c608 edbc
000003f0: 3fd4 00bc a8fe 20bd 9581 f5bd 7382 043d
-0.076267205 -0.21071677 0.052250776 0.1506655 0.13596657 -0.0411251 0.023078684 0.12216372
0.07635632 -0.2762144 -0.041118708 0.015785897 -0.03918136 0.14552532 0.039708734 -0.027957005
0.084216945 0.16263478 -0.0624702 -0.034657836 -0.0031711273 0.16207571 -0.027951073 -0.07024259
0.17957109 0.03284024 0.14510943 -0.041574042 -0.0005954346 -0.051573463 0.17063412 -0.13984562
0.04542239 -0.04560684 -0.029244639 0.019763213 -0.1011978 -0.07199908 0.049895585 -0.0333462
-0.015216493 -0.0079753315 -0.16214176 0.05858001 -0.007468866 0.11943937 0.05469576 0.048707757
-0.048640203 -0.042554677 0.023928076 -0.045245405 0.098510064 -0.033306528 0.09700777 0.188407
-0.004827411 0.039911736 0.05490274 0.041260067 -0.029370794 0.0050717914 0.08108722 0.1881259
-0.036531143 0.011616674 0.09490163 0.029728869 -0.056322325 0.051318076 0.09321928 0.0035766962
0.07208107 -0.10916272 0.01046151 -0.07235733 -0.10120259 -0.010370369 -0.07825145 -0.034037072
0.10380111 0.004768213 -0.1086862 -0.025848169 0.06745877 0.059634425 -0.10752314 -0.021831008
0.0023388774 -0.07727452 0.007989012 0.16648899 0.01721387 -0.08733993 0.033551406 0.14177589
-0.023203695 0.033883747 0.103629425 0.18068421 0.060633056 0.07180494 -0.11923286 -0.03761144
-0.11682324 0.10262261 0.0029425232 -0.030146752 -0.007636359 0.036681205 -0.06262952 0.08531736
-0.027978959 0.030766618 -0.022823961 0.0045267325 0.048816 0.043606788 0.13442767 -0.0770518
0.25491896 -0.036793124 -0.08822668 0.13771842 -0.028890211 0.04989505 -0.016736956 0.018489426
0.08004264 -0.025013434 -0.09381378 0.07206057 0.059933044 -0.028010786 0.029793432 -0.06301053
-0.06432539 0.011565612 -0.050962657 0.066673756 -0.04859159 0.07901937 0.031980798 -0.09990988
0.04995776 0.086073376 0.046218175 -0.0072036153 0.0027412695 -0.15918565 -0.028837528 -0.04237959
-0.004199981 0.02731707 0.08195633 -0.036360756 -0.009534849 -0.031580295 -0.06343604 -0.11333051
-0.1024379 -0.031297408 -0.049621 -0.007938676 -0.02345607 0.056591216 0.06756338 0.015154793
0.096981026 0.123576745 0.044206448 -0.0985645 0.1554781 -0.019633481 0.12946945 0.028463554
0.01240425 -0.14083 -0.019476082 -0.09719951 -0.12950408 0.12718093 -0.014851871 0.1062716
-0.13022855 0.008716525 0.08985816 -0.056040492 -0.05001725 -0.057567716 -0.012657241 0.15157273
-0.19261992 -0.04892172 0.19670615 0.013787248 0.03172341 -0.06051916 0.05113177 0.049575508
0.023331413 -0.057812426 0.04015617 0.05542007 -0.18350923 -0.08718065 -0.08185619 0.12327673
0.3005139 -0.079159304 0.18226556 0.020959966 -0.0661069 -0.08768108 -0.13097166 0.043521415
0.019620502 0.03208745 0.049748942 -0.04495599 0.006332869 -0.051014714 -0.052921534 0.018279808
0.026774483 -0.08334344 -0.10919914 0.06286728 0.17851812 -0.118127815 0.09752844 0.0044887546
0.01571078 0.013556619 -0.028408712 0.021254927 -0.01590269 0.082986616 0.03339998 0.009118031
0.019505152 0.06545824 0.039746623 -0.040097013 0.021631336 -0.09579942 0.15555704 0.071640655
0.15846375 0.06334892 -0.013349063 -0.028934848 -0.007863103 -0.03930536 -0.119876064 0.03235097

cls3.0.bias f4 [2]
00000000: 367e 57bb c617 8d3c
-0.0032881624 0.01722325
