CLIP/saved_models/model_CLIP-16_CLIP_weights.pth (torch, 39878 bytes, 6 tensors)

cls1.0.weight f4 [10, 512]
00000000: efac efbe 6027 01ba f73f f5bd 1d24 ccbd
00000010: b475 4fbe e4e8 6e3e b99a 47bd d9ad e9bd
00000020: d236 c7be 4435 40bd f2bd e9bc 8c13 903d
00000030: 7621 bcbd 1db3 04be b81f 15be 8cb8 9dbe
00000040: bbef c8bd c0fe 15be 2297 e5bd 1823 c8bd
00000050: 705f 3abd 8eb9 213e 5432 613e 0dac 70be
00000060: de91 323e b793 e9bd acf7 d7bd bdf5 c83b
00000070: 8a1a bf3d e847 e63d 354e 833c 209e 19be
00000080: 1a06 553e ba5a 023e f289 0c3e b7f9 d53d
00000090: 99ac 00be 30b4 033c 9d67 2f3d 3568 c2bd
000000a0: e39a e73e 95a0 613e 64bc 413e e532 65bd
000000b0: ef25 9abd 766e 823e b10f bdbd e477 613e
000000c0: c80e 173e 84bc 0a3f 5151 593e fb8b f3bd
000000d0: 8455 c2bc e366 76be 5195 273e 1699 193e
000000e0: 60aa a0bd c4ab 8d3d dc9c 1e3e e9dc 433e
000000f0: 7ebe 0a3e 9d7e 01b9 8f62 b6bd 63a3 383e
00000100: 107b 25be 0a64 b63e a2fe 213e b90b f03d
00000110: 6f5d 24bd 5b1c 393e 5890 873e 0374 193e
00000120: 38c1 243d 228d f5bd c7e8 d93c ccab fb3d
00000130: 450b 363d f3c6 41be 9639 bbbc 79d5 eb3b
00000140: 34cd 7abe 09b0 1d3d 79d3 623d d86c c43d
00000150: 850f 1d3d b6c1 c2bd 1079 713b 777b 103e
00000160: df05 f03a a2f7 513e 8787 543c 8064 f73d
00000170: a3c3 94be b25d 6fbd ace8 cc3c 6853 a7be
00000180: aeb5 07be 4fb2 8e3c 22ef ae3d a44b 083d
00000190: c421 5d3e dc9e ad3d 86bf b8bd ce2c 86bc
000001a0: 3dd8 3a3d 19f6 4b3e e990 9c3c 399c 03be
000001b0: a73b 643e fb62 643c ead0 f5be 66c6 c03d
000001c0: c4f2 5f3e 35e4 83bc 3edf acbe 9ce6 b5bc
000001d0: 3ad9 183e 9be9 2e3f 6bfb 9cbd 0359 8b3d
000001e0: b05f 00be 7b65 083c c5a9 03be 18b1 af3c
000001f0: 0407 08be c666 c7bd cddd ccbd 2652 053e
00000200: 1b15 1ebd 3127 d1bd 1716 113f 2af4 993e
00000210: db81 803d 75ac 81bd 3901 163e 41fc 14be
00000220: 9319 94bc 413f 10be 9d14 d33d 2853 8c3d
00000230: daf2 ebbc c415 b5bc 2bcc 0a3e 3a2f 62be
00000240: 723c 873d 8a63 2fbd 960b b53e b39d 56bd
00000250: 5ecc ce3e 5ea1 dd3c 652a 2c3d 1ff1 053e
00000260: c9ec 4d3e 9ced 333e 92c8 89bd 2a1a 39be
00000270: 5dd9 693e bde7 f6bd 0e31 953d 55a1 99be
00000280: daa3 11be d656 b0bd 42d7 643d 934e 553d
00000290: 1264 45be aa98 573d 9855 b63d 0c7e 803d
000002a0: fd28 0d3e 95c8 bc3b 03dd 0bbd 2a45 edbd
000002b0: 691e 2cbd 9e0e eb3d 1eb6 4f3d 4243 b93d
000002c0: 3e75 b6bd bab0 b93e b689 5fbe baf8 bcbe
000002d0: 6d07 55be e812 ab3e 523d 283d 654b f4bd
000002e0: f219 313e c791 333d 4daa 31bd 0c40 2fbd
000002f0: 972d d1bd eb2d bfbd bea8 9b3d 827f 573e
00000300: c107 5ebe 9924 cebd fab3 753e d956 d3bd
00000310: 0afe 0cbe 3c65 813c cdbd aabe c0cd fe3d
00000320: 2ed0 0bbe 7c48 14be 157b 68bc 4c4c 923c
00000330: 7261 b5bd b069 65be cace ddbd 6971 313c
00000340: 5ce3 043d eb89 a4bd 7a98 b7ba 8cc6 233e
00000350: 59d0 c93d 691f 2a3e a7af ce3d 9d5a dcbc
00000360: 46ea 3b3d c496 41be 5d26 9f3d 6234 80bd
00000370: 7347 13be e2d7 db3c 465d 52be f029 193d
00000380: fa59 92bd 59d2 4d3e f669 513e edb5 dabd
00000390: ee63 eb3d bc1c 9c3d bb1c cf3d b476 78be
000003a0: 4e3d b6bd f9cf 4bbd 494d 9b3e 6348 dc3c
000003b0: 6900 40be 4d4a 613e 1133 073c 4939 4cbe
000003c0: 1f3d 103d 9da4 96be 1d55 2ebd 0e56 73bd
000003d0: d974 d8bd e215 dfbd d00c 0ebe c558 5d3d
000003e0: e720 e13d dd20 473e 066b 19bf d5ae a23e
000003f0: ddd6 3e3e bee9 1fbe 9504 73bd c2fa 243e
-0.46811625 -0.0004926827 -0.11975091 -0.099678256 -0.20259744 0.23331028 -0.04873154 -0.11410112
-0.38909012 -0.046925798 -0.028532956 0.07034978 -0.0918607 -0.12958951 -0.14562881 -0.3080486
-0.0981135 -0.1464796 -0.11210467 -0.097723186 -0.045501173 0.1579344 0.21991855 -0.23503132
0.17438456 -0.114051275 -0.105452865 0.00613281 0.09331234 0.11244184 0.016028503 -0.15001726
0.20803109 0.12729922 0.13724497 0.1044802 -0.12565841 0.0080385655 0.042823423 -0.09492532
0.45235357 0.22033913 0.18919522 -0.05595674 -0.075267665 0.254749 -0.092315085 0.22018391
0.14751732 0.541939 0.21222426 -0.118919335 -0.023722418 -0.24062686 0.16365553 0.14999804
-0.078449965 0.06917527 0.15489525 0.1912724 0.1354923 -0.00012349566 -0.08905517 0.18031077
-0.16160226 0.356232 0.15819791 0.11720986 -0.040128168 0.18077223 0.26477313 0.14985661
0.04022333 -0.119898096 0.026600255 0.12288627 0.04444434 -0.1892355 -0.022854608 0.007197079
-0.24492341 0.03849796 0.055377457 0.09591073 0.03834488 -0.09509604 0.003684584 0.14109598
0.0018312297 0.2050462 0.012971765 0.12079716 -0.2905551 -0.058438964 0.02501329 -0.3268082
-0.13252899 0.017419009 0.08541705 0.03327526 0.21594912 0.08477566 -0.09020905 -0.016378786
0.045616377 0.19918098 0.019112067 -0.12852563 0.2228838 0.013939614 -0.4801095 0.094128415
0.21869951 -0.016100029 -0.3376407 -0.02220469 0.14926615 0.68325204 -0.07665142 0.06804087
-0.12536502 0.008324976 -0.1285773 0.02144675 -0.13283926 -0.09736399 -0.10003243 0.13019618
-0.038594346 -0.10212553 0.5667433 0.30069095 0.06274768 -0.06331722 0.14648904 -0.14549352
-0.018078601 -0.1408663 0.10306666 0.06851798 -0.028802324 -0.022105105 0.13554446 -0.22088328
0.06603326 -0.042819537 0.35360402 -0.052396487 0.40390295 0.027054485 0.042032618 0.13080262
0.20109858 0.1757111 -0.06727709 -0.18076387 0.22836824 -0.12055919 0.07284747 -0.300059
-0.1422266 -0.08610313 0.05586935 0.052076887 -0.19276455 0.052635826 0.089030445 0.062740415
0.13785167 0.005761216 -0.03414632 -0.115854576 -0.04202119 0.114773974 0.05071079 0.090460315
-0.08909081 0.36267644 -0.21829876 -0.36908513 -0.20803614 0.33412862 0.041074105 -0.11928443
0.17295054 0.043840196 -0.043375302 -0.04278569 -0.10213774 -0.0933493 0.076005444 0.21044734
-0.21682645 -0.10065574 0.23994437 -0.10319299 -0.13768783 0.015795343 -0.33347932 0.124415874
-0.13653633 -0.14480776 -0.014189501 0.017858647 -0.08856477 -0.22403598 -0.108304575 0.010830262
0.03244339 -0.08034118 -0.0014007234 0.15993708 0.09854192 0.16613545 0.10092097 -0.026898677
0.045877717 -0.18905169 0.07770989 -0.06259991 -0.14382724 0.02683634 -0.20543393 0.03739351
-0.07146068 0.20099773 0.20450577 -0.10679231 0.114936695 0.07622668 0.10112902 -0.24264032
-0.08898412 -0.049758885 0.303324 0.026889985 -0.18750156 0.22001 0.008251921 -0.19943728
0.03521454 -0.29422465 -0.04256164 -0.05940824 -0.10569162 -0.10892846 -0.13872075 0.054039735
0.10992604 0.1944613 -0.5992893 0.3177401 0.18636651 -0.1561651 -0.05933054 0.16111282

cls1.0.bias f4 [10]
00000000: 1f65 28bd 1b96 1fbc 149c 0dbd 4414 b23c
00000010: e114 403c 19b0 32bd c46f b0bc bab3 d9bc
00000020: fd7b 1bbd 898b 32bb
-0.04111206 -0.009740378 -0.034572676 0.021738179 0.011723728 -0.04362497 -0.021537669 -0.026574958
-0.03796004 -0.0027243814

cls2.0.weight f4 [6, 512]
00000000: 9bc4 273d ba7a 92bc f725 67ba 2768 55bd
00000010: 931d 483c 37ec 36bd 64ef 15bd 7ebe 7dbb
00000020: c361 b83c 0827 443d 1f4e a33c f07e c63b
00000030: 571b 9abc 2cc0 40bb f0e1 2b3d 9409 2dbd
00000040: 3839 a83c f463 3fbd 5c5a b5bb 0def dc3c
00000050: 3d0a d43c a9dc 723d 07cb 143d 119b f7bc
00000060: 3b47 4c3c cf35 2d3d fdca 093b 9361 8dbc
00000070: 9bc5 80bd aac9 a33d 4091 0abd 0794 bdbc
00000080: b169 0fbd 71fa 41bd 3dea ae3b 481c 0abd
00000090: bcd4 653c 3865 813c e0f9 f33c 5b16 4cbd
000000a0: 14a9 793c 1ced 7c3d 79ce ebbc 5f67 e03c
000000b0: 0bcb 07bc ad43 393d 735d 05bd 181b b2bc
000000c0: cbb3 cabc c494 40bc ed1d 0d3d 84df babb
000000d0: 683a 973c cf4c 89bd 631f 7fbd d1d5 1c3c
000000e0: 663a a9bb 4493 32bd a083 6c3d c8b3 363d
000000f0: 0e87 edbc b10e d8bc d74c bbbc 09c0 843c
00000100: 56be 4a3c 4c94 78bc c528 61bc ce83 5dbc
00000110: 351e 9dbc b9bf 34bd 4032 1e3a 5ff5 42bd
00000120: 27d9 433d aac6 a0bc a8c7 803c 9074 7e3c
00000130: c82b 84bd acaf cf3c dd4e e5bb cbe0 40bd
00000140: 8cd3 15bd e909 c83c ebe2 143d 767d b43c
00000150: 025e 473d 825d 993c 90ac 9bbc 696e 1b3c
00000160: 6f45 9ebd 87c4 c53c 95a2 1bbd d78f cc3b
00000170: 4a4a 3dbd 1ece 8ebd 5383 29bd c2d7 babc
00000180: f7d9 093d b3fc 62bd 1d41 ccbb 95d3 243d
00000190: 1aaa 863d f0f0 0bbd 8f12 6b3d 3e8b 56bc
000001a0: e8c7 db3c 6bf4 56bd 458a f6bb c18d f9bb
000001b0: 1bed c93c d339 eabc 1876 20bd 8a17 44bd
000001c0: 6be4 9b3d 604a e0bc aa4e 573d dbd0 de3c
000001d0: 5044 e7bc e0ef 0cbd d45a aa3c 96e4 48bc
000001e0: cfb7 4cbd e289 7abd 0800 7dbd 3b6f adbc
000001f0: c8e4 1dbd 4a4a 983c d6d2 623b db36 26bd
00000200: c9f9 b3bd e87c d73a aad1 0ebd 139a d2bb
00000210: 73c9 08bd 4571 02bb bd45 fb3c 9439 8dbc
00000220: 6309 f6bc 308f 55bc 4298 913d d2c2 b43c
00000230: a0c5 f7bc ca6b 8abc fcb7 efbc 1ec0 18bc
00000240: 71d2 7cbd d218 293c b691 263d 934d b2bc
00000250: 1b43 35bc baaf a53d 0780 4dbc eeb1 2d3d
00000260: 90ae ff3c 182f 083d 5228 5abd 0b36 b8ba
00000270: 953e 3e3d c7b6 15bc e4a9 8cbd 88de d03c
00000280: fb54 9c3d eeec 42bd ae3c e33c 8bed f7bc
00000290: 4a21 3bbd d1e1 edbc 6dcf 673d c879 103d
000002a0: f784 0ebd 0037 2a3d 2c73 c8bc 0058 9c3d
000002b0: 43e1 103d 30f5 51bd 726a f33c a4bf 4a3b
000002c0: d1b7 353d 3e13 e0bc c703 7dba c05f 9cbc
000002d0: 0694 f83c 2535 10bc a3e8 f4bb 36b3 25bd
000002e0: d5ce 9239 60c2 59bd edd0 fabc 3c93 b9bc
000002f0: ada4 763d eb36 83bc 766d 1abd 5349 d8bc
00000300: 4e68 2a3d 6543 bbbc c2d6 0f3d 11aa 3dbd
00000310: dd63 793d 1095 f7bc 3363 9ebc c16b d63b
00000320: 4e87 1dbc 1ef3 bebb db9c 373d 9983 b43b
00000330: d66d 653d 9943 2abd 78bc 5c3d 1e41 a3bc
00000340: 746b 3d3c 8ab9 86bc 2c12 353c b1f8 433c
00000350: beeb 20bd 0738 28bd d598 f0bc 4656 4abd
00000360: c3a4 573d 455b b83c cd34 183d 985a 8d3c
00000370: 1219 783c ebf6 193c 2153 cbbc 4e8e 2abd
00000380: 02f0 e4bc 6c27 c23c fef8 c03c 9f27 19bd
00000390: 2e16 e33c 8d49 94bc 0e8f 21bd 89ca 27bd
000003a0: 60e6 dfbc 3ecb ffbb 20b9 9f3c b73a 123c
000003b0: 71eb a5bd 5932 5b3d a46b 84ba a6c9 06bd
000003c0: ec99 45bb e157 7abc 20d9 213d 06f6 5bbc
000003d0: 161a 3d3d 8826 723c e481 4ebc 00c0 013d
000003e0: 5520 c13c 44b1 c2bb 6e79 153c d61c a13a
000003f0: 5fc1 2c3d 270d 81bc beb5 263d be8c 0c3d
0.040958982 -0.017880786 -0.0008817608 -0.05210128 0.012214082 -0.044658866 -0.036605254 -0.0038718279
0.022507554 0.047888786 0.019934712 0.0060576126 -0.018811865 -0.0029411418 0.041963518 -0.042245463
0.020535097 -0.046726182 -0.0055344533 0.026969457 0.025883788 0.05929247 0.036326434 -0.030225309
0.012468155 0.042287644 0.0021025531 -0.017258441 -0.0628769 0.07997449 -0.033829927 -0.023141874
-0.035012905 -0.04735798 0.005337982 -0.033718377 0.014027771 0.015795335 0.029782236 -0.049826007
0.015238065 0.061749563 -0.028784977 0.027393041 -0.008288155 0.045230556 -0.032559823 -0.021741435
-0.024743935 -0.0117542185 0.034452368 -0.0057029147 0.018460467 -0.06704103 -0.062285792 0.009572462
-0.0051644323 -0.043597475 0.057742715 0.044605047 -0.028995063 -0.026374193 -0.022863789 0.01620485
0.012374481 -0.0151720755 -0.01374263 -0.013520194 -0.019179443 -0.044128153 0.00060347095 -0.047597285
0.047814514 -0.01962598 0.015720204 0.01553072 -0.06453663 0.025352322 -0.0069979266 -0.04708938
-0.0365787 0.024418788 0.03634922 0.02203248 0.048673637 0.018721346 -0.019003183 0.009486773
-0.07728087 0.024141563 -0.037996847 0.006242733 -0.046213426 -0.069729075 -0.041385006 -0.02280796
0.033655133 -0.055416774 -0.006233348 0.040240843 0.06575413 -0.034165323 0.057390746 -0.013094721
0.026828721 -0.05247919 -0.007523807 -0.0076157753 0.024649194 -0.028592026 -0.039175123 -0.04787401
0.07611927 -0.027379215 0.052565254 0.0271992 -0.028230816 -0.03440845 0.020795263 -0.01226153
-0.04997998 -0.06116665 -0.061767608 -0.021171203 -0.03854826 0.018590111 0.0034610531 -0.040579658
-0.08787877 0.0016440423 -0.03486792 -0.0064270585 -0.033395242 -0.001990394 0.030672902 -0.01723937
-0.030033773 -0.013034627 0.07109119 0.022065554 -0.030245602 -0.016897101 -0.029262535 -0.009323148
-0.06172413 0.010320859 0.040666305 -0.021765506 -0.0110633625 0.08090158 -0.012542731 0.042406015
0.031211168 0.033248037 -0.05326111 -0.0014054192 0.0464464 -0.009137816 -0.068683416 0.025496736
0.07633396 -0.047589235 0.027738895 -0.030264637 -0.045686044 -0.029038342 0.0565943 0.03527239
-0.034794774 0.04155636 -0.02446898 0.07633972 0.035371076 -0.05125922 0.029713843 0.003093698
0.044364754 -0.027352925 -0.0009651747 -0.019088626 0.03034402 -0.008801733 -0.0074740215 -0.040454112
0.00028001392 -0.053163886 -0.030617202 -0.022653215 0.06021564 -0.016017398 -0.037702046 -0.026402151
0.04160338 -0.022859285 0.03511692 -0.046304766 0.060886253 -0.030222446 -0.019334411 0.006543607
-0.009614779 -0.0058273217 0.044827323 0.0055088517 0.05601295 -0.041568372 0.053890675 -0.019928511
0.011561263 -0.016445894 0.011051696 0.011961148 -0.03928732 -0.041069057 -0.029369751 -0.049398683
0.052647363 0.022504458 0.03715973 0.017255113 0.015142696 0.009397249 -0.024819912 -0.04163962
-0.027946476 0.023700438 0.023556229 -0.0373913 0.027720537 -0.018101478 -0.03944307 -0.040964637
-0.027331531 -0.007806211 0.019497454 0.0089251315 -0.081015475 0.053514812 -0.001010288 -0.03290715
-0.003015156 -0.015279741 0.039513707 -0.013425356 0.046167456 0.014779694 -0.0126042105 0.031677246
0.023574987 -0.005941542 0.009123189 0.0012291919 0.0421766 -0.015753342 0.040700667 0.03431391

cls2.0.bias f4 [6]
00000000: 7909 a93b 474c ddbc d7af 21bd e19c b2bc
00000010: bdb2 11bd f9cf d03c
0.0051586 -0.027013911 -0.039474335 -0.021803321 -0.03557085 0.025489794

cls3.0.weight f4 [2, 512]
00000000: 4bb0 5cbd 0b4f 74be ef73 8a3d 0b75 373e
00000010: 09bc 243e fac0 58bd 2d03 bf3c aab7 153e
00000020: dcd4 cf3d ffec efbe 9d4f 42bd baa7 db3c
00000030: 5247 07bd d0ce 773e a52e 8f3d 3390 dfbd
00000040: 7168 e33d 4f8c 753e 654b 8dbd 0b03 46bc
00000050: 0c0d 183c 3757 713e 2fdc 36bd bae5 7bbd
00000060: 37e1 813e bd34 163d 70d3 433e 32d5 0ebe
00000070: 9dbd 253c c3d0 92bd 8fd7 9a3e 1dda 6cbe
00000080: 05c9 813d 9378 52bd 5ed0 29bd 290c b83c
00000090: aa05 13be 3da5 03be bddd 893d f478 1bbd
000000a0: 01a5 0bbd 750f 4a3c 442b 2ebe c067 743d
000000b0: 4aca 903c 725c 1a3e a7a9 903d fce4 0b3e
000000c0: 5f2b 8ebd d4e5 36bd cd13 023d 1e4d 88bd
000000d0: d9d8 f83d 9d11 84bd a843 3a3e bf48 813e
000000e0: ddab fdbb 9d87 a53d 3e33 b43d 505f 3c3d
000000f0: e42d 11bd e33f b03b 93d9 c53d 595e 863e
00000100: 770e b2bc dd9f 19bd c8b2 123e effb 003d
00000110: df5f 51bd 4566 8e3d d00b ec3d 3e0f 783a
00000120: 19dc cd3d 3f3f 4cbe 9d5f 433d f482 09be
00000130: 617b 21be 831e febc cb34 dbbd f644 83bd
00000140: 2fca 323e b369 543a 6741 02be 4588 15bd
00000150: 03fd e33d 3406 7a3d 4ce3 0bbe 6959 3cbd
00000160: 30bb 923b b2be 51bd 1867 af3a ec29 8b3e
00000170: aa3e 853c 3972 fdbd e574 813d 45fb 273e
00000180: bc2d c3bc 4b9b 04bc b4d7 0f3e e0f1 6d3e
00000190: 4e1a 5d3d 3f31 c93d 8390 3dbe 06b0 38bd
000001a0: 4586 2fbe 2b71 2b3e e1c3 f9bc 28b9 8dbc
000001b0: 52d6 853c 4089 b33c 817e adbd e9ea 943d
000001c0: b576 25bd aca9 8b3c 6394 63ba 2c7e d43c
000001d0: 02fd 233d be51 9f3d c07c 5d3e aa9e 06be
000001e0: 4559 c63e 76b1 5abd 0b59 19be e05b 4c3e
000001f0: ef5d 85bd f00a b33d 3a84 68bc 8ec2 473d
00000200: 1bbd 983d b547 99bd 3381 dabd 0498 013e
00000210: 8e82 8f3d 6ada 263d 252b 083d e041 bebd
00000220: d4ca c8bd 2723 773c 3e4b cabd 0ec1 d83d
00000230: 1f9a 4dbd fa48 b93d 08e9 9a3d 7ae8 f9bd
00000240: 4d14 313d 133f d93d b51f 7c3d 6025 f6bc
00000250: aaa0 4e3d 86ef 67be c143 15bd 0a48 9dbd
00000260: 85af 8a39 dd29 043d 1bf5 cb3d 8773 c9bc
00000270: fc54 df3b 9768 1cbd 2855 06be 75f4 0cbe
00000280: d67b 1ebe 6ba0 98bd d2fa 55bd 7081 8abc
00000290: db8e 63bc 2944 823d cb3f c83d 5597 a63c
000002a0: b388 e43d b9a0 2a3e f323 353d a036 08be
000002b0: f68a 6e3e 54d7 b0bc e608 393e 508e 3e3d
000002c0: caaf 653c 9202 41be df34 45bc 0902 02be
000002d0: 505c 40be 35d1 103e 3f40 44bd b008 b93d
000002e0: 6103 16be 4f32 18bb 8644 3e3e e04c 57bd
000002f0: 56aa bcbd f320 80bd a7b3 5cbc 2744 013e
00000300: 239d 97be f3b0 a9bd 3106 8a3e b7cb a93c
00000310: 8b93 f63c 8f55 5fbd 1108 003d c9cd 043d
00000320: a627 873d 8040 0bbd 2913 223d 90a6 bf3d
00000330: c778 84be f9f9 ecbd 964a d7bd 97d1 0b3e
00000340: 159a cf3e c159 f9bd 1835 7d3e 4ef7 253d
00000350: 4b85 84bd 7d82 33bd 4951 45be 7d6c 9e3d
00000360: 70b5 103c 2d4e 2a3d e82b 763d 0691 68bd
00000370: 40a4 c43c a548 1ebd a559 aebd 12e1 5f3d
00000380: f6a6 013d 1d0c 0dbe 0faa 3cbe 79d4 a33d
00000390: aa94 613e 5ec1 f8bd 3b81 b43d 634e c2bb
000003a0: d89d 253d eb24 f33b 0226 6dbd 43a1 74bb
000003b0: 2f03 1ebd fc67 043e 3af9 153d 3424 483d
000003c0: b8f7 db3b cd80 d63d 6b00 553d 27b5 2dbd
000003d0: ef63 763d eec1 14be efc1 2b3e 8f27 c53d
000003e0: 96d9 8b3e 2807 b93d 8eee 06bd f550 cdbd
000003f0: 5b99 093d 440b acbc b260 37be a7bc 093d
-0.053879064 -0.23858277 0.06760394 0.17915742 0.16087355 -0.05291841 0.023316944 0.14620844
0.101480216 -0.468605 -0.047439206 0.026813377 -0.033027 0.24199986 0.069913186 -0.10916176
0.11103905 0.23979305 -0.06899146 -0.012085686 0.009280454 0.23568426 -0.044643577 -0.06149838
0.25367138 0.03667139 0.19123626 -0.13948515 0.010116008 -0.071687244 0.30242583 -0.23130079
0.063371696 -0.05138452 -0.04145848 0.022466736 -0.1435763 -0.12856002 0.06731746 -0.037957147
-0.034092907 0.012332787 -0.17008692 0.059669256 0.017674584 0.15074328 0.070636086 0.1366157
-0.06941866 -0.044652775 0.031757165 -0.06655334 0.121507354 -0.06448672 0.18189871 0.25250813
-0.007741435 0.08082507 0.08798836 0.045989335 -0.035444155 0.0053787096 0.096606396 0.26243857
-0.021735413 -0.037505973 0.14326012 0.031490263 -0.05111682 0.069531 0.115256906 0.00094627205
0.10051746 -0.19946001 0.047698606 -0.13428861 -0.15769722 -0.031020408 -0.10703429 -0.06409638
0.1745994 0.00081029086 -0.12720262 -0.03650691 0.111322425 0.061041072 -0.13660926 -0.045983706
0.004477881 -0.05120725 0.0013382165 0.2718042 0.016265232 -0.12375302 0.06321124 0.16404445
-0.023825519 -0.008093665 0.14047128 0.23236799 0.053980164 0.09823846 -0.18512158 -0.045089744
-0.17141064 0.16742389 -0.03048891 -0.017300203 0.016337547 0.021916032 -0.08471394 0.07271368
-0.04039641 0.01704868 -0.0008681474 0.02593907 0.04003621 0.07779263 0.2162962 -0.13146463
0.38739982 -0.053391896 -0.14975373 0.19956923 -0.06512057 0.087423205 -0.0141916815 0.048769526
0.07457944 -0.0748438 -0.10669174 0.12655646 0.07007323 0.04073564 0.03324427 -0.092899084
-0.098043114 0.015084065 -0.098776326 0.10583697 -0.05019581 0.09047122 0.075639784 -0.122025445
0.04323225 0.106077336 0.061553676 -0.030047119 0.05044619 -0.22649965 -0.03644157 -0.07679756
0.00026452183 0.032266486 0.099588595 -0.02459122 0.006815551 -0.038185682 -0.13118422 -0.13765128
-0.15476927 -0.07452472 -0.052241154 -0.016907424 -0.01388904 0.06360657 0.097777925 0.020335833
0.11158886 0.16662873 0.044223737 -0.13302088 0.23295197 -0.021587051 0.180698 0.04652244
0.014018962 -0.18848637 -0.012036531 -0.12696089 -0.18785214 0.14142306 -0.047912832 0.0903486
-0.14649726 -0.0023223346 0.18580827 -0.052563548 -0.092121765 -0.062562846 -0.013470567 0.12623654
-0.29612073 -0.082857035 0.2695785 0.020727022 0.03009965 -0.054524954 0.031257693 0.032422815
0.06599359 -0.03399706 0.039569054 0.09357941 -0.25873396 -0.11571116 -0.10512273 0.13654171
0.40547243 -0.12175322 0.24727285 0.04051905 -0.06470736 -0.043825615 -0.19269289 0.07735536
0.008832321 0.04157846 0.060100466 -0.05677893 0.024004102 -0.038643498 -0.08513192 0.054658003
0.031653367 -0.13774152 -0.18424247 0.0799951 0.22029367 -0.12146257 0.08813711 -0.0059297546
0.040433735 0.0074201724 -0.057897575 -0.0037327565 -0.038577255 0.12930292 0.036614634 0.04886265
0.00671288 0.104737855 0.05200235 -0.04240909 0.060153898 -0.14527103 0.16773199 0.09626686
0.27314442 0.09034568 -0.032942347 -0.10025207 0.033593517 -0.021001466 -0.1790798 0.03362718

cls3.0.bias f4 [2]
00000000: c751 95ba 00fa 763c
-0.0011392169 0.015074253
