CLIP/saved_models/model_CLIP-14_CLIP_weights.pth (torch, 58310 bytes, 6 tensors)

cls1.0.weight f4 [10, 768]
000000 57 81 59 3c ce 9a 9a bd 43 fd cf 3d 13 72 52 3d
       0.013275466 -0.07549058 0.10155728 0.05137832
000010 be 03 5b bb f2 a6 dc bd a0 7b c1 bb 51 b3 de 3d
       -0.0033418979 -0.1077403 -0.00590463 0.10874046
000020 ab b1 5d bd 16 de aa 3c 62 e1 39 bd ae 22 19 3d
       -0.054124516 0.020857852 -0.045380957 0.03738659
000030 81 d5 dd bd 4b 7d 89 bd 67 fb 73 3d 0b 5f 3d 3d
       -0.10831738 -0.06713351 0.059565928 0.04623322
000040 e6 ca ae 3c e5 01 34 3d 38 31 10 be 9e 35 6f bd
       0.021336984 0.04394712 -0.14081275 -0.058400743
000050 ea 9c 1f be 5f ac d8 3b dd 88 96 3d 5a a5 83 be
       -0.15587202 0.006612345 0.07350323 -0.2571209
000060 8e d5 76 3c 5c b0 47 bd 79 15 88 bd 4c f6 ed bd
       0.015065564 -0.048752174 -0.066447206 -0.11619243
000070 6d 1a 1f bc 0a a8 8b bc 58 26 0c 3e b9 db fb bc
       -0.00971089 -0.0170479 0.13686502 -0.03074442
000080 9e da 62 3d e8 9c de 3d b8 68 17 be e7 3f 36 bc
       0.05538427 0.10869771 -0.14786041 -0.011123634
000090 c4 2f db 3d 0f 85 13 bc 6f a1 6a 3d e0 85 5b 3c
       0.1070247 -0.009003892 0.05728286 0.0133986175
0000a0 a2 a3 9a bd 52 a7 4a be 6b 60 80 3e eb da 79 3d
       -0.07550742 -0.1979039 0.2507356 0.060999792
0000b0 3f e3 53 3d 25 67 84 bd c8 60 e0 3d 57 7e 12 3c
       0.05173039 -0.06464986 0.109559596 0.008941255
0000c0 ed 60 bb 3d 71 4f c8 3d eb d8 55 bd 60 51 6f bd
       0.091493465 0.09780777 -0.052208822 -0.058427215
0000d0 c1 b9 ef 3d a2 75 a4 ba 69 16 71 3d b3 c7 ed bc
       0.117053516 -0.0012547264 0.058859263 -0.029025888
0000e0 5b b8 80 3b 0b c2 9a 3d 1b c3 d3 3b a6 61 ba 3d
       0.003928227 0.07556542 0.0064624674 0.09100656
0000f0 c2 c3 82 be 37 77 3c 3e 37 4e 3e bd b4 f1 14 3e
       -0.25539976 0.18404852 -0.04646131 0.14545327
000100 74 f9 77 bd b6 e7 83 bd bc e2 e4 bd ea 02 04 3d
       -0.06054063 -0.0644068 -0.11176059 0.03222934
000110 6a c6 79 bd cb ad d1 3c 17 ca 55 bd 64 d1 9d 3c
       -0.060980238 0.025595566 -0.05219468 0.019264884
000120 57 e1 07 3d 5d eb 92 3d 51 af fa 3c d1 9b fd 3d
       0.033173885 0.07173798 0.030601176 0.12383235
000130 fd 27 be 3c 41 22 b2 bd 80 d5 2c 3d 15 89 80 3c
       0.023212427 -0.0869794 0.042195797 0.015690366
000140 de 8b d6 bd 88 84 a4 3d f3 1c 32 3c 6f 83 28 3d
       -0.10475896 0.08033091 0.01087116 0.04114097
000150 22 da cc 3d 70 04 3b be ec 2f af bd 11 e2 09 bd
       0.10002543 -0.18263412 -0.08554062 -0.03366286
000160 7f 99 03 bd 22 3c 9c 3d 1c ca 30 be fd 58 0e bc
       -0.032128807 0.07628657 -0.17264599 -0.008688209
000170 79 53 52 3e 10 20 9b 3b d4 13 24 3e 12 fd fe 3c
       0.20539655 0.0047340468 0.16023189 0.031126533
000180 b1 e1 77 3d 90 12 a6 3d c3 0a 99 bd 8b 94 a9 bd
       0.06051797 0.08109009 -0.07472756 -0.082802854
000190 3d b8 d0 bd 6e 9b cf bb 3f 62 2b be a3 4a 09 3e
       -0.10191391 -0.0063356673 -0.16736697 0.13407378
0001a0 a4 8b a8 3c 28 78 52 3c 04 eb 04 3d 33 a3 42 3c
       0.020574398 0.01284603 0.03245069 0.01187973
0001b0 f2 c0 71 3d 4a f6 07 bd ad eb 46 3d 3e b7 4b 3d
       0.059021898 -0.033193864 0.0485646 0.0497353
0001c0 1d 46 17 bd 0d 8e df 3d 99 16 fc 3d 40 76 10 3e
       -0.0369321 0.10915766 0.12308998 0.14107609
0001d0 f9 a1 21 bd 19 5a 8c 3d a9 e7 ac 3d c8 c1 9f bc
       -0.03946111 0.06853122 0.08442623 -0.019501582
0001e0 31 51 19 39 fb d4 b4 bd 46 ae e0 3a e5 51 e7 3c
       0.00014621463 -0.08829685 0.0017141781 0.028237293
0001f0 36 bd 02 bb ad 89 d4 bb ab 9a 69 bc 29 a6 01 be
       -0.0019949204 -0.006486139 -0.014258067 -0.12661041
000200 64 5f 8b 3b cb cc e0 bb 68 51 7c 3d 8e 75 1e bc
       0.004253315 -0.0068603507 0.061601073 -0.009671582
000210 02 3c 61 3c 9e 3f 56 bc 60 78 20 3e c2 d4 a1 b9
       0.013747217 -0.013076691 0.1567092 -0.0003086683
000220 26 8a fb ba c1 04 39 bd e0 6a af 3c f5 32 2f 3d
       -0.0019190952 -0.04517055 0.021413267 0.042773206
000230 06 c9 8b bd e5 e3 a4 bd 4b 68 8e 3d 10 45 d3 bc
       -0.068254516 -0.0805128 0.06953486 -0.025789768
000240 6b bb 7a be 7a 86 b9 3c 22 98 d2 bc 17 c1 b8 bb
       -0.24485557 0.022647131 -0.025707308 -0.0056382525
000250 98 12 7f 3d 25 f9 a5 bd 3a 67 72 3e d5 e2 f2 bd
       0.06227359 -0.08104161 0.2367219 -0.11859671
000260 72 a5 d0 bd 87 50 00 3d 76 dc 22 bc 12 b9 ee bc
       -0.10187806 0.031326797 -0.009940257 -0.029140983
000270 2d ac 0f 3e 22 78 78 bd 30 9c 3e bc 94 b5 16 3e
       0.14030524 -0.060661443 -0.011633918 0.14717704
000280 ab 44 0c 3e b2 39 3a 3e b6 ff 27 3e 6e dd be 3c
       0.1369807 0.18186072 0.1640614 0.023298945
000290 6e ad e2 bb ea 4b b2 bd af 35 c8 bd d8 ea 06 be
       -0.006917647 -0.08705886 -0.09775864 -0.13175523
0002a0 64 11 70 3c ec 16 0e 3e f0 5e 2d bd 4d cb 6c 3d
       0.014652584 0.13875932 -0.042326868 0.05781107
0002b0 dd d7 03 3d cd 78 02 bd aa 48 a5 3d a3 cb 30 bd
       0.032188285 -0.031853486 0.080705 -0.043162953
0002c0 51 fd 7d bd 09 60 5d bd f2 db 5f 3e af 89 13 3d
       -0.06200916 -0.054046664 0.21861246 0.036019977
0002d0 23 25 00 3c 2f d8 8f 3d 7a 30 6c bc 57 fa 87 3b
       0.007821354 0.070236556 -0.014415855 0.004149716
0002e0 83 18 c5 3c 2a 9c e3 bc ef 16 18 3e d8 dc 61 bd
       0.02405954 -0.027784426 0.14852498 -0.055142254
0002f0 72 1a 55 bd da 24 60 bd c9 de 4a bd d0 54 89 bd
       -0.052027173 -0.054722644 -0.04952887 -0.0670563
000300 06 30 3b 3d 9d 01 44 3d 37 58 bc 3b 5a 45 6a 3d
       0.045700096 0.0478531 0.0057478207 0.057195045
000310 94 f9 a5 bc ac 55 bf 3c 2c 79 c9 3d 49 43 b5 3c
       -0.02026061 0.023356281 0.09837565 0.02212681
000320 34 c2 62 3b 56 13 0a bc 20 1b 8a 3c 40 bf ee 3d
       0.0034600617 -0.008427462 0.016858637 0.11657572
000330 59 88 19 bd b2 42 c1 bd b2 0d fa 3d 00 bf 51 3e
       -0.037483547 -0.09436549 0.122096434 0.20483017
000340 9b 7e c9 3c e2 1d 85 bd 48 90 0b be b2 ec d6 bd
       0.024596503 -0.0649984 -0.13629258 -0.10494365
000350 c4 7e 01 bc dd 18 6c bd d0 83 bc 3d de 57 44 bd
       -0.007903758 -0.0576409 0.09204829 -0.04793536
000360 7f ce a0 3c be e7 89 3d d7 bc 13 be c8 e5 a6 bb
       0.019629715 0.067336544 -0.14427505 -0.00509331
000370 a4 80 d8 3d cb 28 9a bc a9 80 58 3c 0c 9f 77 3b
       0.10571411 -0.01881828 0.013214269 0.0037784008
000380 dc a1 3a be 27 b9 ef 3c cb cd 5e 3d 93 a8 0b 3e
       -0.18225807 0.029263092 0.05439548 0.13638525
000390 27 b5 9b bc d3 d4 0d be 55 7d 10 be 8f 5f 87 3b
       -0.019007279 -0.13850717 -0.1411031 0.0041312645
0003a0 2a b1 64 3b 07 14 a1 be c5 8e 45 3e d2 18 a2 3d
       0.0034895637 -0.31460592 0.19292744 0.0791489
0003b0 f9 c3 b2 bd 37 b8 53 bd 50 b5 f3 3d 13 4b 2a 3d
       -0.08728785 -0.051689353 0.11899817 0.041575503
0003c0 b3 eb 03 be e6 f4 74 bc 29 49 4d 3e 78 1c 49 bc
       -0.12882881 -0.014950966 0.2004744 -0.012274854
0003d0 06 e7 66 3d 93 84 2f 3d 4b f6 12 bc 40 0b 7e bd
       0.056372665 0.042851042 -0.008969854 -0.062022448
0003e0 21 c2 ca 3c 1d ef 32 bc f5 80 c4 3d a1 2a 1a bd
       0.024750771 -0.010921267 0.09594909 -0.03763831
0003f0 83 29 20 bc 9f cc d0 3d bd b8 45 3c 9f 45 0f 3d
       -0.009775522 0.101952784 0.012067971 0.034978505

cls1.0.bias f4 [10]
000000 06 7e 39 3c b5 ed 16 3c 6f 06 bf bc 25 64 12 bc
       0.01132155 0.009211947 -0.023318497 -0.008935009
000010 35 a8 de bc 63 7b be bc 2f a3 a7 bc 46 39 29 bd
       -0.027179817 -0.023252195 -0.020463554 -0.041314386
000020 f1 5f f1 bc b3 59 4b 3c
       -0.029464694 0.012411523

cls2.0.weight f4 [6, 768]
000000 df 72 b4 3c 64 6a 09 3d db 93 5b bc 1e f9 6d bc
       0.022027431 0.033548728 -0.013401951 -0.014524726
000010 b5 81 b9 bc 13 82 57 bc 00 83 9e 3a a5 01 aa bc
       -0.022644857 -0.013153571 0.0012093484 -0.020752737
000020 dc 6b 86 bc 3e 05 71 bc 3e f9 f3 3c 99 1d af 3b
       -0.016408853 -0.0147107225 0.029781934 0.0053441045
000030 35 89 55 3b 99 ed 29 bc d0 d3 6b 3c c6 97 cd 3c
       0.0032583002 -0.010371589 0.014393762 0.025096785
000040 89 06 ac 3b f9 ba 14 3d 80 49 e5 3c 55 e1 71 3c
       0.0052498025 0.036311124 0.02798915 0.014763196
000050 66 14 a8 3b 8c 6a d4 bc c2 e0 31 3c 37 11 95 3c
       0.005129385 -0.025929712 0.010856809 0.018196685
000060 dc 84 10 bd e7 19 18 3d 6a 3e af 3c 84 dd d8 ba
       -0.035282955 0.037134077 0.021392066 -0.0016545509
000070 ef 4e 0f 3d d8 26 77 ba bc 4b 89 bc 9b 89 9a 3c
       0.034987386 -0.00094280904 -0.016759746 0.018864444
000080 a0 dc b8 bb ef 68 0c 3d 69 13 02 3b 77 c8 e0 bb
       -0.005641535 0.03427976 0.0019847995 -0.006859835
000090 c0 e9 97 3d fa 2e 81 bc da 60 14 bd 58 2a 34 bc
       0.07417631 -0.01576947 -0.036225177 -0.010996424
0000a0 0c b3 ae 3c 01 ad fe 3c 9a bb 91 3c 10 cf df 3b
       0.02132561 0.031088354 0.01778965 0.0068301037
0000b0 84 f6 f5 3c a1 09 0f bd 39 da 16 bb aa 67 27 3d
       0.030024774 -0.034921292 -0.0023018254 0.040870346
0000c0 66 e8 82 bb 65 03 02 3c 14 49 07 3c 20 31 f2 3c
       -0.003994989 0.00793538 0.008257169 0.02956444
0000d0 31 e2 03 3d 74 b3 d4 3c e6 d2 92 bc 88 d5 ba bc
       0.032198135 0.025964476 -0.01792283 -0.022806898
0000e0 26 0b 1f 3c 70 21 15 3d 7f 79 2c bd 40 37 f0 3c
       0.009707248 0.03640884 -0.042108055 0.02932322
0000f0 da 70 31 bd f5 3b 88 3c 79 81 d9 3c 04 95 25 bc
       -0.043320514 0.016630152 0.026550995 -0.010106329
000100 d8 c6 fe bc 63 dd f3 3c 77 48 0d bb 5e 06 0f 3d
       -0.031100675 0.029768651 -0.0021558085 0.03491818
000110 a2 13 f7 bc db 1b 36 bc bf bf 07 3d cf fe 4b 3b
       -0.030160729 -0.01111504 0.033141848 0.003112722
000120 c5 88 34 bc f2 26 03 3c f1 33 8a 3d e3 fa 68 bc
       -0.0110189365 0.008004891 0.06748188 -0.014219972
000130 f4 ac 0f bc 92 94 ef bb 92 3f ad bc 6e 81 54 3b
       -0.008769263 -0.007311412 -0.021148477 0.003242578
000140 f1 fc f8 3c 5d 58 b5 3c 3d 7e 2f bd ef 2a b9 bc
       0.03039405 0.022136861 -0.042845 -0.02260348
000150 25 28 8c ba ef 0f a9 3c 11 d0 2d bd e8 d6 f6 bc
       -0.0010693116 0.02063748 -0.042434756 -0.030131772
000160 51 9b 97 3c 86 49 81 bc 5b a9 f3 3c d9 6b c5 3c
       0.018506678 -0.015782129 0.02974384 0.024099277
000170 91 1d 18 bc b5 46 54 bc 43 d6 a8 3c 38 a7 4f 3d
       -0.009284393 -0.012956311 0.02060998 0.05069658
000180 e2 3c be bc 05 08 df bc 40 6d 51 3b 10 b3 12 3d
       -0.02322239 -0.027225504 0.0031955987 0.0358153
000190 3f f0 62 bc 55 e0 c6 3c 91 53 08 bd eb 64 39 3d
       -0.013851224 0.024276892 -0.03328282 0.04526226
0001a0 b9 e5 e1 3c 65 3a 93 3c 5e c3 b6 3c 0f 53 10 bc
       0.02757536 0.01797218 0.022309955 -0.008808865
0001b0 22 c2 c6 bc 29 0e 8d 3c 09 c6 0a bc 28 fc 97 bc
       -0.024262492 0.017218666 -0.008470067 -0.018552855
0001c0 e8 fa 18 3d 80 9f 07 bd 1a d1 9b bc 39 31 b3 3c
       0.037348658 -0.033111095 -0.019020606 0.021874057
0001d0 1c cd 8c 3c db 38 5e bc a2 37 6e 3b e7 2c 12 bd
       0.017187648 -0.01356336 0.0036349078 -0.035687353
0001e0 f5 4e 8e 3c db 9b 93 3c 14 0f b4 3c 3d b1 fc 3c
       0.017371634 0.018018654 0.021979846 0.030846233
0001f0 65 ac 57 3b d4 cd f0 bc 56 a3 86 3b d4 69 e8 bc
       0.0032909152 -0.029395021 0.0041088266 -0.028370775
000200 23 7d ad bc fa de 34 bd 42 b2 49 bc 2b c0 f2 3c
       -0.021177834 -0.04415796 -0.012310566 0.029632648
000210 a0 ae a6 3c cc 9f 38 3a c3 b6 16 3c 5a 06 97 bc
       0.02034694 0.00070428546 0.009198847 -0.018435646
000220 85 3c 8b 39 9a 21 3b 3d fb 9c fd 3b 7f 73 0f bc
       0.00026557237 0.04568634 0.007739661 -0.008755564
000230 55 50 8b 3c a6 14 96 3c e7 f3 07 bd bb f9 8d bc
       0.017006079 0.018320393 -0.033191588 -0.017330995
000240 01 fc 5f 3c 15 cd a7 bb c9 89 58 bd b1 14 ae bc
       0.013670922 -0.005120883 -0.052865777 -0.0212501
000250 17 33 de bb a8 86 6c 3b fe db 48 bd 28 d8 12 3c
       -0.0067809927 0.0036091004 -0.049037926 0.0089626685
000260 d4 c4 02 bd c8 24 94 3c c3 68 20 bc a3 eb 17 3d
       -0.03192599 0.018083945 -0.009790602 0.037089955
000270 0e 82 28 3d 50 88 af bc 89 70 e0 3c 09 2e 2f 3c
       0.041139655 -0.021427304 0.027397411 0.010692128
000280 5a ad 3a bd 8c 3d 06 3d 21 13 da 3b df 4e 3e bd
       -0.045575477 0.03277354 0.0066551124 -0.046461936
000290 45 76 c0 3b ba a4 04 3d 43 85 2e 3c 59 50 ce bc
       0.005873474 0.032383658 0.010651889 -0.025184797
0002a0 93 a8 eb bb 22 3a 97 bc 6b 2c cf 3c 1b 81 c6 bc
       -0.0071917265 -0.018460337 0.025289735 -0.024231484
0002b0 87 87 e7 3c de cf 3a 3d 67 b0 28 3c 0d ad f8 bc
       0.028262867 0.045608394 0.010295964 -0.030355955
0002c0 c4 96 04 3b ba c5 84 bb fc 34 00 3d 67 c6 e8 3c
       0.0020231465 -0.004051891 0.03130053 0.028414918
0002d0 3f ac d2 ba 6d 27 64 bc 40 b9 2b 3b 74 cc 9b 3b
       -0.0016073062 -0.013925415 0.0026202947 0.0047545973
0002e0 b1 1e 41 bc c3 59 9e 3c 08 51 2d bd 5e 7e 1a bb
       -0.011787103 0.019329911 -0.042313606 -0.0023573856
0002f0 b0 0a 5d bb 2a 89 a1 3c c5 23 bd bc 7f 00 13 bd
       -0.0033728294 0.019718725 -0.023088345 -0.035889145
000300 d6 e8 37 3d 60 ab e8 3c d9 7a 16 39 bf ab 06 3d
       0.044899784 0.02840203 0.00014350879 0.032878634
000310 70 8d 24 3d 62 61 a8 bc 1d fe cf 3c 90 db 40 3c
       0.040173948 -0.020554248 0.025389725 0.011771098
000320 69 b9 f2 bc 25 12 30 bc a7 34 c5 3c c8 d4 94 3c
       -0.029629426 -0.0107465135 0.024072958 0.018167868
000330 0c e3 be 3c 93 22 42 3c f7 0b 43 bc 5f 0d 64 bb
       0.023301624 0.011849063 -0.011904708 -0.003479801
000340 82 05 2b 3d 0f 70 89 bb 47 a8 8a bc f2 f8 cc bc
       0.0417533 -0.0041942666 -0.016925944 -0.02502105
000350 d6 ac 81 bc 20 bd 59 bc 30 8b c1 bc 79 a0 9c ba
       -0.015829485 -0.01328972 -0.02362594 -0.001194968
000360 be 25 92 bc 65 04 8d bc 97 1f cd bc ff 0c e6 3c
       -0.017840263 -0.01721401 -0.025039477 0.028082369
000370 ea 78 2a bd b6 7a 0a bd 39 7a 02 3b 37 e6 9d ba
       -0.04161922 -0.033808433 0.0019909276 -0.0012046759
000380 c9 97 36 bc f3 c1 0c 3c bc 41 da 3c 32 8d 1c 3c
       -0.011144587 0.008591163 0.026642673 0.009555148
000390 67 35 d8 3c 66 9d 94 bb c7 2e 32 3d c9 37 45 3d
       0.026392652 -0.004535365 0.04350164 0.048148904
0003a0 e7 59 58 bc 60 2a 67 bc fa 85 57 bd b1 73 89 3d
       -0.013205028 -0.014109224 -0.052618004 0.067115195
0003b0 61 72 0c bd 52 cf 21 3b dd 8d 01 bc 07 da a2 bc
       -0.034288768 0.0024690223 -0.007907358 -0.019879354
0003c0 5b 78 50 3c 22 49 58 3c 81 92 99 3c 7b eb 87 3b
       0.0127240075 0.01320103 0.018746616 0.0041479445
0003d0 6a bd 5d bd 18 ce 0c 3c 58 f0 08 3c 65 e4 f2 ba
       -0.054135717 0.008594058 0.008358084 -0.0018531202
0003e0 2d 50 ab bc 65 05 a1 3c 2c 6d 0b 3d 1c 0c d8 bc
       -0.020912254 0.019655893 0.03403966 -0.026372962
0003f0 d8 c7 a1 3c 7f 33 28 bb b1 2f 68 bc a1 c2 5a bc
       0.019748613 -0.002566546 -0.014171527 -0.013352067

cls2.0.bias f4 [6]
000000 e2 20 8b 3c c9 35 d8 3c cb 61 b1 bc 9c 94 8f bc
       0.016983453 0.026392834 -0.021653077 -0.017526917
000010 e3 fa 94 bc a8 eb 75 bc
       -0.018186038 -0.015009798

cls3.0.weight f4 [2, 768]
000000 1c 17 17 3d 43 38 28 3d 2f 3a d1 bb 2e bd f3 bc
       0.036887273 0.04106928 -0.00638511 -0.029753294
000010 ec 02 b6 bd d9 8f 01 3d 37 a3 f2 bc e3 49 75 ba
       -0.08887276 0.031631324 -0.029618843 -0.0009357018
000020 4d 15 64 3c 31 56 ea 3d 6a c1 b8 3c 78 b0 ca 3c
       0.013921094 0.11442221 0.022553165 0.02474235
000030 23 68 6b bc 2e 47 0e bd 2c c3 a7 bc a7 67 62 3c
       -0.01436809 -0.03473585 -0.020478807 0.013818658
000040 f3 b4 3a 3d 72 59 2b 3d 14 a8 4b 3d 17 7b 16 bd
       0.045582723 0.04183335 0.04972084 -0.03673848
000050 a0 33 2f bd 30 b9 a6 3d 6f 74 08 3c 07 6d 85 3d
       -0.042773843 0.081407905 0.008328541 0.06514936
000060 13 dd 3a bc 83 fc 90 3c c6 fa 9a bd ab f2 d0 3c
       -0.011405247 0.017698532 -0.075673625 0.025506338
000070 0f 33 ef bb 46 f0 89 bd b0 c2 17 bd 3c 3e db 3c
       -0.007299788 -0.06735282 -0.037050903 0.026763074
000080 39 dd 41 bd 0c 4f 94 3d 2f 38 b4 bb f1 6a f0 bd
       -0.047330115 0.072416395 -0.0054998617 -0.117391475
000090 32 67 36 3c 10 96 86 3d e5 4a 75 3d a8 f1 99 bc
       0.011133002 0.06571591 0.059885878 -0.018791988
0000a0 ca f6 b5 ba 9e cb 13 bd e6 cc 76 be 91 2c b4 3b
       -0.0013882753 -0.036082856 -0.241016 0.005498477
0000b0 82 b0 1b 3e e5 c2 41 bc f7 c6 b3 bc e8 de 14 bd
       0.15204051 -0.011826252 -0.02194546 -0.036345392
0000c0 2c 5a 35 bd bd c5 c0 bd dc c8 3a bc 5c 5d 8d bc
       -0.044275448 -0.094127156 -0.011400428 -0.017256431
0000d0 0c f5 a2 3d 68 06 d9 3c b4 37 9c 3c e0 ad ea 3d
       0.07956895 0.026492313 0.01906953 0.11458945
0000e0 f0 c4 2e bd d7 6d 2f bd 19 94 03 be a3 ee 07 3d
       -0.042668283 -0.04282936 -0.12849464 0.033186566
0000f0 8c c2 b1 bc 36 ca 12 3d 45 c3 09 bd 52 e4 c3 3c
       -0.021699212 0.035837375 -0.03363349 0.023912583
000100 08 88 c7 3d 82 da a6 3d 80 4f af bc 0b 47 a5 3c
       0.09742743 0.08147146 -0.021400213 0.020175477
000110 d8 24 39 3e f6 a3 8d bd 79 cb cd bd fd b7 05 3d
       0.18080461 -0.06916039 -0.10048575 0.032646168
000120 e2 49 7f 3d 36 a4 ce 3d 01 5d fe 3c ff 6d ab 3c
       0.06232632 0.100899145 0.031050207 0.020926474
000130 8d 3f 37 bc ad 3a 3b bd 63 47 1f bd 62 0a b6 3c
       -0.011184585 -0.045710254 -0.03888644 0.022221748
000140 d4 48 c9 3c f9 a8 23 3d 05 c5 35 3e 6c 13 0f bc
       0.02457086 0.039956067 0.17750938 -0.008732658
000150 29 b7 7a 3b 1d ee 30 bc 15 92 5b bd ab 29 1b 3c
       0.0038256145 -0.010798958 -0.05360611 0.009470384
000160 e5 71 07 3d d5 b4 52 3d 7f ac b2 3c 8d b4 1c 3d
       0.033067603 0.051441986 0.021810768 0.038258124
000170 d6 b1 0f 3d 52 2e 13 3e 01 13 62 bd bc c2 80 bc
       0.035081707 0.14373139 -0.055193905 -0.015717857
000180 3e 80 9e bc 63 6e bb 3c 32 03 6c bc 9c 9e f2 3c
       -0.01934826 0.022879785 -0.014405059 0.029616646
000190 32 d0 96 bd 8b 94 87 bd c0 ac a1 bd 36 a9 a2 bd
       -0.07363929 -0.06620129 -0.078942776 -0.07942431
0001a0 86 39 a8 bd bb 4f 13 3a ce 62 3c 3d af c7 2e 3e
       -0.08214097 0.0005619486 0.045992665 0.17068361
0001b0 65 46 ab 3b 15 be 56 3d f7 0c 6f 3c 60 58 dd bc
       0.0052268975 0.05242737 0.014590493 -0.02701968
0001c0 f9 8d d5 bd cf 40 20 3d 98 fe ab bc 73 88 c8 3c
       -0.1042747 0.039124306 -0.020995423 0.024479127
0001d0 d2 79 46 3d 6d 7b 57 3e e6 08 ac 3c b0 d5 66 bb
       0.04845602 0.21043177 0.021000337 -0.0035222583
0001e0 72 7f 36 be 20 0a 1d 3d 9c 51 a2 bb b6 1b 3d bb
       -0.17822054 0.038339734 -0.0049535763 -0.0028855628
0001f0 3b e0 d6 bd 1b 90 c3 bc 90 cd f5 3b b4 b4 40 3e
       -0.10491987 -0.023872426 0.0075013116 0.18818933
000200 18 d6 a9 3b 06 27 08 3e 59 b4 6f bd 69 af e0 bc
       0.0051829927 0.13296136 -0.058521602 -0.027427392
000210 69 1e 90 bd 97 66 7c 3c b8 9c d1 bd 74 44 93 3c
       -0.0703705 0.015405319 -0.1023497 0.017976977
000220 03 ed 96 3b da 8a 59 3d 61 20 d7 bc 77 38 7c 3d
       0.0046058907 0.053110935 -0.026260557 0.061577287
000230 73 4a 55 3d fe 2b 40 bd 30 34 a9 3a 0c d3 56 3d
       0.052072953 -0.046916954 0.001290923 0.052447364
000240 b4 89 c4 bc 61 71 6d bd 43 eb 95 3c 1d 80 fe b9
       -0.023991443 -0.057969455 0.018300658 -0.00048542107
000250 3b 57 2c 39 9c 00 e2 bc 53 b6 6f bc 77 76 2a be
       0.00016435694 -0.027588181 -0.014630872 -0.16646753
000260 79 c2 85 3d 9a c4 7b bc da 62 de 3d bb 2f f4 bb
       0.06531233 -0.015366698 0.10858698 -0.007451979
000270 77 94 d9 3d d7 a3 74 bd 80 ae 6b 3c 5c 2b 95 3d
       0.106240205 -0.059726562 0.014384866 0.07283661
000280 37 e4 8f bc ab 20 25 3d 4c 85 6b 3d 81 77 80 3d
       -0.017564876 0.040314358 0.05750017 0.062727936
000290 06 6f 59 bb 61 b1 a1 bc 97 9b 25 bd 79 cc 06 bd
       -0.0033177747 -0.019737901 -0.040431585 -0.032909844
0002a0 f1 42 47 bd 34 2e 0d 3d d6 44 42 3e 4a ef ab bd
       -0.048647825 0.03446789 0.18971571 -0.0839525
0002b0 95 33 c0 bc 66 a3 f8 3c b1 06 92 bd c6 d4 cb 3d
       -0.023462096 0.030351352 -0.071301825 0.09952693
0002c0 b7 24 90 bc a3 72 10 bc b9 68 00 bd c9 d2 de 3c
       -0.017595632 -0.008816394 -0.03134987 0.02720012
0002d0 cc 0d e7 bc 42 92 6b 3d 7b 9b 39 3d 44 b1 5d 3d
       -0.028204821 0.05751253 0.045314293 0.05412413
0002e0 3e 97 4c 3a 23 d3 33 3d cf fc 8b bc 43 b0 74 bb
       0.0007804519 0.043902528 -0.017088322 -0.0037336505
0002f0 97 2d 12 3d bf 32 c4 bd f4 66 05 be 05 0f 5e 3e
       0.03568801 -0.095799915 -0.13027555 0.21685417
000300 bd 88 8b bd 6d 9a c4 bc 3f e8 0c bc 12 38 33 bc
       -0.0681319 -0.023999417 -0.008600294 -0.010938661
000310 bc e7 d0 3c bc 81 9b 3d f5 4a e3 bd ec 01 32 bc
       0.025501125 0.07593104 -0.11098281 -0.010864716
000320 55 10 07 be c0 18 64 bc 9b c2 8b 3d d7 df e0 3c
       -0.13189824 -0.0139219165 0.068242274 0.027450485
000330 42 fc c8 bd d6 ff 30 3d a2 9a 6f 3d c6 a4 e4 bd
       -0.09813739 0.043212734 0.05849708 -0.111642405
000340 41 13 2b 3d 1b 01 3a bd ae b8 a5 bd f0 59 b6 bc
       0.04176641 -0.04541121 -0.080918655 -0.022259682
000350 fc 28 65 3c 77 14 c2 bb 95 a2 26 3d 3d db e7 3c
       0.013986822 -0.0059228498 0.040682394 0.028302783
000360 40 49 d4 bc 03 f8 39 bb 2c 54 6c bd 77 30 85 bd
       -0.025913835 -0.0028376586 -0.05769746 -0.065033846
000370 7f cb 9d 3c 56 3c 4f 3e 81 ee 98 3d ea 50 4e 3d
       0.019262074 0.2023786 0.07467366 0.050370134
000380 04 c2 e6 3c 06 9f 1f ba 4a 98 15 3c 7d 05 69 bd
       0.028168686 -0.0006089065 0.009130547 -0.05689
000390 94 45 5a bc fc 89 9e 3d ab 1d 1b be b7 d7 c1 3c
       -0.013322253 0.07741162 -0.15148036 0.023662431
0003a0 4d d7 00 3e f2 79 b4 bd 2d c7 0c 3e 45 5d e0 bd
       0.1258213 -0.08812322 0.13747855 -0.1095529
0003b0 02 ba 34 3e d8 72 41 bd 7d 46 12 3e e7 40 54 3c
       0.17649081 -0.047228664 0.14284702 0.012954927
0003c0 bb eb e8 bd 5e 8a b3 3c 33 43 f0 3d 40 38 72 bc
       -0.11373087 0.021916565 0.11731567 -0.014783919
0003d0 1f f0 70 3a 7b d3 40 bc 4c 5d d7 bc 75 69 f6 bc
       0.0009191054 -0.011769171 -0.026289605 -0.030079583
0003e0 05 78 2f bd 96 43 bf bb b2 63 7c bd 55 21 51 3e
       -0.04283907 -0.0058369143 -0.061618514 0.20422871
0003f0 f4 52 bf 3c 4a 52 8f bd fd 88 1d be df fa 49 bd
       0.023354985 -0.06998117 -0.15384288 -0.049311515

cls3.0.bias f4 [2]
000000 3d f9 6d 3a 87 53 2d bc
       0.0009077972 -0.0105789965
