CLIP/saved_models/model_CLIP-16_CLIP_weights.pth (torch, 38730 bytes, 2 tensors)

classifier.0.weight f4 [18, 512]
000000 da bc 34 be 05 26 33 bd 82 1a d5 bd d2 a1 d8 bc
       -0.17650166 -0.04373743 -0.104054466 -0.02644435
000010 64 56 97 bd bc 86 04 3e 7b a5 c6 3c c8 50 62 bc
       -0.073895246 0.12942022 0.02424883 -0.013813205
000020 91 1a 46 be 2e ae b1 3d 40 d5 1d 3d bf c9 91 3d
       -0.19346072 0.086758 0.03853345 0.07118558
000030 ff 86 16 3d 55 d9 be bd e0 70 25 bd 7e 2b 00 be
       0.036749836 -0.093187965 -0.04039085 -0.12516591
000040 2e ac 8f bd cd 1b 37 bd 76 1f ce bd 0d b3 2e bb
       -0.070152625 -0.044704247 -0.100645944 -0.0026657016
000050 82 8b 8a bd d9 e6 86 3d 30 d3 0c 3e 5c 7b 0d be
       -0.0676489 0.065869994 0.13752437 -0.13816589
000060 86 34 dd 3d 84 38 d6 bd 17 c9 50 bd d3 9d 4c 3a
       0.10801034 -0.10459998 -0.050973024 0.00078055
000070 78 41 a6 bc 4c 60 5d 3d e3 ac 15 3d 28 62 53 3c
       -0.02029489 0.054046914 0.03654183 0.01290182
000080 b1 9e 2e 3e 21 4c 17 3d e2 20 3d 3d 93 c9 9f 3d
       0.17052723 0.036937837 0.046173938 0.07802119
000090 16 25 ce bd ea d3 88 ba 55 2d 9c 3d 29 1d 2c bd
       -0.10065667 -0.0010439132 0.07625834 -0.042019997
0000a0 30 3c 5b 3e 64 df 26 3e 8b b9 20 3d ce 39 78 bd
       0.21409678 0.16296154 0.039239448 -0.060602
0000b0 7e 1f 54 3d a3 9b fd 3d 3f e3 d4 bd f5 7a 10 3e
       0.051787846 0.12383201 -0.10394906 0.14109404
0000c0 9c 27 df 3c c3 e5 6b 3e 25 71 a0 3d 5c 25 6c 3c
       0.027240567 0.23036866 0.078340806 0.014413204
0000d0 ec b4 a5 3a 72 07 53 be 49 d9 88 3d ef d0 19 3e
       0.001264242 -0.20608309 0.06682069 0.15021108
0000e0 23 3f 8f bc 9f 71 9a 3d c1 00 47 3d 40 c8 34 3e
       -0.01748616 0.07541203 0.048584703 0.17654514
0000f0 ca 31 2a bc 45 9d 02 bd cc d7 65 bc 2c d5 5e 3c
       -0.010387847 -0.031888265 -0.014028501 0.013600629
000100 3d 2d b9 bd fe e6 38 3e 56 f4 a1 3d 57 18 32 3d
       -0.09041832 0.18056867 0.079079315 0.043480244
000110 bc 39 0f be f1 e5 3b 3e 34 7d b4 3d 4a 13 2a 3d
       -0.13986868 0.18349434 0.08812943 0.0415223
000120 2e 1e 17 3d 4c 8f 38 bb 3f 39 8f 3d 50 1a 99 3d
       0.036894016 -0.0028161583 0.06993341 0.07475722
000130 e8 fb ba 3d ca f1 32 bd aa cf 0e bd aa cc b3 bd
       0.091300786 -0.04368762 -0.034866013 -0.08779271
000140 1e bb c8 bd 24 6a 48 3d 4e ca 7c 3d eb 32 3d 3d
       -0.09801315 0.04892935 0.06171637 0.046191137
000150 36 8a 0d bd e2 c5 2f bc 9c e1 bd 3c 2f 96 cc 3d
       -0.034555636 -0.010728331 0.023178868 0.09989583
000160 bc 65 12 bd ed 95 26 3e 7a a1 01 bd 4d 52 ff 3d
       -0.035741553 0.1626813 -0.031648137 0.124668695
000170 28 16 7f bd 9e 04 3f bd 3f 46 84 bc 7d 43 12 be
       -0.06227699 -0.046635263 -0.016146777 -0.14283557
000180 58 4e f7 bd 46 c0 1e 39 c8 aa 91 3c e5 90 91 bd
       -0.1207549 0.00015139682 0.01778163 -0.071077146
000190 ad b9 e6 3d 6a 2d df 3d 3e 97 f2 bc 0e 7c 59 bd
       0.112658836 0.10897334 -0.029613134 -0.053096823
0001a0 f9 6c 87 3d 80 5d 15 3e fa 7d b6 bc 07 da dd bb
       0.06612582 0.14586449 -0.022276867 -0.0067703757
0001b0 db 05 24 3e ed 7d 66 3d 2d ec 7c bc df eb 82 3d
       0.16017859 0.056272436 -0.015437168 0.06392645
0001c0 45 db 8e 3c b5 2e 4c bd c0 de 1b be 51 ec 08 3c
       0.01743854 -0.04984923 -0.15221691 0.0083571235
0001d0 fb 9f 2c 3b bf 78 8a 3e a7 f2 55 bd f9 29 02 3e
       0.0026340473 0.27045247 -0.052233364 0.12711324
0001e0 85 4f cb bd 46 6f ce 3d 50 15 f0 bc 62 cf 12 3d
       -0.099272765 0.100798175 -0.029307038 0.035842307
0001f0 79 8b 36 be 0a 65 42 bd 1b bd 5f bd 50 39 2b 3b
       -0.17826642 -0.04745964 -0.054623704 0.002612669
000200 c4 66 3f 3c 40 f8 68 bd cd df a1 3e 58 c4 86 3d
       0.011682216 -0.056877375 0.3161606 0.06580418
000210 bd 9d 3d 3e 46 81 b0 bb b7 dc 5a 3d 63 88 35 be
       0.18517204 -0.0053865043 0.053433146 -0.17727809
000220 04 de 4d 3d a9 c8 1a be 11 a1 ab 3d 2f e3 c1 bd
       0.05026056 -0.15115608 0.0838033 -0.0946716
000230 76 87 b0 3c 30 a9 0d bd 56 36 4d 3d b6 2b 5b be
       0.021548968 -0.034585178 0.050100647 -0.21403393
000240 b4 bc f5 3d dd e7 04 3c 73 f1 62 3e 62 b3 b5 bd
       0.11998883 0.008111921 0.22162418 -0.08872105
000250 7d df 70 3e 3e 16 d1 3c 78 65 e7 3c 3e f0 06 3d
       0.23522754 0.025523301 0.028246626 0.032943957
000260 0d 46 c1 3d c7 d5 74 bd af 4f dc bc 35 4d 0b be
       0.09437189 -0.059774186 -0.026893465 -0.13603671
000270 74 ae 5f 3e c4 85 23 be 9f f7 7e 3d 9b 77 c7 bd
       0.21843892 -0.15968996 0.06224787 -0.0973961
000280 8b 82 26 be 9a 62 4b bd 05 a6 b0 3d f1 4d e8 3c
       -0.16260736 -0.04965458 0.08625416 0.028357478
000290 38 24 41 be 8d 5b 2b 3d 18 e2 7d bd ab 6f b2 3d
       -0.18861473 0.041835357 -0.061983198 0.08712705
0002a0 20 40 a7 3d e3 c1 21 3d 30 3a e7 3d 22 70 52 bd
       0.08166528 0.039491545 0.11290395 -0.05137647
0002b0 bf 65 6e bd 7c d4 f5 3d 12 a1 fd 3b bc 8c 61 3c
       -0.0582025 0.12003419 0.0077401483 0.013766464
0002c0 60 71 8b bc 5c af 66 3e c0 a0 48 be 1b 9d 85 be
       -0.017021835 0.22527832 -0.19592571 -0.26096424
0002d0 4d 56 12 be 1c 99 26 3e 41 61 65 3d 02 26 93 bd
       -0.14290734 0.16269344 0.05600095 -0.07184984
0002e0 1c 3e 42 3e 79 a8 ad b9 eb fb dd ba 54 71 71 bb
       0.18969005 -0.00033122653 -0.0016936039 -0.003684123
0002f0 68 6b b0 bd 69 1f c2 bd eb fa 96 3d b5 22 a0 3d
       -0.08614236 -0.09478647 0.073720776 0.0781912
000300 fe 7c 3a be be 21 18 bc eb b5 4d 3d 5d 21 b8 bd
       -0.18211743 -0.0092853885 0.05022232 -0.089907385
000310 f5 ad de bd 2a af 24 3d 6e 2a 13 be 75 c6 97 3d
       -0.108730234 0.040206112 -0.14371654 0.074108995
000320 8a 24 ea bd b5 13 45 bd d1 0e cb bd 3e 76 a4 3d
       -0.114327505 -0.048114497 -0.099149354 0.080303654
000330 ae 72 54 bd cd 95 d1 bd 28 0c 16 bd 70 3c 55 bd
       -0.05186718 -0.1023365 -0.036632687 -0.05205959
000340 3f 7d 49 bd 00 22 2b bd 33 0f 36 bd fc e3 16 3e
       -0.04919171 -0.04178047 -0.04444809 0.14735407
000350 2a b1 8b 3d f1 e6 f1 3d 33 2c 51 3d 15 10 ca bc
       0.06820901 0.11811627 0.051067542 -0.024665872
000360 78 24 a6 bb 44 e8 0d be 59 27 81 3d 10 07 b1 bd
       -0.0050702654 -0.13858134 0.06306333 -0.08643925
000370 1d bd d9 bc cd d6 b8 3d 99 82 e7 bd 17 67 51 3c
       -0.026579434 0.09025345 -0.113042064 0.012780926
000380 76 cf 75 bc 7e d4 d9 3d 94 39 89 3d 27 c5 85 bd
       -0.015003076 0.10636233 0.06700435 -0.065317445
000390 c6 4f 8b 3d 36 67 4f bd f1 f6 99 bc 7d b6 06 be
       0.06802325 -0.05063554 -0.018794509 -0.13155551
0003a0 5b 9b 40 bd 8c c0 75 bd 7f 51 11 3e 1a ae 22 bb
       -0.04702316 -0.05999808 0.14191245 -0.002482301
0003b0 ff 19 f1 bd 73 13 fe 3d b4 47 02 3d bf 3e 99 bd
       -0.117725365 0.124060534 0.031806663 -0.07482671
0003c0 fb 43 0f 3e fb ec 38 be 1d 90 3c bd d6 4d 65 bd
       0.13990776 -0.18059151 -0.046035875 -0.055982433
0003d0 a1 f4 91 3a fb c2 a9 3d 7f 6c f2 bd 53 b1 db bc
       0.0011135527 0.08289143 -0.118371 -0.026817953
0003e0 26 57 ff 3d a7 01 0d 3d 9e bd 9d be 12 75 11 3e
       0.12467794 0.034425404 -0.3080873 0.14204815
0003f0 92 60 55 3d f1 9d 5c 3d 3d 67 27 bc 3c 10 78 3c
       0.05209405 0.053861562 -0.010217485 0.015140589

classifier.0.bias f4 [18]
000000 9d ed 7b 3c f8 1f 03 3c 4f 51 49 3b a7 d6 c4 bc
       0.015376476 0.008003227 0.003071863 -0.024028135
000010 5a 75 a8 bc e7 42 31 bc 97 7f 9e bc 97 20 59 bc
       -0.02056377 -0.010819173 -0.019347949 -0.013252399
000020 36 01 eb bc f2 31 fe 3c 18 92 0b bb 79 bb 9c bc
       -0.0286871 0.031029675 -0.0021296795 -0.019132363
000030 ee 4c c1 bc 89 87 c4 bb 6b d8 23 bc 3a 46 80 3a
       -0.023596253 -0.0059976024 -0.0100003285 0.0009786554
000040 c3 88 bc bc a8 a0 15 bc
       -0.023014432 -0.009132542
