CLIP/saved_models/model_CLIP-16_CLIP_2024-0507_weights.pth (torch, 40042 bytes, 6 tensors)

cls1.0.weight f4 [10, 512]
00000000: 41d0 fcbe 7fc0 553a e8fc f9bd 99ee ccbd
00000010: fde6 53be fd64 733e 0554 52bd b36c f5bd
00000020: 2ac6 d0be 4688 61bd ea17 03bd 074e a13d
00000030: c31b c6bd d016 03be 062d 20be 3723 a3be
00000040: 4dea c5bd 562e 1dbe 4dab edbd 05c0 d6bd
00000050: 0a7b 2fbd 13fe 283e 63dd 5f3e 0010 7abe
00000060: 9ff7 373e 22d3 f5bd bb41 dcbd c6ae a03b
00000070: 5411 c23d 20f7 f53d 4d3e 923c df4a 22be
00000080: 309f 513e 6ec8 033e 4ec8 0e3e 15f4 dc3d
00000090: 6d85 03be 6319 b93b 5fc3 2f3d 463a c5bd
000000a0: 14d9 ef3e 8dde 673e 37e7 4b3e 29f6 5dbd
000000b0: 3df6 acbd dc10 8b3e 071d bfbd 9d37 693e
000000c0: f670 1d3e 4e63 103f 4440 5d3e adda febd
000000d0: bc20 f0bc 2d14 80be 9fc0 293e 889e 213e
000000e0: e754 adbd 5029 943d 92b9 223e cf96 493e
000000f0: 43c3 0f3e 101c babb 195d bdbd b3c2 3e3e
00000100: 045f 2ebe b0b7 ba3e f523 233e 2b2c fa3d
00000110: d95a 36bd 531a 3d3e f9aa 8d3e 0bbf 1f3e
00000120: bc22 273d 8102 fabd 851d c33c b5bc 013e
00000130: 10c0 3d3d 7e7a 4abe 8252 babc fb03 d73b
00000140: de24 82be 6b27 213d a155 723d f60c c13d
00000150: 16cd 273d 3289 d0bd 0fc1 0f3a ae10 163e
00000160: e6a8 49b8 1123 563e 9d27 9a3c 783a ea3d
00000170: 3de1 9abe 3924 77bd cf60 c53c 677c b0be
00000180: 5516 08be 34b2 7b3c a17c bf3d 7958 393d
00000190: 7726 673e 6d7a b03d 921a c1bd 0b99 abbc
000001a0: 5a78 403d 0800 4a3e b811 963c bb83 0dbe
000001b0: b4af 683e 1035 753c 1011 02bf d37f cb3d
000001c0: 6763 6a3e 2800 2dbc 22c1 b5be 16fe bdbc
000001d0: e03c 213e f8e3 373f 9be3 9cbd 4a8c 823d
000001e0: 0b2d 05be abc5 a23b 1d12 0dbe c3c1 b43c
000001f0: 6932 0abe 73ab dcbd 965f d9bd 6a8f 073e
00000200: 75cc 1cbd fc73 dcbd cb98 173f 409c a13e
00000210: a38d 823d 96c5 8cbd dbb5 1e3e c2a1 15be
00000220: d367 aebc 30a6 10be 06f9 da3d 93e4 9d3d
00000230: 1f0b e6bc 280e 9cbc 2323 0e3e 07ed 64be
00000240: 2db5 813d ed58 36bd 1eaa bd3e a8bc 5ebd
00000250: dc8b d83e 3d86 f23c 39d9 213d 56d8 0e3e
00000260: 10bf 543e 5690 3c3e 283e 97bd 65f9 39be
00000270: f590 793e 23da f1bd 4a6f 963d 2bf2 9ebe
00000280: 10bd 10be ce97 b0bd 4ae7 7f3d cbec 4c3d
00000290: 510c 4cbe 66fd 643d 3484 af3d c432 763d
000002a0: 0bea 113e 96ef 983b 8bff 04bd b1f1 f1bd
000002b0: 00cc 2cbd e1df f03d 5086 583d 35ac c13d
000002c0: c1e1 bfbd 1910 c33e c3d5 61be 0475 c8be
000002d0: 7eac 5dbe 0b83 b23e 673f 2a3d 9c79 01be
000002e0: 2e2a 343e 9286 1b3d 6cfd 2ebd e6d6 2fbd
000002f0: 00ce d1bd 49b3 c3bd 8f43 a23d d7d9 603e
00000300: 0226 61be a1fd d1bd 7e01 7f3e 98d5 d3bd
00000310: f764 13be 77eb a33c 3a29 b1be 6bb7 023e
00000320: a9d6 0bbe 020a 1abe 97c3 44bc 2592 7d3c
00000330: 17bf babd 4bbb 6abe 05a9 d9bd e752 2a3c
00000340: 97e3 273d 4bd4 adbd 2bab 873b 04ad 2e3e
00000350: d4af d33d bc1a 2e3e 91df d43d 272d c8bc
00000360: 8700 3f3d fa88 4dbe 5b22 ab3d 0788 88bd
00000370: 8f51 1cbe 211d c63c 6768 5fbe d810 0e3d
00000380: 8423 94bd 16b2 513e 13e0 5b3e 0c25 e2bd
00000390: aae7 e63d 8ce6 a53d 0f87 d83d 43e0 80be
000003a0: 2572 c3bd 54ba 43bd 600f a43e 3ba7 e23c
000003b0: cbcf 49be 7818 623e 989a a03b 8c69 52be
000003c0: 0fb6 063d 9629 9bbe a790 42bd 0951 6dbd
000003d0: db4a edbd 1829 f8bd d90c 14be 7b33 6c3d
000003e0: 0d89 ec3d 582b 513e b3e6 20bf cb99 a53e
000003f0: d997 433e 9945 29be f3ba 78bd 7ade 2c3e
-0.49377635 0.00081539893 -0.12206441 -0.100064464 -0.20693584 0.23768993 -0.05134966 -0.11983623
-0.40776187 -0.0550616 -0.032005228 0.07876211 -0.09673264 -0.12801671 -0.15642175 -0.31862804
-0.0966383 -0.15349707 -0.11604939 -0.104858436 -0.04284195 0.16503172 0.21861796 -0.24420166
0.17965554 -0.12003161 -0.107547246 0.004903647 0.09475961 0.12010026 0.017851973 -0.15848874
0.20470881 0.12869427 0.13943598 0.107887425 -0.12843867 0.0056487783 0.04291093 -0.096302554
0.46845305 0.2264349 0.1991242 -0.054189835 -0.08445404 0.271613 -0.093317084 0.22775121
0.15375122 0.56401527 0.21606547 -0.12444053 -0.029312484 -0.25015393 0.16577385 0.15783131
-0.084634595 0.07234442 0.15891102 0.19686435 0.1403933 -0.005679615 -0.092462726 0.1862896
-0.17028433 0.36468267 0.15931685 0.122154556 -0.044520233 0.18467073 0.27669504 0.15600221
0.04080461 -0.12207509 0.023817787 0.12669642 0.046325743 -0.1977329 -0.02274442 0.006561754
-0.25418752 0.039344233 0.059163693 0.094263 0.04096707 -0.10182418 0.0005483785 0.146548
-4.8079433e-05 0.20911814 0.018817717 0.11436933 -0.30249968 -0.06033728 0.024094013 -0.3446991
-0.13289769 0.015362311 0.09349943 0.04525039 0.22573267 0.08617101 -0.09428896 -0.020947
0.046989776 0.19726574 0.018318996 -0.13819782 0.22723275 0.014966264 -0.50807285 0.0993649
0.22889481 -0.010559119 -0.3549891 -0.023192447 0.15745878 0.7183223 -0.076606 0.06374414
-0.13005464 0.0049674115 -0.13776441 0.022065049 -0.13495792 -0.10774889 -0.10613935 0.13238302
-0.038280923 -0.1076431 0.5921752 0.31564522 0.06374671 -0.06873624 0.1549906 -0.14612487
-0.021289742 -0.14125896 0.10692029 0.07709613 -0.028081475 -0.019049719 0.13880591 -0.22356044
0.06333385 -0.0445184 0.37043852 -0.054379135 0.42294204 0.029605025 0.0395138 0.13949713
0.2077601 0.18414435 -0.07384902 -0.18161543 0.24371703 -0.118091844 0.073454455 -0.31044134
-0.14134622 -0.086227044 0.062476434 0.05003051 -0.19926573 0.055905722 0.085701376 0.060107008
0.14249437 0.0046672327 -0.032470267 -0.11813677 -0.042186737 0.117614515 0.052862465 0.09456674
-0.09369231 0.3809822 -0.220542 -0.39151776 -0.21647832 0.34865603 0.04156437 -0.12644047
0.17594215 0.037970133 -0.04272215 -0.042929552 -0.102443695 -0.0955568 0.07923042 0.219581
-0.21987155 -0.10253454 0.24902913 -0.10343474 -0.14393984 0.02000974 -0.34601766 0.12765281
-0.13656105 -0.1504288 -0.012009523 0.015476738 -0.09118479 -0.22923009 -0.10627941 0.010395742
0.04098853 -0.08487757 0.004140278 0.17058188 0.10336271 0.17002386 0.103942044 -0.024435593
0.046631362 -0.20071784 0.08356162 -0.0666657 -0.15265487 0.024183812 -0.2181717 0.034684032
-0.072333366 0.2047809 0.21472196 -0.110422224 0.11274655 0.08100614 0.105726354 -0.25171098
-0.09543256 -0.04778512 0.3204298 0.027667632 -0.19708173 0.22079647 0.0049012415 -0.20548075
0.03288847 -0.30305165 -0.047501232 -0.05793861 -0.11586543 -0.12117213 -0.14458026 0.057666283
0.11549578 0.2042669 -0.6285202 0.32343897 0.19100894 -0.16530456 -0.060725164 0.16881743

cls1.0.bias f4 [10]
00000000: 038d 29bd 7067 23bc c81b 10bd 6801 b73c
00000010: cd0e 463c 84eb 35bd cd69 a3bc b1c8 d2bc
00000020: 4045 1bbd 1ee6 5fbb
-0.041394245 -0.009973392 -0.035182744 0.022339538 0.01208849 -0.04441406 -0.01994791 -0.025730463
-0.03790784 -0.003416426

cls2.0.weight f4 [6, 512]
00000000: a112 383d afda 9cbc 9260 4e3a 08a1 57bd
00000010: bee4 523c d403 44bd 62ef 18bd c162 8bbb
00000020: 378e bc3c ff5d 523d 3947 a83c 3658 6b3b
00000030: cc2c b3bc 26d4 c5bb 2f81 353d de59 3dbd
00000040: 2b73 aa3c 69f5 40bd b56e 14bb 0336 d63c
00000050: 2b67 e23c b562 843d 51b6 193d 3991 fbbc
00000060: 11b0 303c 5d52 333d 6bf9 523a af76 96bc
00000070: 1190 81bd 9816 b23d d4b6 0bbd cac5 c6bc
00000080: 417d 22bd ed93 50bd dc9f 7d3b 3504 19bd
00000090: 7947 883c 1844 663c 5d8d fc3c 8adf 51bd
000000a0: 9da5 9c3c a688 7e3d 3d48 f3bc eacf e63c
000000b0: 2861 20bc dcda 3e3d 0780 07bd 9978 cbbc
000000c0: f8ca c3bc 9259 1abc 6b80 113d c043 f3bb
000000d0: 5946 a43c dd39 90bd b2c6 85bd 89ce 113c
000000e0: 522c 26bb 2733 31bd 849b 763d 66c3 373d
000000f0: 97c4 e3bc 6779 d6bc b290 bbbc fed3 ac3c
00000100: 877e 743c 757c 8cbc 8b96 6fbc 9bf2 73bc
00000110: f1dd 8ebc 84e1 42bd bd13 2238 423c 3dbd
00000120: 876b 463d c690 abbc 9a11 883c 4ae3 7b3c
00000130: 1795 86bd f27d d73c bb6c 0cbc 4ec4 41bd
00000140: 57c3 1abd b3fe d63c 2b21 123d b64d bc3c
00000150: b9c9 4c3d 10ae 853c d3ba 9fbc c957 0b3c
00000160: 9607 a2bd 6b33 dd3c a176 1ebd 0d70 ef3b
00000170: b73d 48bd 6b17 96bd 8c85 35bd 1ac3 b6bc
00000180: 1c5a 073d 80a5 64bd 611c 18bc 114d 283d
00000190: ed09 893d 934b 0bbd 5d5d 6e3d 2141 41bc
000001a0: 609c d83c 6c26 6dbd e094 0bbc a615 d2bb
000001b0: d032 c93c 7010 fcbc efdd 23bd 3808 4abd
000001c0: 57f6 a23d 78b3 f1bc 8668 623d 69fe ca3c
000001d0: 8f9f eabc b5f5 0ebd ed62 9d3c 3db0 63bc
000001e0: eb83 64bd 202e 81bd f054 82bd 5d55 bcbc
000001f0: cffc 16bd c3de 993c 8790 9d3b 8fe8 26bd
00000200: f8dd b9bd 57c2 8e38 de32 14bd 6822 1dbc
00000210: b397 15bd 64fa 0eba 69f7 f03c 30f9 8ebc
00000220: 09f4 f9bc 2300 43bc 677f 983d 6571 c53c
00000230: d016 0dbd 0318 9fbc 3a86 00bd 77a0 d8bb
00000240: 854f 83bd 5c6b 203c fa86 2f3d 8259 bebc
00000250: 202b 04bc 9816 ae3d 0e12 5bbc 1d7d 313d
00000260: ce43 033d a700 123d a678 5fbd 87a8 08bb
00000270: aa02 3e3d 8492 e5bb d066 94bd 8f39 c23c
00000280: 2de2 9d3d 5f48 46bd b03e de3c ac3a ffbc
00000290: 8077 40bd 2d98 f4bc 18a8 723d d75a 0f3d
000002a0: 4d29 07bd 89dc 2b3d 801e d5bc 91c1 a23d
000002b0: 6cfd 0d3d f872 5abd 3593 fc3c 5569 e53b
000002c0: efdb 3c3d 89f3 e7bc db17 c539 9dcb 9dbc
000002d0: 347e 073d 9ebd 28bc 2acc bdbb 2409 2bbd
000002e0: 0d0f 843a 2c92 5ebd 19cb fabc 65b5 bfbc
000002f0: 4231 853d 4076 64bc 3f0d 1bbd 064c dbbc
00000300: 42c4 2a3d f4ee c8bc a0fd 133d fcc9 39bd
00000310: a064 803d f20d 04bd 0b6a afbc 0747 013c
00000320: 5194 11bc 49cf 10bc bc8f 363d a55a b73b
00000330: 837f 653d cca8 2fbd d9de 6f3d 52f4 b2bc
00000340: c2e1 1a3c 2633 84bc 86bf 1e3c a1f2 1c3c
00000350: e4c4 22bd e93d 32bd 0cd5 edbc 8ceb 4bbd
00000360: 5d69 563d aff3 cb3c 02c8 213d fa78 963c
00000370: 893f 623c 732a 333c 7978 c3bc 3138 28bd
00000380: 21ea e7bc 77dc b73c 6235 c53c 11de 1cbd
00000390: 6125 e63c 30d6 b0bc 3558 29bd 9d92 34bd
000003a0: 09d7 dcbc acce 19bc 716e a33c ddca 1f3c
000003b0: 6d64 acbd 614c 663d 7c5d 4dbb f43c 08bd
000003c0: 93eb 89bb 99cb 8bbc 854d 293d a14c 54bc
000003d0: 1999 3b3d b7d4 883c 2513 6ebc a79e f53c
000003e0: 22fd c43c e37f fcbb 4f2a 183c 6834 b339
000003f0: 5eb3 313d 846f 82bc ffa8 2f3d c330 193d
0.04493964 -0.019147245 0.00078726665 -0.052643806 0.012871919 -0.047855213 -0.03733767 -0.0042537157
0.023017032 0.051359173 0.020541774 0.0035910732 -0.021871947 -0.006037253 0.044312652 -0.046228282
0.02080687 -0.04710904 -0.0022648994 0.026148802 0.027637085 0.06464139 0.037527386 -0.030708896
0.010784165 0.04377972 0.00080480304 -0.01836714 -0.063263066 0.08695716 -0.034109905 -0.024264235
-0.039670233 -0.050922323 0.003870002 -0.037357528 0.016635643 0.014054321 0.030829126 -0.051238574
0.01912194 0.062142037 -0.029697532 0.028175313 -0.009788789 0.04659544 -0.03308108 -0.024837779
-0.023900494 -0.009420769 0.03552286 -0.007423848 0.020053076 -0.070422865 -0.06532039 0.0088993395
-0.0025356007 -0.043261673 0.060206905 0.04486408 -0.027803702 -0.026180936 -0.022896145 0.02109718
0.014922745 -0.01714919 -0.014623295 -0.014889385 -0.017439814 -0.04757835 3.8642193e-05 -0.046200044
0.04844239 -0.020943057 0.016609956 0.015374014 -0.065714054 0.026305173 -0.008570845 -0.04730635
-0.037783947 0.026244497 0.035676163 0.022986274 0.049997065 0.016318351 -0.019498264 0.008504816
-0.07911603 0.027002057 -0.038687352 0.0073070587 -0.04888698 -0.073286854 -0.044316813 -0.022309829
0.03304492 -0.055821896 -0.00928411 0.04108912 0.06691346 -0.03400762 0.058194507 -0.011795313
0.026441753 -0.05789797 -0.008519381 -0.006411272 0.024560362 -0.030769557 -0.040006574 -0.049324244
0.07957142 -0.029504523 0.055275463 0.024779515 -0.028640537 -0.034902293 0.01921221 -0.013896999
-0.05578987 -0.06307626 -0.06363857 -0.022989923 -0.03686219 0.018782979 0.004808489 -0.04074913
-0.0907554 6.807286e-05 -0.036181323 -0.009590723 -0.036521625 -0.0005454181 0.02941485 -0.017452806
-0.030511873 -0.011901888 0.07446175 0.024101922 -0.034445584 -0.01942063 -0.03137801 -0.006610926
-0.064116515 0.0097912215 0.042853333 -0.02323604 -0.008066922 0.08500403 -0.013371004 0.043332208
0.032047085 0.035645153 -0.05455842 -0.0020852403 0.04638926 -0.0070059914 -0.072461724 0.023709087
0.07709155 -0.048408862 0.027129501 -0.031155907 -0.046988964 -0.02985772 0.059242338 0.03499874
-0.032998372 0.041958366 -0.02601552 0.07947076 0.03466551 -0.0533323 0.030831913 0.007001082
0.046108183 -0.028314369 0.00037592542 -0.01926213 0.03307934 -0.0102991145 -0.0057921605 -0.041756764
0.0010075286 -0.05433862 -0.030614423 -0.023401925 0.06503536 -0.013944209 -0.03785443 -0.02676965
0.041691072 -0.024528004 0.036130548 -0.045358643 0.06269193 -0.03223986 -0.02141287 0.007890469
-0.008885459 -0.008838483 0.04457067 0.0055955225 0.056029808 -0.042885587 0.058562133 -0.021845017
0.009453239 -0.01613767 0.009689217 0.009579332 -0.03973855 -0.043516073 -0.029032253 -0.049785182
0.052346576 0.02489647 0.039497383 0.018368233 0.013809093 0.010935414 -0.023861157 -0.041069213
-0.028309884 0.022443993 0.024073306 -0.038297717 0.028093996 -0.021586508 -0.041343886 -0.044085134
-0.026958006 -0.009387653 0.019950124 0.009752956 -0.08417592 0.056225184 -0.0031336239 -0.033261254
-0.004208991 -0.017064856 0.041333694 -0.012957723 0.045800302 0.016702993 -0.014530932 0.029982878
0.024046484 -0.007705675 0.009287431 0.00034180586 0.04338395 -0.015922315 0.042885777 0.03740002

cls2.0.bias f4 [6]
00000000: 478d c83b ae7a e1bc ddca 22bd 95ea aebc
00000010: 0daf 13bd 1a4f ce3c
0.006120357 -0.027524319 -0.039744247 -0.021352092 -0.036055613 0.025184203

cls3.0.weight f4 [2, 512]
00000000: a9db 48bd 7165 79be 76f0 8e3d 3eb2 3b3e
00000010: c123 2b3e f879 61bd c692 c93c 6cdd 1a3e
00000020: 6136 d73d 8543 00bf 1587 44bd 4ec6 ed3c
00000030: 07ee 05bd 56d1 833e fbe2 993d 6312 f8bd
00000040: 255d ee3d 66ed 803e 10f6 90bd ea39 1bbc
00000050: c098 393c 0654 7c3e a85b 3bbd 46ef 79bd
00000060: 49a5 883e e7c7 163d a217 4b3e 76ce 1dbe
00000070: 8d07 3d3c 494e 9abd 425d a53e a7a3 7ebe
00000080: 15a3 833d ec91 55bd 0d5e 30bd 35b6 be3c
00000090: 0ba1 19be 8615 0cbe bf22 8f3d 295e 1cbd
000000a0: d75b 1abd 69ac 863c 1d59 2fbe 31d0 723d
000000b0: 8b50 b93c e37f 1f3e 27cb 923d 6f2b 1b3e
000000c0: 26be 94bd d6b4 35bd 4bc7 033d 3b7e 90bd
000000d0: bb9a 003e bae3 8bbd fab6 473e 19f8 863e
000000e0: ba8c 00bc 6227 b13d 1719 bf3d 1719 413d
000000f0: 4be3 17bd 0504 8d3b 706d c83d 7dd7 8b3e
00000100: ea01 99bc aa17 37bd 7ba5 1a3e c879 003d
00000110: f5a4 4dbd f47a 953d 43eb f23d 1c57 c639
00000120: 8feb d23d 6a1d 5abe 2762 593d 000b 15be
00000130: 6aac 2abe 6039 0bbd 0b2a e5bd 0df1 8cbd
00000140: ce99 3d3e dd7f 0d3a da55 05be 8807 1bbd
00000150: 0cdc ef3d a2bc 7c3d 4290 11be 0c3d 4dbd
00000160: 4a93 863b 268b 32bd 6b50 3139 78ad 943e
00000170: e974 883c 166b 03be 9600 8c3d c20d 2c3e
00000180: 9a33 c5bc 1f59 71bc bcf3 143e a6d2 763e
00000190: e5a9 583d 9bdc d33d 8354 46be bde3 38bd
000001a0: a992 38be 5396 353e 9de7 18bd 1c0d 83bc
000001b0: 1248 a43c 9752 a63c 375e b4bd 5262 8d3d
000001c0: d5e3 2ebd c1f4 513c df5a 313b d136 f53c
000001d0: 7519 1b3d 5c09 ab3d f4af 693e 99a1 0ebe
000001e0: 3db1 d03e 814b 62bd 59a3 26be 8f37 553e
000001f0: 23ed 93bd 266b be3d 2355 6abc 6eee 5b3d
00000200: 60e5 983d 963e aabd 1ca5 e2bd 884b 0b3e
00000210: 8475 923d 07d6 543d 1699 083d fb25 c9bd
00000220: c778 d1bd f349 7a3c a7ae d9bd 158c e83d
00000230: ec43 4cbd e261 bc3d 3e01 a83d c3c1 01be
00000240: 0e50 2f3d d663 e13d 2b77 853d 6342 0abd
00000250: 4ad0 6e3d 59b3 74be 2671 19bd f544 aabd
00000260: d9f6 be39 ce10 0a3d 360d d03d 8b6d b9bc
00000270: 8521 293c ce19 22bd f007 12be 0c00 11be
00000280: 16bd 26be ea20 a7bd 473a 55bd 9b65 93bc
00000290: 2f20 54bc 216f 853d e9bc d13d 0996 b33c
000002a0: 9cb7 ee3d 8186 313e dadc 373d 5147 0cbe
000002b0: 1b2d 7b3e afc0 b0bc 1f7a 413e cf18 4b3d
000002c0: 1d63 7a3c 494b 48be 9422 3ebc f267 07be
000002d0: 36f2 48be 07ff 123e 817e 5dbd f509 b23d
000002e0: 8c48 19be ba98 4fbb 982d 4e3e 9eed 4fbd
000002f0: fe33 cbbd b28c 83bd 45fc 5ebc 8507 f73d
00000300: 3d13 a0be 57cb b4bd 53f9 8f3e edb2 b23c
00000310: 29a6 fa3c 5233 59bd 0d82 dd3c 9193 e33c
00000320: dfa8 943d 9bc5 fcbc a7e0 203d dd6f c83d
00000330: ba36 8bbe c6b4 f5bd bb64 dfbd 94d1 0e3e
00000340: 8d81 d83e 45df 02be 37f2 833e 903c 343d
00000350: 63f5 81bd 6c03 13bd 0b54 4fbe dd7a a93d
00000360: 87fc ec3b 1836 303d 39cc 793d 5287 73bd
00000370: ab25 de3c 3ffb 15bd b3e6 b9bd f7de 7b3d
00000380: fa72 073d 8414 12be b889 47be 9afb a83d
00000390: 97b3 6a3e fbb7 f9bd 20b2 b43d 89e2 eebb
000003a0: 1d63 373d 99fa d93b 55d1 7ebd 15c8 0cbc
000003b0: 44d5 31bd 278f 0b3e 415b 163d 158e 633d
000003c0: a55b a23b e168 e23d 0e62 593d 55d9 36bd
000003d0: e3c4 893d 2821 1dbe 50b6 2d3e eb14 ce3d
000003e0: c237 953e fdc4 c03d 0ff4 15bd 4f8d e2bd
000003f0: df19 243d c0d2 95bc 4580 40be c5c8 083d
-0.04903761 -0.24355103 0.06979458 0.18329713 0.16712858 -0.05504796 0.02460612 0.15123528
0.10508419 -0.50103027 -0.047980387 0.029025223 -0.032697704 0.25745648 0.07513996 -0.12112882
0.1163886 0.2518112 -0.07078183 -0.009474257 0.011327922 0.24641427 -0.045741707 -0.061019205
0.26688603 0.036811735 0.19833234 -0.1541079 0.011537445 -0.07534463 0.32297713 -0.24867116
0.0642759 -0.052141115 -0.043058444 0.023280242 -0.1500284 -0.13680086 0.06989049 -0.038175736
-0.03768524 0.016439633 -0.17123838 0.059280578 0.022621414 0.15576129 0.071676545 0.15153287
-0.072628304 -0.04436191 0.032172482 -0.070553266 0.12559025 -0.06830545 0.19503394 0.26361158
-0.007846052 0.0865009 0.093309574 0.04714307 -0.037081998 0.0043034577 0.097864985 0.27312842
-0.01867767 -0.044700302 0.15102188 0.03136614 -0.050206143 0.07298842 0.11861279 0.00037830404
0.102988355 -0.21300283 0.05307212 -0.14554977 -0.16667333 -0.033990264 -0.1118966 -0.06881914
0.18515703 0.0005397776 -0.13021031 -0.03784898 0.117118925 0.06170333 -0.14215186 -0.050107047
0.0041069137 -0.043589734 0.00016909993 0.29038596 0.01665731 -0.12833819 0.06836049 0.16802123
-0.024072457 -0.014730721 0.14546102 0.24103794 0.0528964 0.103448115 -0.19368176 -0.045139063
-0.18024696 0.17733125 -0.03733026 -0.015997462 0.020053897 0.020303054 -0.088070326 0.06903519
-0.042697746 0.012814702 0.002706222 0.029933365 0.037866075 0.083513945 0.22821027 -0.13928832
0.40760222 -0.055247787 -0.1627325 0.20821975 -0.072229646 0.09297781 -0.014302525 0.05369418
0.07465625 -0.083127186 -0.11066648 0.13603032 0.071513206 0.051961925 0.03334912 -0.09821697
-0.102281146 0.01527642 -0.106290154 0.113548435 -0.049869463 0.09198357 0.08203362 -0.1267157
0.042800955 0.1100537 0.0651687 -0.033754718 0.05830411 -0.2389654 -0.037461422 -0.08313934
0.0003642354 0.033707432 0.1015877 -0.022635242 0.010322933 -0.03957539 -0.1426084 -0.14160174
-0.16283068 -0.08160575 -0.05205753 -0.017992785 -0.012947126 0.06515337 0.1024111 0.021922128
0.116561145 0.17336465 0.044888355 -0.1369908 0.24528925 -0.021576254 0.18894242 0.049584206
0.0152824195 -0.19559969 -0.011604924 -0.13223246 -0.19623646 0.14355098 -0.05407572 0.086933054
-0.1496908 -0.0031676725 0.2013458 -0.05076372 -0.09922026 -0.0642332 -0.01360995 0.12061981
-0.31264678 -0.088278465 0.28119907 0.021813834 0.03059681 -0.05302746 0.027039552 0.027780326
0.07258772 -0.030855944 0.039276745 0.09786961 -0.2719019 -0.119973704 -0.10907885 0.13947135
0.4228634 -0.12780483 0.25770733 0.04400307 -0.06345632 -0.035891935 -0.20246904 0.082753874
0.007232252 0.043020338 0.060985778 -0.059455223 0.02711757 -0.03661656 -0.090772055 0.061491933
0.033068635 -0.14265639 -0.1948613 0.08251114 0.2292007 -0.121932946 0.08823037 -0.0072901887
0.044772256 0.006652188 -0.062211353 -0.008592625 -0.043416277 0.13628827 0.03670812 0.05555542
0.0049547725 0.1105516 0.053072028 -0.044640858 0.06727006 -0.1534468 0.16964078 0.100625835
0.29144102 0.094125725 -0.036609706 -0.11062109 0.040063735 -0.01828897 -0.18798931 0.033394594

cls3.0.bias f4 [2]
00000000: dc31 88ba ef55 753c
-0.0010390836 0.014974101
