CLIP/saved_models/model_CLIP-14_CLIP_2024-0509_weights.pth (torch, 58474 bytes, 6 tensors)

cls1.0.weight f4 [10, 768]
00000000: acde 863c 2729 d9bd 1b24 d73d eb5d 8d3d
00000010: 8605 ab3c 52ee 0cbe b677 c93b 4019 1e3e
00000020: ee41 94bd 18ca 683c fff4 4ebd bc9a 2f3d
00000030: 565e 17be fde3 cbbd 7bc5 ca3d bf4f 473d
00000040: a997 0d3d 0319 613d f965 3cbe 2882 a4bd
00000050: dcd8 62be 81d8 2e3b 4cf0 d53d 2e38 97be
00000060: 5cfa 013c 4ebf 86bd 388a 80bd 5b0b fcbd
00000070: bfac 27bc 030f 9abc 23e0 383e 8020 75bd
00000080: 7681 673d 5e9e 283e 8f2e 4ebe 6cce c2bc
00000090: 9dad 083e 2f1d 3ebc 31bb a43d f6d5 473d
000000a0: 0c85 e7bd d0fb 6cbe d2a2 b43e 4ebd 373c
000000b0: d149 893d d6a4 9cbd 1c71 ff3d 1b47 0c3c
000000c0: dc04 083e a11a 223e 14c1 5cbd 0530 cabd
000000d0: 52fa fe3d 0845 683c d951 9c3d 7b1c 48bd
000000e0: b239 c6bb 048b c33d 97e7 123d 4376 d13d
000000f0: 370b aabe 0828 813e 39d6 50bd e0da 3f3e
00000100: 0405 a5bd 3f04 a9bd bb61 17be 0b60 4e3d
00000110: 6490 86bd 6561 e43c b41d 9ebd 7eb1 863c
00000120: d7bb 1c3d 06b6 c23d ba26 f03c 9632 1f3e
00000130: f9ad 5fbc 5129 e0bd d1fc 473d 0ebc 843d
00000140: 48ed 19be fd13 7d3d 773c d33c f2fc 7d3d
00000150: 8706 103e 9959 78be 2d2b d3bd eb9e 6bbd
00000160: 3aab 2bbd 8a4f 9f3d ce3d 64be 899d efbb
00000170: 329e 8a3e 3d21 35bc 0395 4a3e eb4f 343d
00000180: d1e9 873d caf7 c93d 2e10 cebd c159 dabd
00000190: 061d 13be 14f8 8dbc a049 42be 10d6 303e
000001a0: a3df 533d fe01 893c a5e2 223d e266 b33b
000001b0: 462d d13d 341c d8bc 967a 683d 6579 5d3d
000001c0: f5b4 95bd e466 c13d 6b5b 2f3e 724c 383e
000001d0: 109d 9abd 0a27 8e3d fba6 bb3d 8d44 3dbc
000001e0: 5591 253c 2c55 dcbd 294d 933c 7caf 073d
000001f0: fb64 0f3a b1d7 22ba 69b4 0fbd 4cbb edbd
00000200: 0596 0f3d 5b14 82bc b911 993d 4645 f5ba
00000210: 9b89 af3c 00ee edbc 9c13 573e 82d5 1c3c
00000220: 2c2e 46bd 19aa 72bd d3ce a93c 4e2c 633d
00000230: 9880 f7bd 3ae1 b0bd 88ea a13d 82ce e5bc
00000240: 37da a6be ffe7 d73c a87c c4bc 10b7 7a3b
00000250: d991 bd3d 5a50 31bd f703 9d3e fdc5 39be
00000260: 4743 05be f235 563d 39ae 96bc 8484 14bd
00000270: 14c7 553e 9cfe 37bd 9e65 a1bc 4f50 403e
00000280: ce72 313e 5e8f 673e f623 643e 020f 8cbc
00000290: 6aa2 b7bc 7bff eabd 67e1 edbd 7776 53be
000002a0: c817 f13c 16e1 2e3e 786c b9bc d83a a93d
000002b0: 5151 8f3d b3a3 c8bc b195 af3d 1cac a0bd
000002c0: b7ab 95bd af25 90bd 2d6e 8b3e 95ea b13c
000002d0: 106e 9c3b b226 b73d 4379 4bbc 4048 e3bb
000002e0: 5dfb a23c b18d 39bd 5e8f 3a3e a8a0 acbd
000002f0: 59e1 4fbd 27ff 8ebd e8e8 6dbd 4b71 b4bd
00000300: 2985 ce3d 1e2c 413d 33ae 5e3c ec21 853d
00000310: 62e5 1dbd 9fd3 94ba 44bb fb3d 55ff 3b3c
00000320: 021c 6e3c 63f3 a83b 28e5 ad3c 7ea9 0e3e
00000330: 42e2 19bd 7149 d7bd e070 1a3e 872b 833e
00000340: 0ec4 503c cfad 98bd 420c 33be dc18 16be
00000350: 2d23 e5bb f860 b4bd 2e7f 093e bdd8 61bd
00000360: 8e3e 303c 0757 ad3d 4372 3cbe 40e1 f23b
00000370: e22a 483e df5a cdbc b0bc 8c3c 70b7 503c
00000380: 253d 62be 25d6 a2bc 1985 873d c742 263e
00000390: c39d c4bc 2ef0 42be 4c54 3fbe f01b 793c
000003a0: 8977 bc3c 497f d5be 3589 763e 5167 113e
000003b0: aa22 0ebe 12c8 a2bd 5659 2b3e 7989 3e3d
000003c0: c8eb 25be 9ce8 eebc df7d 8e3e 8a57 ca3b
000003d0: 0f7f 283d efae 473d 6c9f 8d3b aaef 92bd
000003e0: 4bb9 6d3d 57c7 8c3c feb0 c63d 734e 21bd
000003f0: 4c7a 163c 80f9 043e 8ac3 dc3c 1fcf 553d
0.0164636 -0.10603552 0.105049334 0.06902679 0.020876657 -0.13762787 0.006148304 0.1543932
-0.072391376 0.014208339 -0.050526615 0.042872176 -0.1478208 -0.09955595 0.09900948 0.048660036
0.034568463 0.054955494 -0.18398274 -0.08032638 -0.22153038 0.002667934 0.104462236 -0.2953505
0.0079332255 -0.06579457 -0.06276363 -0.123068534 -0.010234057 -0.018805986 0.18054251 -0.059845448
0.056519948 0.16466662 -0.20134948 -0.02378007 0.13347478 -0.011603638 0.080435164 0.048788033
-0.113046736 -0.23142934 0.35280472 0.011214567 0.067035325 -0.076486275 0.12472746 0.008561875
0.13283104 0.1583047 -0.05389507 -0.0987244 0.124500886 0.014176615 0.07632799 -0.048855286
-0.0060493583 0.095479995 0.035865393 0.10227635 -0.3321168 0.25225854 -0.05098555 0.18735838
-0.08057597 -0.08252763 -0.14783375 0.050384562 -0.06570509 0.027878473 -0.07720509 0.016442057
0.038265076 0.095073745 0.029315341 0.15546641 -0.013652318 -0.109453805 0.04882509 0.06481181
-0.15031922 0.06178664 0.025785668 0.062008806 0.1406499 -0.24252929 -0.103109695 -0.057524603
-0.04191134 0.07778843 -0.22289202 -0.007312481 0.27073818 -0.011055288 0.19783406 0.04402153
0.06636394 0.09861715 -0.1006168 -0.106616504 -0.1436654 -0.017330207 -0.18973398 0.17269158
0.05172695 0.016724583 0.039766926 0.005474911 0.10213713 -0.026380636 0.056757532 0.05407085
-0.073099054 0.09443453 0.17124717 0.17997912 -0.075494885 0.0694104 0.09162708 -0.011551988
0.010105451 -0.10758433 0.017981129 0.03312634 0.00054700644 -0.000621195 -0.035084162 -0.1160799
0.03505518 -0.015878847 0.074740835 -0.0018712662 0.02142792 -0.029044151 0.21003574 0.009572389
-0.048383877 -0.05924425 0.020728504 0.055462174 -0.12085074 -0.086367086 0.079060614 -0.028052572
-0.3258836 0.026355742 -0.023985222 0.0038256086 0.09256334 -0.04328952 0.30667087 -0.18141933
-0.13013946 0.05229754 -0.018393623 -0.03625919 0.20876724 -0.04492055 -0.019701775 0.18780635
0.17328951 0.22613284 0.22279343 -0.017097 -0.022416312 -0.1147451 -0.11615258 -0.2065066
0.029430285 0.17078051 -0.02263473 0.08263177 0.06997932 -0.02449212 0.08573473 -0.07845327
-0.07308143 -0.070384376 0.27232495 0.021718303 0.0047738627 0.089429274 -0.012419048 -0.006936103
0.01989525 -0.045301143 0.18218753 -0.0842908 -0.050752018 -0.0698226 -0.058083445 -0.088106714
0.10083992 0.047161214 0.013591337 0.06500611 -0.038548835 -0.0011354572 0.122915775 0.01147445
0.014533045 0.005155967 0.021227434 0.13931844 -0.037569292 -0.10512055 0.15082121 0.25619146
0.012742056 -0.07455026 -0.17485145 -0.1465792 -0.0069927187 -0.08807558 0.13427421 -0.05513834
0.010757102 0.08463865 -0.18402962 0.007412106 0.19547608 -0.025067745 0.017179817 0.012739047
-0.22093637 -0.019877503 0.06617183 0.16236411 -0.024001008 -0.19036934 -0.186845 0.015204415
0.023006218 -0.41698673 0.24075778 0.14199568 -0.13880411 -0.07948317 0.16733298 0.046517823
-0.16203225 -0.029163651 0.27830407 0.0061749863 0.041136798 0.048750814 0.004321983 -0.071746185
0.058038037 0.017184896 0.09701727 -0.039381456 0.009184431 0.12985802 0.026948709 0.05219948

cls1.0.bias f4 [10]
00000000: 0f1f 443c 7093 133c 177a b7bc aa66 04bc
00000010: fd25 e1bc 5afd b5bc 6e87 a9bc ecd4 31bd
00000020: 751f ffbc 56f2 243c
0.011970296 0.00900732 -0.022397084 -0.008081118 -0.027483935 -0.022215534 -0.02069446 -0.04341595
-0.03114293 0.010067543

cls2.0.weight f4 [6, 768]
00000000: 9bb5 fe3c 7e90 133d b38c 1dbc 8d3f 96bc
00000010: c75b c2bc 1fa6 e8ba ee16 073c da3b 37bd
00000020: bcc8 9abb 4a67 33bc a390 273d a3d8 023c
00000030: cce1 7abb f7d5 46bc f4b9 a83c d02c 913c
00000040: ad3a 8c3c 8752 073d 8c39 033d ae4d 183d
00000050: c63c 853c 70f0 e3bc 1023 a43c 7813 5e3c
00000060: fcc0 2abd 9b8f 403d a786 333d 19a8 443a
00000070: 0f5d 2a3d 8567 de3b 1b3c 8cbc 3afe a03c
00000080: 82c2 523c 289e 0f3d 3ebc 15bb baa1 053c
00000090: 2d13 cf3d 1e55 b7bc 4dbd 0ebd d4ca 91ba
000000a0: 29ff a83c 2e03 133d 9be0 5c3c 81b7 493a
000000b0: 4b00 133d 522d 1abd 95dd f3bb e4ef 2d3d
000000c0: fd00 25bc a401 033c b6f7 783c 5176 d83c
000000d0: 0072 0c3d 7d5c 593c 7393 febc 5d6a b6bc
000000e0: 5b14 fb3b e1ec 3d3d 81fb 76bd 6305 073d
000000f0: a778 81bd 6e43 ba3b 6f97 db3c c3c9 5cbc
00000100: cf9a 4bbd 87a0 293d 62b4 6ebc e269 123d
00000110: e3af e1bc 2e4f d43a 1aae 0a3d 504b 8c3b
00000120: c16c 5dbb 30b9 91bb b48f b43d a2f4 6abc
00000130: 4867 b4bb 89d7 37bc 62bb dfbc 5ebe 833c
00000140: 2f7b 113d 27f1 b93c 7e26 60bd ff2e 9cbc
00000150: 8b76 6ebb b8b8 f93c 8949 3fbd a3e9 0fbd
00000160: 3eb1 a43c c560 85bc 5772 f93c 0d71 8c3c
00000170: 9a64 79ba 5a7b 063b 0e87 763c c974 7b3d
00000180: b305 05bd c6ff 1dbd 5b25 5dbc df56 493d
00000190: 5de9 9bbc 23c0 ac3c 5e83 24bd e5f8 683d
000001a0: 9b7d c63c 4cc0 843c 8862 f43c b80d b5bb
000001b0: 3646 02bd 9fc4 a23c 6141 3bbc 63ab 0cbc
000001c0: 1c88 6a3d 0741 03bd 42b6 52bd f0b1 c53c
000001d0: 9a91 1b3b 5602 b9bc a9df 7eba 737c 3fbd
000001e0: 729c a03b b01c f53c 4f59 743c 4813 fb3c
000001f0: 27f8 143c 2fea eebc 8fdb 33bb 71a4 14bd
00000200: 541b 06bd 41b3 5ebd b1ff 80bc ab66 de3c
00000210: 2b31 be3c 6544 16bb c491 a33b 22a7 5cbc
00000220: 968c 84bb c5c3 523d 6d13 583c b63a 2cbc
00000230: 8744 a73c e1da bd3c 5b9c 2bbd 0234 9dbc
00000240: 0f4b 933c 7102 5bbc cdc2 8cbd f22c b6bc
00000250: ef21 01bd 088b df3b 6c58 9ebd f294 5f3c
00000260: f439 01bd 0531 b63c 1cc3 eebb 010f 893d
00000270: 64a9 553d 2861 b0bc 3244 1e3d 023f 54bb
00000280: d895 7bbd 4583 153d b3ee 1d3c ade4 8bbd
00000290: 6da8 96bb 2d21 2f3d 1d30 113c 3927 f3bc
000002a0: 6ff0 7abb bcbd 1dbc 3599 fd3c 1c14 10bd
000002b0: 1b51 fa3c 2d25 763d 9d75 873c ec97 fcbc
000002c0: 654e 153c 716e 17bb 3d12 1d3d 6069 d63c
000002d0: 98bf b1b6 3842 c4bc 8762 79bb 8270 bd3c
000002e0: e2bd 73bc 8fc1 b93c 648d 7bbd 7655 85bb
000002f0: 37d3 55b9 1a3f 273c d59e b4bc 1be0 40bd
00000300: 899a 623d 791c bd3c 7cd2 efba 6d48 083d
00000310: 35d2 413d 280d aabc bc77 343d 98cf 8c3c
00000320: c24d 0ebd 939c 30bc 53d2 043d 7090 043d
00000330: b432 1a3d e696 5f3c 0c11 3dbc 1e22 a3bb
00000340: cb35 443d 6c51 f2ba 383d 13bd 1134 86bc
00000350: 6559 58bc afb1 53bc 13be c9bc 332a febb
00000360: 322e 92bc 6f5f 93bc 77ec 9cbc 6b06 de3c
00000370: d19a 50bd 4b72 11bd f2c4 4ebc d269 80bb
00000380: 0c45 a4bc dd44 113c 84ce 0e3d e630 323c
00000390: 4e36 e63c 4ae7 183b 30f2 4f3d 2e7e 6d3d
000003a0: 762a e4bc 5efe 35bb 2bab c0bd a61b d93d
000003b0: 001c 2abd f855 93b9 0483 5cbc 12bd eebc
000003c0: 0b6d c33c 803e 2b3c 7962 b53c 8e74 973c
000003d0: 8e63 99bd fd67 2c3c 167d 803c 816d 9bbb
000003e0: 3f94 aebc 0ff8 a83c 1aeb 173d 4463 d7bc
000003f0: 4395 c23c 187b 113c 63c9 8abc 48c8 1cbc
0.031092456 0.03602647 -0.009616065 -0.01834085 -0.023725403 -0.0017749703 0.008245213 -0.044734813
-0.0047236364 -0.010949919 0.04090942 0.0079862205 -0.0038281558 -0.012135974 0.020596482 0.017721564
0.017117823 0.03303769 0.032037303 0.037183456 0.01626433 -0.02782461 0.02003625 0.013554446
-0.04168795 0.047011953 0.043829586 0.0007501855 0.041592654 0.006787243 -0.017118504 0.019652475
0.012863757 0.03506294 -0.0022847797 0.008156234 0.10111079 -0.022379454 -0.0348485 -0.001112307
0.020629482 0.035891704 0.0134812845 0.0007694886 0.03588895 -0.037640877 -0.007442186 0.042465106
-0.010071036 0.007995997 0.015195778 0.026423605 0.034288406 0.01326668 -0.031076169 -0.022267515
0.0076623387 0.046368483 -0.060298447 0.03296412 -0.06321841 0.005684308 0.026805608 -0.013475838
-0.049708184 0.041412856 -0.014569374 0.03574551 -0.02754969 0.0016197914 0.033857442 0.004281439
-0.0033786746 -0.004447125 0.08816472 -0.014340552 -0.005505476 -0.011220821 -0.02731103 0.016081985
0.035517868 0.022697998 -0.05472421 -0.019065378 -0.0036386575 0.030483589 -0.046700988 -0.035134923
0.020104047 -0.016281495 0.03045003 0.01714375 -0.0009513587 0.00205203 0.015046848 0.061390672
-0.03247614 -0.038574003 -0.013497676 0.049155112 -0.019032175 0.021087712 -0.040164344 0.05687799
0.024229815 0.016204976 0.02983214 -0.005525317 -0.03180524 0.019869147 -0.011429162 -0.008585784
0.05725871 -0.032044437 -0.051443346 0.024132699 0.0023737908 -0.022584122 -0.0009722659 -0.046749543
0.0049014622 0.029920906 0.014913871 0.030648842 0.009092367 -0.029164402 -0.00274441 -0.036289636
-0.032740906 -0.05437017 -0.015746923 0.027148565 0.023216804 -0.002292895 0.004991742 -0.013467582
-0.0040450795 0.05145623 0.013188225 -0.010512045 0.020418419 0.023175659 -0.04189716 -0.019189838
0.017980127 -0.013367281 -0.06873093 -0.022238228 -0.031526502 0.0068219937 -0.07731709 0.013646351
-0.03154941 0.022240171 -0.0072864424 0.06692315 0.052163497 -0.021530703 0.038639255 -0.0032386188
-0.0614222 0.03650214 0.00963943 -0.06830726 -0.0045977146 0.04275625 0.008861569 -0.029681789
-0.0038290282 -0.009627756 0.030956844 -0.035175428 0.030556252 0.060094047 0.016535575 -0.03083416
0.009112929 -0.00231066 0.03834747 0.026173294 -5.2973155e-06 -0.023957357 -0.0038053112 0.023124937
-0.014876815 0.022675304 -0.061414137 -0.0040690256 -0.00020391947 0.010207916 -0.022048393 -0.047088724
0.055323157 0.023084866 -0.0018296982 0.033272196 0.04731961 -0.020758227 0.0440595 0.017188832
-0.034742124 -0.010779518 0.032427143 0.03236431 0.03764601 0.013646817 -0.011539709 -0.0049784323
0.047902863 -0.00184874 -0.035947055 -0.01638225 -0.013204907 -0.012920781 -0.024626767 -0.0077564954
-0.017844293 -0.017989842 -0.019155724 0.02710267 -0.050928894 -0.03550939 -0.012620198 -0.0039188648
-0.020052455 0.008866516 0.034864917 0.010875916 0.028102066 0.0023331218 0.050768077 0.057981662
-0.027852278 -0.0027770023 -0.09407648 0.10600977 -0.04153061 -0.00028102077 -0.013458971 -0.02914289
0.023855707 0.010451913 0.022141682 0.018488195 -0.07489692 0.01052284 0.015684646 -0.0047432785
-0.021310924 0.020626096 0.037089445 -0.02629245 0.023752814 0.0088794455 -0.016941732 -0.009569235

cls2.0.bias f4 [6]
00000000: ff3b 8a3c 1b93 d93c 3ede bcbc 0f00 76bc
00000010: 3104 9abc 6de8 76bc
0.016874311 0.026559403 -0.023055192 -0.015014662 -0.018800827 -0.015070063

cls3.0.weight f4 [2, 768]
00000000: 0173 8d3d 5122 303d 2b48 d2bc 2020 89bc
00000010: 61cc e9bd 86b2 483d 0b34 35bd ece6 9bbb
00000020: 22e6 e33a a278 223e 922f 023c fc98 b43c
00000030: d339 81bd 43ee 18bd d532 bdbc 2444 ef3c
00000040: dbf4 5a3d e8df 673d 082c c23d 84e4 0bbd
00000050: 668f dcbd 76be e03d a5ff b63c 1384 aa3d
00000060: 791b 4cbd 5259 c93b 0c9b b3bd 46a8 063d
00000070: c3a5 d63a 44be 79bd 8d7e 36bd 97d9 843c
00000080: 7818 69bd a198 c93d 95af abbc 6744 1dbe
00000090: a85f 0b3d 0ec2 d73d b79c b73d 4991 60bd
000000a0: 10ed 823c 40b9 87bd dec4 a0be 9f49 a7bc
000000b0: 6347 5a3e b326 d5bc ded2 23bd 7fbb 39bd
000000c0: 9b77 74bd b9f7 09be 5ba7 bc3b ba29 e1bb
000000d0: aa45 033e 95b2 053d b803 6e3c af56 233e
000000e0: cf5a bfbd 98ad 5abd 0171 26be 60fc 703d
000000f0: 2f5c e3bc 86cf cf3c 3db6 30bd e771 9c3c
00000100: 330c 223e a1c4 0b3e 971b c0bc b0ec 1a3d
00000110: 31b3 673e c4cd cabd 1cb5 eebd 434f 1c3d
00000120: c3bc 953d e84f ff3d a11f 863d 4fae d43c
00000130: 5651 1dbd 646d a7bd 360c 8dbd 34a3 2c3d
00000140: 3318 af3c f146 8f3d bed7 973e d65a 9c3b
00000150: 5716 d83a 41c8 d5bb 95db 9fbd 158c 023d
00000160: ec0a 003d bafb 8e3d dcb4 1d3d 5619 893d
00000170: 1135 1e3d 982a 3b3e e274 94bd fe0d 86bc
00000180: e588 4dbc c66a 4a3c f515 0fbb 2c0e 3b3d
00000190: 0784 c6bd e91a b1bd 40cf e1bd 5cdb d3bd
000001a0: 6a1a e0bd f102 ac3c 270a 893d 44f1 5f3e
000001b0: a135 8e3c a94d e33d 45c2 f63c 1b51 6abd
000001c0: c10a 1ebe 95f3 3a3d 45ce 2cbd ecc3 283d
000001d0: 4e97 513d 0943 963e 3773 0b3d f4c9 79bc
000001e0: 3407 7ebe 1c72 413d 52fc 6d39 0168 99bb
000001f0: e745 1abe d034 7cbc 2769 983a 60ba 963e
00000200: a95c 943c 5381 443e ecf4 a9bd c7df ddbc
00000210: 3cc6 01be 60ed c33c 816a 0abe 533c c13c
00000220: f282 f73c 9d0a a43d 24b7 3ebd 0e37 913d
00000230: 2311 af3d a572 95bd 2c27 5a3c fb24 873d
00000240: 2f20 f9bc a525 69bd 57a7 573d 5287 f7bc
00000250: be4a 663c 9cc9 06bd ece5 a2bb c270 84be
00000260: 36f7 c73d b785 f9bc 2dfe 1f3e 0e38 5cbc
00000270: af2f 1e3e 7f7e 93bd adca d33c ef04 ad3d
00000280: ace8 b8bc 5fa1 9c3c 02ff 923d 5394 b53d
00000290: 47a4 37bc f116 64bd 34f9 6cbd dab3 5fbd
000002a0: d431 11bd ccfb 573d 7b38 903e 55ac b0bd
000002b0: ef91 0ebb 0307 1b3d 8dd0 e1bd 094a fc3d
000002c0: 0aba 9dbc e815 8cbc 4b8b a7bc e528 d63c
000002d0: 4eb4 dfbc 4ae0 6a3d 42dc 303d c402 a73d
000002e0: 60a9 d83c 6303 143d 134c 07bd 463d 423b
000002f0: 6856 df3c fede 0bbe 7950 3bbe baf7 9f3e
00000300: c487 86bd f123 04bd ecca 87bc 29f7 34bd
00000310: eb6b 403d d636 d93d 1748 06be c3b4 4cbb
00000320: 0c48 28be 29c9 e1ba 1137 aa3d 5ac9 c63c
00000330: f5ba 0bbe 0099 753d f52b ba3d 6301 fcbd
00000340: 7943 2d3d 590c 54bd 4bf9 f8bd 0af6 f5bc
00000350: 2ebc a43c eafe 08bb 009a 713d 8359 fe3c
00000360: 60d4 c1bc 78ac bcbc 1b5d a1bd 61ce 09be
00000370: 7c5e bc3c 2478 9f3e 1689 d73d 5996 aa3d
00000380: 6547 0bbc 5e38 0bbc afc8 f83c e526 9ebd
00000390: acae a9bb 975e b83d aaca 57be 56b7 f33c
000003a0: b1b1 213e 5b93 e9bd 9d50 4c3e bf43 1cbe
000003b0: 31d2 713e e09c 56bd 059e 513e 4a1b 47bc
000003c0: 309e 10be 9940 a43c 00a6 063e e218 c73c
000003d0: 6d02 253a aa62 9aba 9fcc 38bc 12e0 33bd
000003e0: 7d20 76bd 824b 4cba 1481 adbd d7be 833e
000003f0: 9c8c 543d a857 99bd 361f 74be 11b4 7abd
0.06906701 0.043001477 -0.025669178 -0.016738951 -0.11415935 0.04899838 -0.044239085 -0.0047577526
0.001738731 0.1586633 0.007945912 0.022045605 -0.06309857 -0.0373366 -0.023095528 0.029207297
0.05345617 0.056610018 0.094810545 -0.034153476 -0.107695386 0.109738275 0.022338698 0.083259724
-0.049830887 0.006144681 -0.08769807 0.03287532 0.0016376305 -0.060972467 -0.044554282 0.016217036
-0.0569081 0.09843565 -0.020957747 -0.15358125 0.03402677 0.1053506 0.08965438 -0.054826055
0.01598218 -0.066271305 -0.31400198 -0.020420847 0.21316294 -0.02601943 -0.03999602 -0.045344826
-0.059684377 -0.13473405 0.005757255 -0.0068714293 0.12819543 0.032641012 0.014527254 0.15951036
-0.09343492 -0.05338821 -0.16254045 0.058834434 -0.027753918 0.02536751 -0.043142546 0.019097282
0.15824966 0.13649227 -0.023450656 0.03782338 0.2262695 -0.09902528 -0.116556376 0.038161527
0.07311394 0.12466413 0.065490015 0.025962023 -0.038407646 -0.081751615 -0.06887095 0.04214783
0.021373844 0.06995953 0.29656786 0.0047715707 0.001648615 -0.0065241163 -0.07805554 0.031871874
0.031260416 0.06981607 0.03850256 0.066942856 0.038624827 0.18277967 -0.07248856 -0.016364094
-0.012544845 0.012354558 -0.0021833156 0.045667812 -0.09693151 -0.08647711 -0.11025858 -0.10344574
-0.10942538 0.020997496 0.066913895 0.2186938 0.017359557 0.11098797 0.030121932 -0.057206254
-0.1543379 0.045642454 -0.0421889 0.04120247 0.051169686 0.2934802 0.034045424 -0.015245903
-0.24807435 0.047227964 0.00022696078 -0.0046815877 -0.15065728 -0.015393451 0.0011628018 0.29439068
0.01811059 0.19189958 -0.08298668 -0.027084244 -0.12673277 0.0239169 -0.1351719 0.023588335
0.030213807 0.08009837 -0.046561375 0.07090579 0.085481904 -0.07297257 0.013315003 0.0659885
-0.030410854 -0.056920666 0.052649822 -0.030215893 0.014055906 -0.032907113 -0.0049712565 -0.25867277
0.097639486 -0.030459268 0.15624304 -0.013441099 0.15447877 -0.072018616 0.02585348 0.08448207
-0.022571884 0.019119916 0.07177545 0.08866181 -0.0112086 -0.05568594 -0.057854846 -0.05461488
-0.03544791 0.052730367 0.2816809 -0.0862662 -0.0021754464 0.037848484 -0.11026106 0.123188086
-0.01925375 -0.01710029 -0.020452162 0.026142547 -0.027307656 0.057342805 0.043178804 0.081548244
0.026447952 0.036136042 -0.033031534 0.0029638573 0.027262881 -0.13659284 -0.18292417 0.31243688
-0.06568864 -0.03226084 -0.016576253 -0.044181023 0.04697792 0.10606162 -0.13113438 -0.0031235672
-0.16433734 -0.0017226088 0.08311284 0.024265934 -0.13645537 0.059960365 0.090904154 -0.12304952
0.042300675 -0.05176959 -0.12156924 -0.030024547 0.020109262 -0.0020903894 0.058984756 0.031048542
-0.023660839 -0.023031458 -0.078790866 -0.13457634 0.022994272 0.31146348 0.10524194 0.08329458
-0.0085009085 -0.008497326 0.03036913 -0.07722262 -0.005178293 0.090024166 -0.21073404 0.029750507
0.1579044 -0.11405059 0.19952627 -0.15260218 0.23615338 -0.0523957 0.20470436 -0.012152502
-0.14122844 0.020050334 0.13149261 0.024303857 0.0006294612 -0.0011778672 -0.011279254 -0.043914862
-0.060089577 -0.0007793234 -0.08471885 0.25731537 0.051891908 -0.07487422 -0.23840031 -0.06120688

cls3.0.bias f4 [2]
00000000: b16d 573b 674f 54bc
0.0032871778 -0.012958384
