CLIP/saved_models/model_CLIP-16_CLIP_2024-0508_weights.pth (torch, 40042 bytes, 6 tensors)

cls1.0.weight f4 [10, 512]
0	0xbe1ded8f	-0.15422653
1	0xbd2e32dc	-0.042528972
2	0xbce904f1	-0.028444739
3	0xbd67349c	-0.056446657
4	0xbdbfcb2d	-0.093649246
5	0x3e1e6748	0.15469086
6	0xbd8bb465	-0.06821517
7	0xbdc25ac1	-0.09489966
8	0xbe6be8e8	-0.23038065
9	0xbcaf81e2	-0.021424238
10	0x3d076e37	0.033064093
11	0xbb628696	-0.0034565083
12	0xbcdb901a	-0.026802111
13	0xbe15e2cd	-0.14637299
14	0xbda3596c	-0.0797604
15	0xbe4998f8	-0.19687259
16	0xbd96623c	-0.073429555
17	0xbd3b9299	-0.045794103
18	0xbcaa2232	-0.020768259
19	0xbcda907b	-0.026680222
20	0xb86bd68a	-5.622817e-05
21	0x3d8ded7b	0.069300614
22	0x3df3b1cf	0.11899149
23	0xbe2c7ff9	-0.16845693
24	0x3d88fa82	0.066884056
25	0xbc9f426c	-0.019440852
26	0xbd331511	-0.043721262
27	0x3cacfee2	0.021117631
28	0x3da1004f	0.07861387
29	0x3dbe77d1	0.09300197
30	0xbc9f13a7	-0.01941855
31	0xbcbaa3b9	-0.022783147
32	0x3e08cbb8	0.13358963
33	0x3d8404af	0.06446206
34	0x3cda4b0b	0.026647111
35	0x3dbc2323	0.09186389
36	0xbd23cfd0	-0.039993107
37	0x3b81de45	0.003963264
38	0x3d05ae3f	0.032636877
39	0xbd5f23ea	-0.05447761
40	0x3e9661ba	0.29371434
41	0x3de8d7b4	0.11369267
42	0x3d69d81d	0.057090867
43	0xbcf4a16f	-0.029862134
44	0x3d76a657	0.060217228
45	0x3db91161	0.09036518
46	0xbdd56700	-0.10420036
47	0x3e23078c	0.15920848
48	0x3db66cdb	0.08907481
49	0x3e88921d	0.26673976
50	0x3e1184cb	0.14210813
51	0xbcf9e309	-0.030503767
52	0xbcbcf94d	-0.023068095
53	0xbe1b0163	-0.15137248
54	0x3dee3f4d	0.116331674
55	0x3ca0c7ae	0.019626465
56	0xbd85a4dd	-0.06525586
57	0x3d917b16	0.07103555
58	0x3d9984ad	0.07496009
59	0x3e0524a2	0.13002256
60	0x3d531faa	0.05154387
61	0x3c64e2a0	0.013970047
62	0xbdc3cdff	-0.09560775
63	0x3dd26841	0.10273791
64	0xbdd44551	-0.103647836
65	0x3e3f22d0	0.18665624
66	0x3d464988	0.04840997
67	0x3d5cf4f6	0.05394455
68	0xbca3d052	-0.019996796
69	0x3e15e6f1	0.14638878
70	0x3e12392e	0.14279625
71	0x3d9b53c8	0.075843394
72	0x3d92a84b	0.071610056
73	0xbd860b5e	-0.06545137
74	0x3dac01a1	0.08398748
75	0x3d117192	0.0355087
76	0x3d4c5f17	0.049895372
77	0xbdb76fd6	-0.08956878
78	0xbd369cab	-0.044583004
79	0xbca93a6f	-0.020657746
80	0xbe0f11f1	-0.13971688
81	0x3ce20a7b	0.027592888
82	0x3d86f92c	0.065904945
83	0x3d785a64	0.06063308
84	0x3c959f5a	0.018264461
85	0xbd9a38c0	-0.075303555
86	0x3bc0290b	0.0058642677
87	0x3dbbe9de	0.09175466
88	0x3ce2d67d	0.027690167
89	0x3e283957	0.16428123
90	0xbaebf94d	-0.0018003375
91	0x3e26fee0	0.16308165
92	0xbe1d0b18	-0.15336263
93	0xbd4f0bfa	-0.05054853
94	0xbba2108a	-0.0049458193
95	0xbe239266	-0.15973815
96	0xbd7315c8	-0.059346944
97	0xbbc5c0aa	-0.0060349302
98	0x3d5b2d07	0.05350974
99	0xbdafc02d	-0.085815765
100	0x3d5beeea	0.053694643
101	0x3cef9885	0.029247532
102	0xbc58643f	-0.013207494
103	0xbcc5a414	-0.02412609
104	0x3c8a76c2	0.016902331
105	0x3e04b3e1	0.12959243
106	0x3c1c1634	0.009526778
107	0xbd30028d	-0.042971183
108	0x3e0a09b5	0.13480265
109	0x3d534b1e	0.05158531
110	0xbe0e10bc	-0.13873571
111	0x3d85d753	0.065352105
112	0x3e04f2ca	0.12983242
113	0xbd781066	-0.060562514
114	0xbddfb3b7	-0.1092295
115	0xbd248248	-0.04016331
116	0x3d71a518	0.058995336
117	0x3eadc91e	0.33942503
118	0xbd08c26a	-0.033388533
119	0x3d541561	0.0517782
120	0x3c13523b	0.008991773
121	0xbae997ab	-0.001782169
122	0xbdc5cf78	-0.09658712
123	0x3d1e3071	0.038620416
124	0xbdc9b446	-0.098488376
125	0xbd348189	-0.044068847
126	0xbc51c1fc	-0.012802597
127	0x3d6f821a	0.058473684
128	0x3cd25a0d	0.025677705
129	0xbdc891cd	-0.09793434
130	0x3e8754ee	0.26431984
131	0x3e3a1031	0.18170239
132	0x3d17d2fc	0.037066445
133	0x3ca15706	0.019694816
134	0x3d704f73	0.05866952
135	0xbdc23d3d	-0.094843365
136	0x3d5ce0b1	0.05392522
137	0xbdfaae54	-0.12240282
138	0x3d828ed9	0.06374902
139	0xbd3cbbd0	-0.04607755
140	0xbd846ad8	-0.06465691
141	0xbd4ab710	-0.04949099
142	0x3cf94e17	0.030432744
143	0xbe06d40f	-0.13166831
144	0x3db9218c	0.09039602
145	0x3d18f8fe	0.037346832
146	0x3e4c2316	0.19935259
147	0xbda15051	-0.07876647
148	0x3e65a3c5	0.22425754
149	0x3d4f8ef9	0.05067346
150	0x3d49f661	0.04930723
151	0x3d796d33	0.060895156
152	0x3de5556d	0.11197934
153	0x3d876887	0.06611734
154	0xbd8982b3	-0.06714382
155	0xbde0e6bb	-0.10981508
156	0x3e320da4	0.17388016
157	0xbd95912d	-0.07303081
158	0x3c339be4	0.01096246
159	0xbe0574dd	-0.13032861
160	0xbe04cc80	-0.12968636
161	0xbd08c408	-0.033390075
162	0x3d378aa8	0.044809967
163	0x3d2e288f	0.04251915
164	0xbddbfd36	-0.107416555
165	0x3d032f6a	0.03202764
166	0x3d8d8fc5	0.069121875
167	0x3d8b4373	0.06799974
168	0x3db571a7	0.08859568
169	0x3d4ca01b	0.049957376
170	0x3a256349	0.0006309045
171	0xbd1771ee	-0.036973886
172	0xbc6ebdae	-0.01457159
173	0x3dc94bce	0.09828912
174	0x3c612e57	0.013743958
175	0x3b4ecbce	0.0031554583
176	0xbd85f276	-0.065403864
177	0x3e0359a8	0.1282717
178	0xbdec4063	-0.11535718
179	0xbe191c78	-0.14952266
180	0xbe0665ff	-0.13124846
181	0x3e10f4f1	0.14155938
182	0x3cc2bf1b	0.023772767
183	0xbd41d3a5	-0.04732098
184	0x3dd9fc51	0.10643829
185	0xbc28989b	-0.01029029
186	0x3bf31a9c	0.0074189436
187	0xbd7da1cf	-0.06192189
188	0xbdcfd400	-0.10147858
189	0xbc9588ee	-0.01825377
190	0x3da7a242	0.08185245
191	0x3d58e577	0.05295321
192	0xbe40200c	-0.18762225
193	0xbc183134	-0.009289075
194	0x3e092a42	0.13395026
195	0xbde3cd56	-0.11123149
196	0xbd964d99	-0.07339019
197	0x3c1b67ce	0.009485198
198	0xbe174727	-0.14773236
199	0x3ca2ef70	0.019889563
200	0xbe339daa	-0.17540613
201	0xbd678baa	-0.05652968
202	0xbc8b7acf	-0.017026333
203	0x3abec66b	0.0014554983
204	0xbcfac5d1	-0.030611904
205	0xbda66fdf	-0.081268065
206	0xbd0b973c	-0.034079775
207	0xbd3b6e5c	-0.045759544
208	0xbd62b0a1	-0.055344228
209	0xbd78db26	-0.06075587
210	0xbd3c04d8	-0.045903057
211	0x3d88f32a	0.06687005
212	0x3d74cdc7	0.059766557
213	0x3dd942fd	0.1060848
214	0x3d506306	0.050875686
215	0x3d33c797	0.043891516
216	0xbca5f2f5	-0.020257453
217	0xbdf888de	-0.1213548
218	0x3b0d3b65	0.0021550294
219	0x3ba7cade	0.005120619
220	0xbd838fc0	-0.064239025
221	0x3d8982de	0.06714414
222	0xbdcc7e56	-0.09985034
223	0x3cfae0ec	0.03062483
224	0xbd4ef021	-0.050521974
225	0x3daa9e97	0.0833103
226	0x3da58c5b	0.08083411
227	0xbdc506cf	-0.09620439
228	0x3e0affe6	0.1357418
229	0xbcc46a91	-0.023976596
230	0x3cace057	0.021103067
231	0xbdfebcc7	-0.1243835
232	0x3a1e18cd	0.0006030917
233	0xbd771344	-0.060321108
234	0x3e03b3b7	0.12861525
235	0x3c426747	0.011865444
236	0xbd659a4f	-0.056055363
237	0x3dbaf512	0.09128775
238	0x3b4dcc13	0.0031402155
239	0xbe10a6c3	-0.14126115
240	0xbc0d3915	-0.008619566
241	0xbe3215b9	-0.17391099
242	0x3bd7e676	0.0065887524
243	0xbd15a007	-0.036529567
244	0xbd079840	-0.03310418
245	0x3c896a4c	0.01677432
246	0xbe0a4502	-0.13502887
247	0x3cf6b70d	0.030116582
248	0x3d88c7f5	0.06678764
249	0x3c89e87a	0.016834486
250	0xbe965346	-0.29360408
251	0x3e665df0	0.22496772
252	0x3dafe45d	0.08588479
253	0xbcea1183	-0.028572803
254	0x3c910baa	0.017705757
255	0x3c768207	0.015045649

cls1.0.bias f4 [10]
0	0xbcf8e214	-0.03038124
1	0x3cc6ec63	0.02428264
2	0x3ce90660	0.028445423
3	0x3c0f78bd	0.008756814
4	0x3ca41728	0.020030573
5	0x3b32fac2	0.0027310108
6	0xbc836885	-0.01604105
7	0xbd39afb2	-0.04533357
8	0xbcd2afb0	-0.02571854
9	0xbd2c5db0	-0.042081535

cls2.0.weight f4 [6, 512]
0	0x3c4a4239	0.01234489
1	0x3cac7db8	0.021056041
2	0x3c5096c2	0.012731256
3	0xbd37eb7d	-0.044902314
4	0xbbbdcd4e	-0.0057922965
5	0x3c0d2a84	0.008616094
6	0xbc06db96	-0.008231064
7	0x3c1586ff	0.009126424
8	0x3c921f18	0.017837092
9	0x3d7278c8	0.059197217
10	0xbd1e4fd6	-0.038650356
11	0x38f60860	0.00011731754
12	0xbd1cc7bf	-0.03827643
13	0xbd0194e3	-0.03163613
14	0x3c0dd066	0.008655643
15	0xbd76248d	-0.06009345
16	0x3c5911ed	0.013248903
17	0x3ccb4403	0.024812704
18	0x3c7366d8	0.014856063
19	0xbc86bc00	-0.016447067
20	0xbb3b47f2	-0.0028576818
21	0x3d72a8b0	0.059242904
22	0x3ce668d8	0.028126165
23	0x3cb1cff7	0.02170561
24	0xbc82700e	-0.015922572
25	0x3a558055	0.0008144428
26	0xbd1c0396	-0.038089357
27	0xbb3fd98f	-0.0029273962
28	0xbc834c34	-0.016027547
29	0x3d5f3dbd	0.054502238
30	0x3ca425e9	0.020037608
31	0xbd35baa5	-0.04436745
32	0xbd75e293	-0.06003053
33	0xbc3b925a	-0.011448467
34	0x3d0a8532	0.03381843
35	0xbd3f4246	-0.046694063
36	0x3d454f4e	0.048171334
37	0x3c25c92c	0.010118764
38	0xbb483941	-0.0030551704
39	0xbc190a72	-0.009340869
40	0x3c9c2034	0.019058324
41	0x3c9b1d9d	0.01893502
42	0x3d2bd52a	0.041951336
43	0xbceb1ef0	-0.028701276
44	0xbc0a800f	-0.008453383
45	0x3cfe7478	0.031061396
46	0xbd1092b1	-0.035296146
47	0x3c8d91c3	0.017281419
48	0x3c909351	0.017648371
49	0xbcee17a2	-0.029064003
50	0xbc1018be	-0.0087949615
51	0xbc82ee44	-0.015982755
52	0x3cd3540b	0.02579691
53	0xbce638fe	-0.028103348
54	0x3cbb9128	0.022896364
55	0xbcfcdc2e	-0.030866709
56	0xbbed70bb	-0.0072461045
57	0x3c638647	0.013886995
58	0x3d1d4e4e	0.038404755
59	0xbc8b7751	-0.017024668
60	0x3c0a203b	0.008430536
61	0xbbab6206	-0.005230191
62	0xbc34741e	-0.011014013
63	0x3c0ede88	0.008720048
64	0x3aebd5b7	0.0017992769
65	0xbd44a2fe	-0.048007004
66	0x3c4d4881	0.012529493
67	0x3cb1a87d	0.021686787
68	0xbbe16b05	-0.006879213
69	0xbd79bb89	-0.060969863
70	0x3cb5ea68	0.0222065
71	0xbd193895	-0.037407476
72	0x3d27ef81	0.040999893
73	0x3c1fbed5	0.009750088
74	0x3b173517	0.0023072415
75	0xbce0e1a0	-0.027451336
76	0xbd4d1aee	-0.05007451
77	0xbcbd5edb	-0.02311652
78	0x3c9bf5a2	0.019038025
79	0xbd2d8f99	-0.042373274
80	0xbccfc379	-0.025361763
81	0xbd26bd60	-0.040707946
82	0x3cb0d0f7	0.021584017
83	0x3d231ae1	0.039820556
84	0xbc88fe89	-0.016722934
85	0x3be65ded	0.00703024
86	0xbcbb9833	-0.022899723
87	0xbbdf9a01	-0.0068237786
88	0xbd474f17	-0.04865941
89	0x3cc5d592	0.02414969
90	0xbcc9b92f	-0.024624435
91	0xbcb0e524	-0.021593638
92	0x3ceb56c9	0.028727906
93	0x3b93f1b4	0.0045148972
94	0x3cb16b39	0.021657573
95	0x3cf6b6f3	0.030116534
96	0x3d2501e8	0.04028502
97	0xbd000763	-0.031257045
98	0x3c9fd689	0.019511478
99	0xbd1d79b4	-0.038446143
100	0x3cccfad4	0.025021948
101	0x3cb9fa65	0.022702405
102	0x3c52cfa5	0.012866889
103	0xbc3e9ef8	-0.011634581
104	0x3d1f0052	0.038818665
105	0x3c10486e	0.008806331
106	0x3cc15c53	0.023603594
107	0x3d0a625f	0.03378522
108	0x3d37c907	0.04486945
109	0xbd4b3f90	-0.049621165
110	0x3bd28d53	0.0064255386
111	0x3d18d793	0.037314963
112	0x3c61e0ca	0.013786504
113	0xbc988e4c	-0.01862254
114	0xbcaf7ea8	-0.0214227
115	0x3b502079	0.0031757636
116	0x3ce8a5f6	0.028399449
117	0x3cdc30bf	0.026878713
118	0x3cc1e866	0.023670387
119	0x3ca4e8bb	0.020130506
120	0x3a7b142d	0.00095778966
121	0x3b5716a5	0.0032819894
122	0xbcc00e83	-0.02344442
123	0x3c6dc054	0.014511187
124	0x3d299ee8	0.04141131
125	0xbd155144	-0.036454454
126	0xbc4211d8	-0.011845075
127	0xbd49c053	-0.04925568
128	0xbb14669c	-0.0022644168
129	0xbd4cd121	-0.05000413
130	0xbd44e77d	-0.048072327
131	0xbd19cde0	-0.037549853
132	0xbb7aee6e	-0.0038289088
133	0x3d279862	0.040916808
134	0x3caa89cf	0.020817665
135	0xbca80c4c	-0.020513676
136	0xbd1142ac	-0.035463974
137	0x3d27fded	0.041013647
138	0x3cc560d8	0.02409403
139	0xbb23a2bc	-0.0024968823
140	0xbd4c6362	-0.049899466
141	0x3d01517f	0.03157186
142	0xbd23049e	-0.039799325
143	0xbcb893c7	-0.022531403
144	0x3c603423	0.013684305
145	0x3d194e0f	0.037427958
146	0x3cee7a4e	0.029111054
147	0x3c7927eb	0.015207271
148	0xbce8728c	-0.028374933
149	0xbc9a74ec	-0.01885458
150	0x3d11e184	0.03561546
151	0x3ce32d3b	0.027731529
152	0x3d1620d2	0.036652394
153	0xbc13a4a1	-0.009011419
154	0xbce5225c	-0.027970485
155	0xbd092499	-0.033482168
156	0xbcb7442f	-0.02237138
157	0xbc874eee	-0.016517129
158	0xbceb8e68	-0.028754428
159	0xbc90c868	-0.017673686
160	0xbca16735	-0.019702533
161	0x3c9ee713	0.019397294
162	0xbbf0e4b5	-0.0073514828
163	0xba81446d	-0.0009862311
164	0xbd156174	-0.03646989
165	0xbca5e7b3	-0.020252084
166	0x3d27b056	0.04093965
167	0x3cec5094	0.028847016
168	0x3d029b35	0.0318863
169	0x3d2bb880	0.041924
170	0xbd2c57cb	-0.042075913
171	0x3c99c7cc	0.018772028
172	0x3d3c399a	0.04595337
173	0xbcb83e78	-0.022490725
174	0xbcb0fb23	-0.021604126
175	0x3d742820	0.05960858
176	0xbc3a09aa	-0.011354843
177	0xbc935871	-0.017986508
178	0x3d383a52	0.044977494
179	0xbd3d232b	-0.046176117
180	0x3cfc2bfe	0.030782696
181	0xbbf8e6d4	-0.007595876
182	0x3b263dde	0.0025366466
183	0xbd0b6714	-0.03403385
184	0x3cbace2a	0.022803385
185	0x3c9f4d20	0.019445956
186	0xbd38676b	-0.045020502
187	0x3ce7b4fe	0.028284546
188	0x3d603c34	0.054744914
189	0x3cdd67c0	0.02702701
190	0x3b3c508c	0.0028734533
191	0x3c5a15dd	0.013310877
192	0x3ca6cb87	0.020360721
193	0xbd42c45f	-0.047550555
194	0x3cee0d9b	0.029059222
195	0x3d11a866	0.035560988
196	0x3d487865	0.048942942
197	0xbab74d31	-0.0013984797
198	0xbc8435a5	-0.016138861
199	0x3a9237de	0.0011155566
200	0x3d4a32f8	0.049365014
201	0x3c4b98d3	0.012426573
202	0xbcb7fef3	-0.022460436
203	0xba4c0615	-0.0007782889
204	0xbca6f669	-0.02038117
205	0x3d2a643a	0.04159949
206	0xbc425911	-0.011862055
207	0x3cef4eeb	0.029212436
208	0xbd25e835	-0.040504653
209	0x3c886e64	0.0166542
210	0x3ac48cea	0.0014995609
211	0x3cd1b1ba	0.025597442
212	0x3ca55497	0.020181937
213	0xbd01726a	-0.031603254
214	0x3b804ccb	0.0039154044
215	0xbd222f2b	-0.039595764
216	0x3d13002d	0.03588884
217	0xbc8abea1	-0.016936602
218	0x3d307c68	0.043087393
219	0x3d387d09	0.045041118
220	0xbc86fb5f	-0.016477285
221	0xbc8bf31c	-0.017083697
222	0x3bccee83	0.0062540188
223	0x3c88fbfe	0.016721722
224	0x3d366b92	0.04453618
225	0x3cd0dfca	0.025497336
226	0x3d0c3c8c	0.03423743
227	0xbbb64344	-0.005562218
228	0x3cfd5876	0.03092597
229	0x3c9f339f	0.019433795
230	0x3c83426c	0.016022883
231	0x3c48f462	0.012265297
232	0xbcee1579	-0.029062973
233	0x3c943c8d	0.01809528
234	0xbd4b5c1a	-0.04964838
235	0x3cb8d35e	0.022561725
236	0x3cad4f14	0.021155871
237	0x3d710bb6	0.05884906
238	0x3bba5c28	0.0056872554
239	0x3cf6d898	0.030132577
240	0x3c923a49	0.017850058
241	0xbc3e4275	-0.011612524
242	0xbd068e1c	-0.03285037
243	0x3d18e332	0.037326045
244	0x3c77e2d2	0.015129762
245	0x3c98eb7a	0.018666971
246	0xbce93c5b	-0.028471163
247	0xbd1760bc	-0.036957487
248	0xbcb7f387	-0.02245499
249	0x3d0b256a	0.033971228
250	0x3d06d2ba	0.03291581
251	0xbc66c4d7	-0.014085016
252	0x3c6f0dc5	0.014590685
253	0x3c38df40	0.011283696
254	0xbc7f3c02	-0.015578272
255	0xbb5703a3	-0.0032808564

cls2.0.bias f4 [6]
0	0x3be7a68b	0.007069414
1	0xbc68130e	-0.014164699
2	0x3c2dfd82	0.010619523
3	0x3cf57121	0.02996117
4	0xbd0db922	-0.034600385
5	0x3b3e9733	0.002908182

cls3.0.weight f4 [2, 512]
0	0xbbb75c6d	-0.005595735
1	0xbdefc800	-0.11708069
2	0x3da12080	0.07867527
3	0x3d82c3e9	0.06385023
4	0x3db4d12d	0.088289596
5	0xbbb157e8	-0.0054120906
6	0x3d2d734d	0.042346288
7	0x3d99ec19	0.07515735
8	0x3cdd80c0	0.027038932
9	0xbe31c2af	-0.17359422
10	0xbdc1e4a2	-0.094674364
11	0xbd0c65a2	-0.034276612
12	0x3b8323b1	0.0040020575
13	0x3e029a75	0.12754233
14	0xbcf21e19	-0.029555367
15	0xbb76b090	-0.003764186
16	0x3c0bafbb	0.008525784
17	0x3d9073a7	0.07053309
18	0xbc561c80	-0.013068318
19	0xbcc20c56	-0.023687523
20	0x3ce187c0	0.027530551
21	0x3e0a30ed	0.13495226
22	0xbc684fe8	-0.014179207
23	0xbd5844f2	-0.052800126
24	0x3e0952c7	0.13410483
25	0xbbc5912a	-0.006029268
26	0x3da639ae	0.0811647
27	0xbd391a58	-0.04519114
28	0x3d49b046	0.049240373
29	0xbd991737	-0.07475131
30	0x3dcaf9ca	0.09910925
31	0xbdd4ecb5	-0.10396711
32	0x3c6fa6a4	0.014627133
33	0xbcf49f97	-0.029861255
34	0xbd7f0f54	-0.062270477
35	0x3b53d62e	0.0032323706
36	0xbcdabde1	-0.02670187
37	0xbdaa53a7	-0.08316737
38	0x3d1b620d	0.037935305
39	0xbd9ce246	-0.07660346
40	0x3c011eed	0.007880908
41	0xbc87cc45	-0.016576895
42	0xbe19fd9b	-0.15038149
43	0x3c2f7101	0.010708095
44	0x3d1ea54f	0.03873187
45	0x3da83236	0.08212702
46	0x3dd99a90	0.106251836
47	0xbc891626	-0.016734194
48	0x3c8610a8	0.016365364
49	0x3c1b9dcf	0.009498074
50	0xbbbbabf1	-0.005727284
51	0xbc7ef1d2	-0.015560584
52	0x3d8b37b9	0.06797738
53	0xbd55e029	-0.05221573
54	0x3d216f7a	0.039412953
55	0x3dff9afa	0.12480731
56	0x3b7d9cda	0.0038698227
57	0x3d523e5c	0.051329
58	0x3c1c9b80	0.009558558
59	0x3ca1b5f3	0.01974008
60	0xbd4057b1	-0.04695863
61	0xbc5ae858	-0.013361059
62	0x3d2e86e0	0.042609096
63	0x3e0ea260	0.13929129
64	0xbd78f236	-0.060777865
65	0x3d54b2c8	0.05192831
66	0x3d99d5fa	0.07511516
67	0x3d20d519	0.039265726
68	0x392a495f	0.00016239796
69	0x3d50c502	0.05096913
70	0x3d11e85a	0.03562198
71	0xbca65b26	-0.020307135
72	0x3d97c33c	0.07410285
73	0xbd31c14f	-0.043397244
74	0x3cd19677	0.025584443
75	0xbccf95fd	-0.025340075
76	0xbda99d63	-0.08281972
77	0x3c1da281	0.0096212635
78	0xbdd86c05	-0.10567478
79	0xbcc65458	-0.02421014
80	0x3d336e9c	0.043806657
81	0xbcd617a0	-0.026134312
82	0xbdb02a4d	-0.08601818
83	0xbc21b24d	-0.00986917
84	0x3c8b674d	0.017017031
85	0x3c6e806c	0.014556985
86	0xbd0a4a80	-0.033762455
87	0xbc6480d7	-0.013946733
88	0x3c402178	0.01172673
89	0xbd859fc6	-0.06524615
90	0x3c2cd5e7	0.010549045
91	0x3d58b4b6	0.052906714
92	0xbd1a945c	-0.037739143
93	0xbd3d2263	-0.04617537
94	0x3d87ca65	0.066304006
95	0x3d8fb96b	0.070177875
96	0x3c845dac	0.016157947
97	0x3da842d1	0.08215869
98	0x3d75d41a	0.06001673
99	0x3e13773f	0.14400958
100	0x3d771bc2	0.060329206
101	0x3d2a75ef	0.041616376
102	0xbe074a4b	-0.13211934
103	0xbd53557d	-0.0515952
104	0xbd85d9cc	-0.06535682
105	0x3cf4df6f	0.029891698
106	0x3d0af6cf	0.03392678
107	0x3b5b2201	0.0033437016
108	0xbd92b41a	-0.07163258
109	0x3d7f611e	0.062348478
110	0xbc2a38dd	-0.010389534
111	0x3d5926db	0.05301557
112	0xbd0cebc9	-0.03440455
113	0x3d4b7521	0.04967225
114	0x3c30df40	0.010795414
115	0x3c8e30ef	0.017357318
116	0x3d53a62b	0.051672142
117	0x3ce95f7d	0.028487915
118	0x3e15fc33	0.14646988
119	0x3c77bb5e	0.015120355
120	0x3e68c98b	0.22733133
121	0xbc1215e8	-0.008916356
122	0xbd7921b9	-0.060823176
123	0x3dc07544	0.09397367
124	0x39422c6f	0.00018517835
125	0x3d1a3718	0.037650198
126	0xbc913785	-0.01772667
127	0xbc6714e8	-0.0141041055
128	0x3d18dcfe	0.03732013
129	0x3b7ec58d	0.0038875074
130	0xbdbb4b75	-0.09145252
131	0x3d60bfa9	0.05487028
132	0x3c16ca9d	0.00920358
133	0xbd42d1a2	-0.047563203
134	0x3d03a7c0	0.0321424
135	0xbd264a94	-0.040598467
136	0xbdb19680	-0.08671284
137	0xbc4c36e9	-0.0124642635
138	0xbd209ca5	-0.039211888
139	0x3d8516eb	0.06498512
140	0xbda2ae04	-0.07943347
141	0x3d8b0cbb	0.067895375
142	0xbbdc98a7	-0.0067320648
143	0xbd011417	-0.0315133
144	0x3a72c989	0.00092615985
145	0x3d94b7e1	0.072616346
146	0x3d0b62cb	0.034029763
147	0x3b6feb59	0.0036608784
148	0xbc89137b	-0.016732922
149	0xbdc665f4	-0.09687415
150	0xbc8346bc	-0.01602494
151	0xbca4a8df	-0.020100055
152	0xbc5c47cf	-0.013444855
153	0x3ca5da53	0.020245707
154	0x3d8db4ab	0.06919225
155	0xbd14f68d	-0.03636794
156	0xbc08e37f	-0.008355021
157	0xbc69ac27	-0.014262236
158	0xbc674545	-0.014115636
159	0xbde447d7	-0.11146515
160	0xbda5a650	-0.08088362
161	0xba8ebaca	-0.0010889408
162	0xbcab6f74	-0.020927168
163	0xbd050949	-0.03247956
164	0xbc88bbe2	-0.016691152
165	0x3c557024	0.013027225
166	0x3d37f35e	0.044909827
167	0x3c8bad47	0.017050399
168	0x3d9a54da	0.075357154
169	0x3d93bf59	0.07214231
170	0x3d8e7dc3	0.06957581
171	0xbd491a74	-0.049097493
172	0x3e0ad84d	0.13559075
173	0xbdc95829	-0.09831268
174	0x3d621130	0.055192173
175	0xbcbb1de6	-0.022841405
176	0x3c0cea50	0.008600786
177	0xbd818bd1	-0.06325496
178	0xbc8070a2	-0.015678708
179	0xbda21c91	-0.07915605
180	0xbe2913bf	-0.16511439
181	0x3dec1d9d	0.11529086
182	0x3cf7f8ed	0.030270064
183	0x3d99e907	0.075151496
184	0xbd64179f	-0.05568659
185	0x3d7b01c0	0.061280966
186	0x3d1c2916	0.03812512
187	0xbc034dab	-0.008014123
188	0xbc246ca2	-0.010035666
189	0xbc7273e2	-0.014798136
190	0x3cc8c5d6	0.024508398
191	0x3dcb56f8	0.09928697
192	0xbe44450a	-0.19166961
193	0xbcad8bf2	-0.021184895
194	0x3e015973	0.12631778
195	0xbc534680	-0.0128952265
196	0xbb9bc716	-0.0047539575
197	0xbc49f57a	-0.012326593
198	0x3d0d4050	0.03448516
199	0x3d90b470	0.07065666
200	0x3d237600	0.039907455
201	0xbd4fa042	-0.050689943
202	0x3d9cf38d	0.07663641
203	0x3ca8ca6e	0.020604338
204	0xbdd82c8a	-0.1055537
205	0xbda68e23	-0.08132579
206	0xbd996e75	-0.07491771
207	0x3dd90ab3	0.10597744
208	0x3e2341c1	0.15943052
209	0xbda265d8	-0.079295814
210	0x3e035d7e	0.12828633
211	0x3d3de47c	0.046360478
212	0xbca14d28	-0.019690111
213	0xbd56be8c	-0.052427813
214	0xbdc6267f	-0.09675311
215	0x3c47b245	0.012188499
216	0xbd57bd68	-0.052670866
217	0xbbd7d0bb	-0.006586162
218	0x3db66114	0.08905235
219	0xbdbb02e7	-0.09131413
220	0x3c4b1770	0.012395725
221	0xbd389bd7	-0.045070495
222	0xbce3b229	-0.027794914
223	0x3c11353d	0.008862791
224	0x3c70b65f	0.014691918
225	0x3c93eb79	0.018056618
226	0xbcc572b7	-0.024102552
227	0x3d590e2e	0.05299204
228	0x3dc7d7ef	0.09757983
229	0xbdbe9eae	-0.093076095
230	0x3dd3f9ce	0.10350381
231	0x3c919e8c	0.017775796
232	0x3cea9512	0.028635535
233	0xbd4d32f5	-0.050097425
234	0x3ce3b54f	0.027796416
235	0xbd27bccd	-0.04095154
236	0xbcf09d04	-0.029371746
237	0x3daed86c	0.08537373
238	0xbcd4b0fe	-0.025963303
239	0x3d0df94f	0.034661587
240	0xbc2334e7	-0.009961343
241	0x3d4daed0	0.050215542
242	0xba3aea54	-0.00071302545
243	0xbcb58910	-0.022160083
244	0xbcf2b6a0	-0.029628098
245	0xbd862a57	-0.065510444
246	0x3e0bbeac	0.13646954
247	0x3d8fb67b	0.07017227
248	0x3ddb13ae	0.10697113
249	0x3c3ef76b	0.011655669
250	0xbc106812	-0.008813875
251	0x3b19829d	0.00234238
252	0x3b3068d1	0.0026917944
253	0xbd3f4e51	-0.046705548
254	0xbe044f21	-0.1292081
255	0xbcbb6416	-0.022874873

cls3.0.bias f4 [2]
0	0x3d0c4f3e	0.03425526
1	0xbc0b20e8	-0.008491732
