CLIP/saved_models/model_CLIP-14_CLIP_weights.pth (torch, 58310 bytes, 6 tensors)

cls1.0.weight f4 [10, 768]
-0.029747492 0.009988072 0.0042056404 0.032084294 0.04355886 -0.01062712 0.006986949 0.0088177165
-0.03891053 0.031119108 -0.011102241 0.04618983 -0.060048398 0.017409591 -0.008482499 0.012716474
-0.018807054 -0.030701356 -0.040554415 -0.009295496 -0.02792494 -0.01544215 0.03654725 -0.06344505
-0.009903041 0.018375993 -0.0023984862 0.006198554 -0.022830132 -0.007162566 0.0534036 -0.010745418
0.040710375 0.0472489 -0.048217393 0.012611749 0.012312454 -0.032132868 0.007824847 -0.0028426072
-0.03710115 -0.073442206 0.011106865 0.006094048 0.010575998 0.0063661626 0.018176896 -0.016521808
-0.019117922 0.013522856 -0.03404559 -0.0015655432 0.048054077 0.032646798 0.013978212 -0.0099535305
-0.00040436134 -0.006763664 0.019947244 0.05056363 -0.068864465 0.008219282 -0.018505318 0.05525865
-0.041660324 0.03923804 -0.001409453 0.016782075 -0.045260854 -0.008018182 -0.024473429 -0.004985907
0.015464145 0.012414473 0.0274748 0.03465734 -0.00072629476 -0.057769254 0.0035050688 0.006303769
-0.042608187 0.0072952374 0.0013170532 0.00035336718 -0.00013844678 -0.022411825 0.0049876063 0.026440803
-0.027600063 -0.014662646 -0.03837565 -0.011094035 0.028773824 0.035156846 -0.009698834 0.025611864
-0.018391548 -0.016307125 0.020006856 -0.016307272 -0.008144352 0.0072683343 -0.027469208 -0.000517783
-0.02317143 -0.004151131 -0.0043789377 0.0040577212 0.038486768 0.01693274 0.015715843 -0.020231664
0.0062050875 -0.0015483018 0.040796883 -0.0079022525 -0.008866427 0.020690173 -0.01853786 -0.0013465702
-0.002736044 -0.012284048 -0.01996651 -0.0053286063 -0.022413397 -0.007745426 -0.017136088 -0.061229512
-0.012794294 0.027026929 -0.018826172 0.008626706 0.00885375 -0.006790137 0.019759582 -0.008153208
0.022517925 -0.03284672 0.03581499 -0.0027985836 0.002024101 -0.0007705356 0.0279745 0.012528191
-0.052597366 -0.01022676 -0.02559442 -0.01579237 0.009853601 -0.041958515 0.074720986 -0.003281753
-0.009354971 -0.026171597 -0.019226512 -0.039606266 0.022353362 -0.03692079 -0.048834674 0.0005064701
0.052751828 0.018274669 0.01081992 0.021290096 -0.0032743902 -0.04483752 -0.0047826753 -0.04991484
-0.038154345 0.05586628 0.009047686 -0.0052147447 0.052207723 0.024380488 0.0043844394 0.013177824
-0.053842485 -0.024192713 0.052206356 0.023748651 0.018567203 0.015263777 0.023406506 0.012498261
-0.015786618 -0.012726796 -0.006138088 -0.039432626 -0.034801688 -0.022617668 -0.023160748 0.021250168
0.016337402 -0.00825779 -0.030010043 0.04046408 0.03401925 -0.0009252047 0.02269627 -0.029547226
0.022916345 0.016048955 0.033288993 0.032678705 -0.016422115 -0.021187196 0.0030188705 0.050811157
0.02372432 0.022081705 -0.026434047 -0.01363748 -0.013852853 -0.06126389 0.03241913 -0.033739705
0.032237705 -0.011762483 -0.0088257175 0.009098952 0.020256465 -0.0071491115 0.030696629 -0.026788004
-0.02570165 0.0055978857 0.030598244 0.033536907 0.008773062 -0.03077299 -0.039136756 -0.020568056
-0.043406725 -0.08259069 0.027059957 0.026050719 0.0071675708 -0.028199328 -0.02620802 -0.021379093
-0.03412475 -0.032667395 -0.009065459 0.0031094216 0.025299786 0.0017676658 0.0042592427 -0.03725443
0.009047787 0.021094503 0.06385201 -0.039680365 0.009312956 0.033343755 -0.0025812835 0.007276739
00000000: 03b1 f3bc 03a5 233c 78cf 893b d26a 033d
00000010: c66a 323d 5f1d 2ebc c7f2 e43b 2f78 103c
00000020: a660 1fbd 80ed fe3c 2de6 35bc 8c31 3d3d
00000030: 4ff5 75bd 8f9e 8e3c 2efa 0abc c258 503c
00000040: 4011 9abc 6981 fbbc 631c 26bd 234c 18bc
00000050: d8c2 e4bc 1201 7dbc 92b2 153d 7aef 81bd
00000060: 5d40 22bc 4089 963c ec2f 1dbb 3d1d cb3b
00000070: 4206 bbbc f5b3 eabb bcbd 5a3d 8d0d 30bc
00000080: ecbf 263d 1088 413d 9a7f 45bd 82a1 4e3c
00000090: 2dba 493c c19d 03bd c933 003c 094b 3abb
000000a0: 60f7 17bd de68 96bd 91f9 353c 94b0 c73b
000000b0: f346 2d3c 3e9b d03b b7e7 943c be58 87bc
000000c0: 309d 9cbc f88e 5d3c 6373 0bbd ea32 cdba
000000d0: 5ad4 443d a6b8 053d df04 653c 2214 23bc
000000e0: 7600 d4b9 baa1 ddbb 6768 a33c cf1b 4f3d
000000f0: d008 8dbd 2baa 063c 7798 97bc e556 623d
00000100: 04a4 2abd 11b8 203d 65bd b8ba 907a 893c
00000110: 7263 39bd b15e 03bc 807c c8bc d260 a3bb
00000120: 535d 7d3c 1366 4b3c d512 e13c dbf4 0d3d
00000130: d164 3eba 749f 6cbd 4cb5 653b d98f ce3b
00000140: ec85 2ebd e30c ef3b f9a0 ac3a 2444 b939
00000150: 062c 11b9 0199 b7bc 136f a33b 629a d83c
00000160: 8719 e2bc 983b 70bc c92f 1dbd c1c3 35bc
00000170: 15b7 eb3c a000 103d dce7 1ebc f9cf d13c
00000180: dfa9 96bc 8596 85bc 6be5 a33c d496 85bc
00000190: e36f 05bc 352b ee3b 1b07 e1bc d4bb 07ba
000001a0: 03d2 bdbc 3606 88bb 317d 8fbb a2f6 843b
000001b0: 4da4 1d3d 88b6 8a3c 83be 803c e0bc a5bc
000001c0: 0c54 cb3b 63f0 caba a21a 273d 7378 01bc
000001d0: 7d44 11bc 707e a93c b6dc 97bc 667f b0ba
000001e0: 344f 33bb 0843 49bc ce90 a3bc 979b aebb
000001f0: 4d9c b7bc 58cd fdbb fb60 8cbc cccb 7abd
00000200: 299f 51bc 9467 dd3c 5839 9abc 0757 0d3c
00000210: 520f 113c cc7f debb d9de a13c 0895 05bc
00000220: 8377 b83c 488a 06bd bdb2 123d 7168 37bb
00000230: c8a6 043b c5fd 49ba c72a e53c 0b43 4d3c
00000240: 5670 57bd 248e 27bc 64ab d1bc 005f 81bc
00000250: 0071 213c b1dc 2bbd 5107 993d ae12 57bb
00000260: 9845 19bc d165 d6bc eb80 9dbc 2e3a 22bd
00000270: 661e b73c 413a 17bd de06 48bd a2c4 043a
00000280: 4d12 583d c2b4 953c 0946 313c 9168 ae3c
00000290: 2797 56bb 8ca7 37bd fdb7 9cbb 8173 4cbd
000002a0: bb47 1cbd 0ad4 643d bf3c 143c 73e0 aabb
000002b0: c4d7 553d 97b9 c73c 58ab 8f3b cde7 573c
000002c0: f089 5cbd cc2f c6bc 55d6 553d 888c c23c
000002d0: 3f1a 983c ec14 7a3c 00bf bf3c 82c5 4c3c
000002e0: f052 81bc 0d84 50bc 0422 c9bb 1b84 21bd
000002f0: 378c 0ebd b048 b9bc 9cbb bdbc d514 ae3c
00000300: 04d6 853c ae4b 07bc 9fd7 f5bc aabd 253d
00000310: c557 0b3d 7089 72ba 87ed b93c 060d f2bc
00000320: 0fbb bb3c 1979 833c 0a5a 083d 1bda 053d
00000330: ac87 86bc c590 adbc 3ed8 453b 5c1f 503d
00000340: 8159 c23c b1e4 b43c 378c d8bc bd6f 5fbc
00000350: 14f7 62bc d8ef 7abd ecc9 043d a532 0abd
00000360: af0b 043d 6eb7 40bc be99 10bc c513 153c
00000370: e3f0 a53c 1843 eabb 7f77 fb3c 8472 dbbc
00000380: 448c d2bc 786e b73b 2ba9 fa3c ff5d 093d
00000390: e4bc 0f3c a317 fcbc dd4d 20bd 577e a8bc
000003a0: 40cb 31bd 4f25 a9bd d8ac dd3c 5168 d53c
000003b0: f1dd ea3b 4702 e7bc 34b2 d6bc 3523 afbc
000003c0: 65c6 0bbd 3fce 05bd 4a87 14bc 70c7 4b3b
000003d0: 7f41 cf3c 06b1 e73a 1e91 8b3b 1a98 18bd
000003e0: 2b3d 143c 61ce ac3c d8c4 823d e187 22bd
000003f0: 5e95 183c 7693 083d c02a 29bb b671 ee3b

cls1.0.bias f4 [10]
-0.016755514 0.01262992 -0.0021883287 0.015097504 -0.034459464 0.026377257 -0.021574343 0.023946593
0.00970099 -0.0023715787
00000000: dc42 89bc b9ed 4e3c 106a 0fbb 855b 773c
00000010: 5e25 0dbd 1e15 d83c adbc b0bc a52b c43c
00000020: e7f0 1e3c 7d6c 1bbb

cls2.0.weight f4 [6, 768]
-0.018428229 -0.0075422903 0.008263269 0.016793726 -0.027824366 0.021559283 -0.016158525 -0.02408854
0.016025774 0.01623441 -0.015397533 0.01255675 0.0013402652 -0.01898594 0.008892777 0.0045648743
0.012734411 -0.014225008 -0.02368514 -0.002028707 -0.012238365 0.0040692813 -0.0067138085 0.008341501
-0.041316744 0.0455615 -0.021101305 -0.014794933 0.024743931 -0.016398458 -0.011757605 -0.031660967
0.041608434 0.025865655 -0.03352206 0.011520805 0.00601324 -0.023792185 0.007598924 -0.007880475
0.025996111 -0.025123108 0.027668068 -0.026970908 0.026227571 0.022410996 -0.030683517 0.008281433
-0.0009881222 -0.016085183 0.00048006687 -0.0003494277 0.01257948 0.0070948373 0.011341414 -0.0048534777
-0.03583163 0.016096288 0.008952921 -0.021572683 -0.049639717 -0.00019235974 -0.028801057 0.033520017
0.0059472797 0.048117485 -0.0067135883 -0.0008945352 -0.006479728 0.018517064 -0.0019510547 0.01633214
0.0030127661 -0.009316448 0.04850224 0.019711725 -0.0365456 -0.028742198 -0.024481699 0.040110953
-0.01310344 -0.009650161 -0.002787763 -0.031130318 -0.015160563 0.0034515501 -0.040985156 -0.009936903
0.02335388 0.024394212 0.017226567 -0.02589171 0.02289105 -0.01727492 -0.011527608 -0.005432105
-0.044914573 0.007151701 -0.032582294 0.011646157 -0.018435158 -0.029021684 -0.033640258 -0.014559356
0.034502726 0.028129684 0.027761577 0.039919343 -0.011217809 -0.009618681 0.011252202 0.0088711595
0.034780923 -0.010221083 0.005013396 0.022512102 -0.020068485 -0.0023060828 -0.036017362 -0.0061020884
-0.022508122 0.036695767 -0.009611011 -0.020586466 0.0072658765 -0.034474432 -0.04179985 -0.00080293225
-0.021752808 -0.044695143 0.0011452558 -0.005789187 -0.010465516 0.029932141 -0.020736022 -0.022557337
0.021225166 0.030893633 -0.0006291652 0.0068261623 -0.0082712425 0.0016064888 0.016058328 -0.00045633627
0.020038167 -0.041754045 -0.00124512 0.029707426 -0.035381477 -0.029014211 -0.006888685 0.014352778
0.036188472 0.0074266167 0.0067396304 0.047376487 0.00090992753 -0.023288682 0.034091324 -0.028447488
-0.028668381 0.03135589 -0.018301636 -0.036421183 -0.020219196 0.0054420535 -0.021044396 0.0066209473
0.033973787 0.0069438815 -0.0013419843 -0.0126919495 0.017596109 -0.020333454 0.026688855 -0.035562653
0.036571264 0.02425539 -0.017615069 -0.026195498 -0.027268652 0.005213178 0.0031655878 -0.012629346
0.009714025 0.02168828 -0.0080926595 -0.012021489 0.023499647 -0.010582222 -0.025647417 -0.040637713
-0.020992953 0.017984323 0.00611511 0.00741778 -0.029242417 0.009063922 0.058286462 -0.034703806
-0.012173494 -0.021258721 0.021074818 0.023560448 0.023737205 0.03974791 0.0049472116 -0.03623759
-0.008241566 0.02566612 -0.009820027 -0.02167325 0.023282528 -0.004131858 0.017544623 -0.023113923
0.014915749 -0.026521217 0.023444567 0.011233576 -0.005967023 0.0057287705 -0.04436764 -0.0047202823
0.021575894 0.026805762 0.023732528 -0.036888897 0.0028887014 0.028524017 0.03872541 -0.023134243
-0.019671142 0.034848176 -0.04323094 0.05340717 -0.0028476464 -0.026833458 -0.023137758 -0.043661624
-0.0071907807 -0.003945701 -0.027893644 0.0072310073 -0.04129428 -0.022425557 -0.012054176 0.031965278
-0.01688286 -7.257857e-05 -0.008536907 -0.014139002 0.011470818 0.045253508 -0.009583777 0.004759259
00000000: ccf6 96bc 5125 f7bb aa62 073c ff92 893c
00000010: edef e3bc 189d b03c e25e 84bc 5455 c5bc
00000020: 7c48 833c 07fe 843c ef45 7cbc d4ba 4d3c
00000030: d6ab af3a 6788 9bbc 03b3 113c f194 953b
00000040: fea3 503c 0210 69bc 5707 c2bc 0ef4 04bb
00000050: 6c83 48bc 9b57 853b 82ff dbbb caaa 083c
00000060: bf3b 29bd b29e 3a3d a5dc acbc 7266 72bc
00000070: c9b3 ca3c 0f56 86bc f8a2 40bc eeae 01bd
00000080: 9b6d 2a3d 36e4 d33c 6d4e 09bd c2c1 3c3c
00000090: b70a c53b d4e7 c2bc 6500 f93b 1c1d 01bc
000000a0: ccf5 d43c face cdbc 25a8 e23c 18f2 dcbc
000000b0: 34db d63c 4497 b73c 005c fbbc d9ae 073c
000000c0: e183 81ba 13c5 83bc 7cb1 fb39 6433 b7b9
000000d0: 2a1a 4e3c cf7b e83b 57d1 393c ec09 9fbb
000000e0: 30c4 12bd 5ddc 833c 46af 123c 32b9 b0bc
000000f0: 0453 4bbd 2db4 49b9 32f0 ebbc 494c 093d
00000100: 66e1 c23b d716 453d a9fd dbbb 3e7f 6aba
00000110: e653 d4bb 19b1 973c 88ba ffba fbca 853c
00000120: d471 453b 04a4 18bc 49aa 463d 7c7a a13c
00000130: d7b0 15bd c274 ebbc d88d c8bc 624b 243d
00000140: d0af 56bc b51b 1ebc e7b2 36bb 0205 ffbc
00000150: 0364 78bc 6733 623b 0de0 27bd 64ce 22bc
00000160: a350 bf3c 5fd6 c73c bb1e 8d3c da1a d4bc
00000170: 0386 bb3c 2284 8dbc 4bde 3cbc cdff b1bb
00000180: 58f8 37bd d158 ea3b 0375 05bd 86cf 3e3c
00000190: 5405 97bc e2be edbc 5eca 09bd 5d8a 6ebc
000001a0: bb52 0d3d 3970 e63c 3f6c e33c 7782 233d
000001b0: e7ca 37bc ac97 1dbc 285b 383c 5758 113c
000001c0: 7176 0e3d 5476 27bc 6a47 a43b 4d6b b83c
000001d0: aa66 a4bc a621 17bb f186 13bd 07f4 c7bb
000001e0: f462 b8bc 4d4e 163d 8077 1dbc f3a4 a8bc
000001f0: 9716 ee3b 1035 0dbd 5236 2bbd df7b 52ba
00000200: f232 b2bc 4112 37bd 681c 963a 38b3 bdbb
00000210: 8e77 2bbc 4034 f53c 97de a9bc 2aca b8bc
00000220: 66e0 ad3c a514 fd3c 90ee 24ba 00ae df3b
00000230: 1b84 07bc d290 d23a c18c 833c 6b40 efb9
00000240: 1527 a43c 4a06 2bbd 4b33 a3ba fd5c f33c
00000250: 2bec 10bd 36af edbc 7aba e1bb ea27 6b3c
00000260: 5d3a 143d fa5a f33b 1ed8 dc3b d90d 423d
00000270: 3488 6e3a e8c7 bebc 58a3 0b3d b50a e9bc
00000280: f4d9 eabc 096f 003d 50ed 95bc 612e 15bd
00000290: baa2 a5bc 4153 b23b 4c65 acbc 88f4 d83b
000002a0: 1928 0b3d 8089 e33b 85e5 afba e5f1 4fbc
000002b0: b725 903c 5892 a6bc 96a2 da3c 25aa 11bd
000002c0: c0cb 153d 3db3 c63c 7a4d 90bc f197 d6bc
000002d0: 8262 dfbc 4fd3 aa3b c075 4f3b 51eb 4ebc
000002e0: 9327 1f3c 9fab b13c 1397 04bc c8f5 44bc
000002f0: 5582 c03c 0e61 2dbc 881a d2bc bb73 26bd
00000300: 6af9 abbc dc53 933c 4361 c83b d910 f33b
00000310: cb8d efbc d880 143c c9bd 6e3d 9425 0ebd
00000320: 5673 47bc c526 aebc 19a5 ac3c d701 c13c
00000330: 8774 c23c b4ce 223d 381c a23b de6d 14bd
00000340: a207 07bc c141 d23c 2ee4 20bc 198c b1bc
00000350: 00bb be3c 8964 87bb beb9 8f3c 6959 bdbc
00000360: 3061 743c 0643 d9bc d20e c03c 080d 383c
00000370: 0487 c3bb 69b8 bb3b d8ba 35bd 99ac 9abb
00000380: eebf b03c c297 db3c b86a c23c d018 17bd
00000390: 5e50 3d3b 33ab e93c 899e 1e3d 0684 bdbc
000003a0: 6025 a1bc f6bc 0e3d ed12 31bd 7ac1 5a3d
000003b0: 949f 3abb d7d1 dbbc 658b bdbc 88d6 32bd
000003c0: a4a0 ebbb f04a 81bb 3681 e4bc 16f2 ec3b
000003d0: 3124 29bd cdb5 b7bc e17e 45bc 06ee 023d
000003e0: ec4d 8abc 5335 98b8 62de 0bbc 46a7 67bc
000003f0: 19f0 3b3c be5b 393d 4605 1dbc 8ff3 9b3b

cls2.0.bias f4 [6]
-0.031609144 0.011724459 0.027583512 0.0059085945 0.022295961 -0.024634141
00000000: 9778 01bd f217 403c d1f6 e13c e29c c13b
00000010: 05a6 b63c 8acd c9bc

cls3.0.weight f4 [2, 768]
0.005165423 -0.026437048 0.015279079 0.014239458 0.02776075 0.03432115 0.022796677 -0.008635311
0.0006480477 -0.0055906964 -0.032539863 0.039913 0.013716959 0.005715744 0.020409947 -0.008225658
0.025154328 -0.020682048 -0.022442942 -0.01806972 0.030968038 0.0020415625 -0.014150345 -0.015692754
0.021563407 0.020450767 0.012275426 0.01559219 -0.005690617 -0.046276223 -0.027477117 -0.02819952
-0.0026944953 0.033158496 0.017312827 0.02284418 -0.017474148 -0.037648953 0.009543869 -0.024788853
-0.013282774 0.0013550905 0.007372309 -0.035667624 0.03349127 0.010249473 -0.021611981 -0.025070893
-0.024514155 -0.039187748 0.025211548 0.013237231 -0.031877197 0.028690359 -0.031056426 -0.018937973
0.017212847 0.020289151 0.03268785 -0.008793048 0.02076884 -0.0066132057 0.025822995 0.025285874
-0.037418935 0.009018412 0.02808817 0.02571865 0.028577385 0.017906114 -0.034306817 0.0024612767
-0.017460955 -0.0263163 -0.028968131 0.002567305 0.023475409 0.009169482 0.010303671 -0.0076757846
-0.00041717134 -0.00012305555 -0.020364156 0.007052327 0.03605829 -0.008859179 0.025924759 -0.020469934
-0.03930849 -0.025962142 -0.01823026 -0.014756283 -0.008226383 -0.008069702 -0.02694784 0.0042260815
0.012514564 -0.022019736 -0.03682275 -0.029869467 -0.01719342 0.010552417 -0.03483362 -0.036033627
-0.014648 -0.009426684 -0.015428727 -0.00089756504 0.03709878 0.033588246 0.0114913015 0.021293838
0.00999595 0.025450904 -0.022178449 0.0016810936 -0.0063914447 0.010756906 -0.010963778 0.012214846
-0.006225875 0.009330174 -0.03639208 0.020437967 0.020325705 -0.002087152 0.011372964 0.02793492
-0.024481308 0.009005243 0.027517363 0.0023917374 0.032216508 0.005996521 -0.034120686 -0.025197798
-0.018225996 -0.010280279 0.012538574 0.012949841 -0.010786429 -0.022012906 -0.00485951 0.011254548
-0.03587276 0.021356884 0.020154662 0.014278115 -0.004715576 -0.022797583 0.025150353 -0.03155799
0.0046300017 -0.025390388 -0.027582668 -0.020035572 -0.02768573 0.029807316 -0.031661466 -0.026810057
-0.013072503 0.04029536 -0.009555428 0.028189585 -0.03221819 -0.022971127 0.0126607595 0.000567026
-0.015589551 0.02180319 0.0035480275 -0.033168226 -0.031494703 -0.012391806 0.0070762234 0.0012795565
-0.02703027 -0.012910696 -0.016798336 -0.01624272 -0.017928079 -0.0042836065 0.029912997 -0.017431255
-0.02814826 0.018727962 0.03317047 -0.014446449 0.0012807588 -0.030813377 0.016948672 -0.03399807
0.024350677 -0.02901235 -0.0143319955 -0.005966769 0.032739304 0.037188865 -0.010881512 -0.02640184
-0.01609183 0.021608803 0.035950482 0.03713649 -0.031360127 -0.014009604 0.035366394 -0.0048971022
0.020378072 -0.012252716 -0.00089927437 0.0009864196 -0.010409426 0.005434738 -0.02094348 0.03477499
0.010664441 0.0033949867 -0.012686492 -0.015309316 0.016596567 0.037018068 0.021909822 0.027136045
-0.005333554 -0.023478497 -0.0066096717 0.016957007 -0.000520005 0.029222155 -0.008218989 0.03432426
0.0044341264 0.0113107255 -0.018917333 -0.022607889 0.005581198 0.023287388 0.026119452 -0.010006653
-0.026042938 0.032445144 -0.0037098709 0.030196497 0.02498364 -0.02882318 0.024842525 0.0073719244
-0.019108335 -0.00030515293 -0.0067459317 0.008141118 -0.02209611 -0.039053503 0.019908627 -0.03262077
00000000: b542 a93b 8292 d8bc 1a55 7a3c 9e4c 693c
00000010: 836a e33c 5694 0c3d 19c0 ba3c 1f7b 0dbc
00000020: bfe1 293a 2932 b7bb 8548 05bd d07b 233d
00000030: 19bd 603c 234b bb3b c332 a73c e9c4 06bc
00000040: 7310 ce3c 666d a9bc 43da b7bc f306 94bc
00000050: afb0 fd3c bccb 053b d9d6 67bc 178e 80bc
00000060: bea5 b03c 5e88 a73c de1e 493c 6376 7f3c
00000070: 5b78 babb 238c 3dbd b117 e1bc ae02 e7bc
00000080: 2196 30bb 34d1 073d a1d3 8d3c b823 bb3c
00000090: f225 8fbc ca35 1abd e35d 1c3c fe11 cbbc
000000a0: fe9f 59bc 4b9d b13a 6993 f13b 3718 12bd
000000b0: 242e 093d 68ed 273c 9c0b b1bc 7961 cdbc
000000c0: e9d1 c8bc 5583 20bd 7388 ce3c f9e0 583c
000000d0: aa91 02bd 0b08 eb3c 0c6a febc cf23 9bbc
000000e0: f501 8d3c 6f35 a63c b2e3 053d b710 10bc
000000f0: 6a23 aa3c 97b3 d8bb bf8a d33c 5224 cf3c
00000100: 9944 19bd f6c1 133c 2919 e63c ebaf d23c
00000110: 1f1b ea3c d8af 923c 4e85 0cbd 5f4d 213b
00000120: 470a 8fbc 4895 d7bc 934e edbc 3b40 283b
00000130: 804f c03c 983b 163c bad0 283c 2685 fbbb
00000140: cab7 dab9 7908 01b9 bbd2 a6bc 3517 e73b
00000150: dcb1 133d 1726 11bc 2960 d43c 90b0 a7bc
00000160: f001 21bd 8fae d4bc a057 95bc 56c4 71bc
00000170: f3c7 06bc c936 04bc b7c1 dcbc f17a 8a3b
00000180: e309 4d3c bc62 b4bc 74d3 16bd d0b0 f4bc
00000190: 37d9 8cbc 0be4 2c3c b3ad 0ebd ff97 13bd
000001a0: 2afe 6fbc 6172 1abc c5c8 7cbc 924a 6bba
000001b0: e4f4 173d d493 093d 0346 3c3c 6a70 ae3c
000001c0: 0ec6 233c 6a7e d03c 94af b5bc 2458 dc3a
000001d0: 536f d1bb bc3d 303c 6ba1 33bc c720 483c
000001e0: 6d02 ccbb 96dd 183c dd0f 15bd 866d a73c
000001f0: 1882 a63c 9ac8 08bb ab55 3a3c c6d7 e43c
00000200: 068d c8bc ba8a 133c 186c e13c b2be 1c3b
00000210: 75f5 033d 777e c43b 22c2 0bbd 9d6b cebc
00000220: af4e 95bc 9e6e 28bc 976e 4d3c 922b 543c
00000230: 90b9 30bc 6954 b4bc 863c 9fbb ff64 383c
00000240: 51ef 12bd a2f4 ae3c 641b a53c c1ee 693c
00000250: 1e85 9abb ffc1 babc 1d08 ce3c f342 01bd
00000260: 45b7 973b 81ff cfbc 0cf5 e1bc a421 a4bc
00000270: 2fcd e2bc 792e f43c 74af 01bd c4a0 dbbc
00000280: 0d2e 56bc bf0c 253d 5f8e 1cbc d8ed e63c
00000290: 39f7 03bd f22d bcbc 136f 4f3c 79a4 143a
000002a0: 516b 7fbc 9a9c b23c 0686 683b 68db 07bd
000002b0: 9700 01bd 0007 4bbc aadf e73b cbb6 a73a
000002c0: 966e ddbc 6287 53bc aa9c 89bc 740f 85bc
000002d0: e8dd 92bc 7f5d 8cbb 1a0c f53c fecb 8ebc
000002e0: 2e97 e6bc 626b 993c c2dd 073d ccb0 6cbc
000002f0: 22df a73a 566c fcbc f1d7 8a3c 8f41 0bbd
00000300: 127b c73c 4fab edbc bfd0 6abc e384 c3bb
00000310: a619 063d 5a53 183d 5f48 32bc ac48 d8bc
00000320: 03d3 83bc f204 b13c d040 133d 6f1c 183d
00000330: 7a73 00bd 8a88 65bc 5adc 103d df77 a0bb
00000340: eaef a63c 9ebf 48bc 48bd 6bba c04a 813a
00000350: 4c8c 2abc e315 b23b a991 abbc 3870 0e3d
00000360: e8b9 2e3c 6d7e 5e3b 01db 4fbc edd3 7abc
00000370: 86f5 873c 42a0 173d 3a7c b33c 694c de3c
00000380: 18c5 aebb fa55 c0bc f295 d8bb 6ce9 8a3c
00000390: f250 08ba 4d63 ef3c f0a8 06bc 9897 0c3d
000003a0: 264c 913b 9f50 393c 86f8 9abc 2e34 b9bc
000003b0: 7be2 b63b 31c5 be3c 76f8 d53c f2f2 23bc
000003c0: 0058 d5bc 33e5 043d 4e21 73bb a55e f73c
000003d0: 7eaa cc3c 971e ecbc 8d82 cb3c 2f90 f13b
000003e0: 1589 9cbc effc 9fb9 fa0c ddbb 5362 053c
000003f0: e702 b5bc 91f6 1fbd 6b17 a33c 5b9d 05bd

cls3.0.bias f4 [2]
-0.028572792 -0.032612767
00000000: 7d11 eabc f794 05bd
