CLIP/saved_models/model_CLIP-16_CLIP_2024-0423_weights.pth (torch, 38790 bytes, 2 tensors)

classifier.0.weight f4 [18, 512]
0	0xbe3d40a9	-0.18481697
1	0xbd336d37	-0.043805327
2	0xbdd8d21d	-0.10586951
3	0xbce204bd	-0.02759015
4	0xbd9f94f6	-0.07792084
5	0x3e0a4442	0.13502601
6	0x3ccdb064	0.025108524
7	0xbc82fb04	-0.015988834
8	0xbe50fd97	-0.20409237
9	0x3db0d4e4	0.08634356
10	0x3d193c27	0.03741088
11	0x3d9a4743	0.07533123
12	0x3d10d161	0.03535593
13	0xbdc1eaa5	-0.09468583
14	0xbd2ebc83	-0.042660248
15	0xbe07bf27	-0.13256513
16	0xbd9484e5	-0.0725191
17	0xbd41d0ea	-0.047318377
18	0xbdd28c80	-0.102807045
19	0xbb98900c	-0.0046558436
20	0xbd8c09e6	-0.068378255
21	0x3d8e6e88	0.06954676
22	0x3e0fd4af	0.14045976
23	0xbe135e56	-0.14391455
24	0x3de4c1d4	0.11169782
25	0xbddd9b7e	-0.108206734
26	0xbd575b7b	-0.052577477
27	0x39aa7ff8	0.0003252027
28	0xbc9f1efd	-0.019423956
29	0x3d6b9d68	0.05752316
30	0x3d165843	0.036705267
31	0x3c17e7f3	0.00927161
32	0x3e327d28	0.17430556
33	0x3d20194a	0.039086618
34	0x3d4622ca	0.04837302
35	0x3da57809	0.080795355
36	0xbdd4a31e	-0.10382675
37	0xbad78642	-0.001644321
38	0x3d9ddfd7	0.0770871
39	0xbd334e6e	-0.04377597
40	0x3e64ea08	0.22354901
41	0x3e2ce420	0.16883898
42	0x3d2c0f0b	0.042006534
43	0xbd7cca51	-0.06171638
44	0x3d545217	0.0518361
45	0x3e05f772	0.13082674
46	0xbdda683d	-0.10664413
47	0x3e168160	0.1469779
48	0x3cfa5607	0.0305586
49	0x3e7728bf	0.24136637
50	0x3da8dcd3	0.08245244
51	0x3c56cf4d	0.013110948
52	0x3aba978d	0.001423584
53	0xbe58a64b	-0.21157186
54	0x3d8e74da	0.069558814
55	0x3e1f7b88	0.15574467
56	0xbc933040	-0.017967343
57	0x3da08715	0.07838265
58	0x3d550b1c	0.052012548
59	0x3e39510c	0.18097323
60	0xbc05859d	-0.008149532
61	0xbd050177	-0.0324721
62	0xbc797638	-0.015225939
63	0x3c985059	0.018593
64	0xbdc0425f	-0.09387659
65	0x3e3f095d	0.18655916
66	0x3da76192	0.08172907
67	0x3d3ef717	0.046622362
68	0xbe125a54	-0.1429227
69	0x3e413a32	0.18869856
70	0x3dbd6aff	0.092489235
71	0x3d33cf5b	0.04389892
72	0x3d1abcf5	0.03777786
73	0xbb82d1bd	-0.003992288
74	0x3d9283ba	0.07154031
75	0x3d9f740a	0.077858046
76	0x3dbdd069	0.09268267
77	0xbd40ae0c	-0.047040984
78	0xbd15a4d5	-0.03653415
79	0xbdb695dd	-0.08915303
80	0xbdd1f5c5	-0.10251955
81	0x3d4c0e49	0.04981831
82	0x3d82d7bb	0.063888036
83	0x3d42d38e	0.047565036
84	0xbd0c375a	-0.034232475
85	0xbc49843b	-0.012299593
86	0x3cc0a4d7	0.023516102
87	0x3dd3d36a	0.103430584
88	0xbd13510e	-0.03596597
89	0x3e2b4f20	0.16729403
90	0xbd045866	-0.032310866
91	0x3e02beb0	0.12768054
92	0xbd8c1404	-0.06839755
93	0xbd4860e5	-0.04892053
94	0xbc8853ad	-0.016641462
95	0xbe189a15	-0.14902528
96	0xbdfd7373	-0.12375536
97	0x38f1e531	0.00011534466
98	0x3c930976	0.017948847
99	0xbd9361e4	-0.071964055
100	0x3df08e1b	0.117458545
101	0x3de40816	0.11134355
102	0xbcfc39ef	-0.030789344
103	0xbd5e31fb	-0.054246884
104	0x3d8a6050	0.067566514
105	0x3e1903e1	0.14942886
106	0xbcba0f33	-0.022712326
107	0xbc22e6b5	-0.0099427
108	0x3e2933a4	0.16523606
109	0x3d6bbd27	0.057553437
110	0xbcc39bb3	-0.023877954
111	0x3d875cb1	0.06609476
112	0x3cbc9455	0.023019949
113	0xbd47704d	-0.048691083
114	0xbe21f3c2	-0.15815642
115	0x3c094ff5	0.00838088
116	0x3bcbc142	0.0062181065
117	0x3e91d66f	0.28483912
118	0xbd5d2c73	-0.05399747
119	0x3e02f723	0.12789588
120	0xbdd0c47c	-0.101937264
121	0x3dd096e6	0.101850316
122	0xbd08d4af	-0.033405956
123	0x3d16a29e	0.036776178
124	0xbe3b2f04	-0.18279654
125	0xbd4d6220	-0.050142407
126	0xbd6cc6b5	-0.05780669
127	0x3b8aeb9e	0.0042395135
128	0x3c3d91b5	0.011570384
129	0xbd76ddc8	-0.0602701
130	0x3ea85ed1	0.3288484
131	0x3d952cfc	0.07283971
132	0x3e431ed8	0.19054735
133	0xbbcdb286	-0.006277385
134	0x3d6832e8	0.056689173
135	0xbe3a8296	-0.18213877
136	0x3d4ef282	0.050524242
137	0xbe1da014	-0.15393096
138	0x3dae954f	0.08524572
139	0xbdc187df	-0.094497435
140	0x3cb1fa13	0.02172569
141	0xbd0e72f5	-0.0347776
142	0x3d570e76	0.052504025
143	0xbe627633	-0.22115402
144	0x3dfae4ce	0.12250672
145	0x3c23daa0	0.010000855
146	0x3e6a852f	0.22902368
147	0xbdb8d74f	-0.09025442
148	0x3e7ba87c	0.2457599
149	0x3cd2badd	0.025723869
150	0x3cf3e002	0.029769901
151	0x3d118be1	0.03553379
152	0x3dc85553	0.09781899
153	0xbd6bde43	-0.057585012
154	0xbceccf79	-0.028907524
155	0xbe0ed55d	-0.13948579
156	0x3e651caf	0.22374223
157	0xbe28d7d8	-0.16488588
158	0x3d816709	0.063184805
159	0xbdcfd366	-0.10147743
160	0xbe291453	-0.1651166
161	0xbd57827c	-0.052614674
162	0x3db86644	0.090038806
163	0x3cefd368	0.029275611
164	0xbe45aaad	-0.19303389
165	0x3d31f01c	0.043441877
166	0xbd7ed4c0	-0.062214613
167	0x3db480e8	0.088136494
168	0x3da8878e	0.0822898
169	0x3d231caa	0.039822258
170	0x3de9db1b	0.11418744
171	0xbd5a0859	-0.053230617
172	0xbd6cfce6	-0.05785837
173	0x3dfe9f54	0.12432733
174	0x3c0e8f46	0.008701151
175	0x3c740a07	0.014894969
176	0xbc94457f	-0.018099545
177	0x3e6ec561	0.23317482
178	0xbe4cfbc1	-0.20017911
179	0xbe8a46e1	-0.270072
180	0xbe15e870	-0.14639449
181	0x3e2d1974	0.16904241
182	0x3d6b5b48	0.0574601
183	0xbd979a3e	-0.07402466
184	0x3e46ee6b	0.19426887
185	0x3a705f5d	0.00091694837
186	0xbac36718	-0.0014908044
187	0xbb74b563	-0.003733956
188	0xbdb3a770	-0.087721705
189	0xbdc4be32	-0.096065894
190	0x3d9b0009	0.07568366
191	0x3da6d006	0.08145146
192	0xbe3f97e6	-0.18710288
193	0xbc34d0e0	-0.011036128
194	0x3d637a9c	0.05553685
195	0xbdbbea55	-0.09175555
196	0xbde4f1cb	-0.11178931
197	0x3d288ce8	0.041150004
198	0xbe197928	-0.14987624
199	0x3d9be2f9	0.07611651
200	0xbdef0513	-0.1167089
201	0xbd4b2bf1	-0.049602453
202	0xbdccaa0c	-0.09993371
203	0x3da4e670	0.08051765
204	0xbd5fc91e	-0.05463516
205	0xbdd8659c	-0.105662555
206	0xbd1fe23b	-0.03903411
207	0xbd58568c	-0.052816913
208	0xbd46ccdf	-0.048535224
209	0xbd32d6e3	-0.043661963
210	0xbd3b1567	-0.045674708
211	0x3e1bc4db	0.15211813
212	0x3d90ab62	0.07063939
213	0x3df87e16	0.12133424
214	0x3d5a26a5	0.05325951
215	0xbcc8add1	-0.024496945
216	0xbb945671	-0.004526906
217	0xbe12e930	-0.14346766
218	0x3d86ed27	0.06588202
219	0xbdb39da9	-0.08770306
220	0xbceb94ad	-0.028757418
221	0x3dba4ed4	0.090970665
222	0xbdf0bac8	-0.11754376
223	0x3c56f18a	0.013119111
224	0xbc8655b8	-0.016398296
225	0x3de4d460	0.1117332
226	0x3d930ef1	0.07180584
227	0xbd8b0a60	-0.06789088
228	0x3d89f852	0.067368165
229	0xbd4afcd2	-0.049557514
230	0xbc895b26	-0.016767096
231	0xbe0bcf10	-0.13653207
232	0xbd4720cc	-0.048615262
233	0xbd768c0c	-0.060192153
234	0x3e182fa7	0.14861928
235	0xbaf38643	-0.0018579442
236	0xbdf91c60	-0.12163615
237	0x3e031fca	0.12805095
238	0x3d03d3f2	0.03218455
239	0xbda018a8	-0.07817203
240	0x3e10b7dd	0.14132638
241	0xbe4068b1	-0.18789937
242	0xbd42f726	-0.04759898
243	0xbd6c511b	-0.057694536
244	0xbb3fba1d	-0.002925522
245	0x3da766ef	0.0817393
246	0xbdf2a512	-0.11847891
247	0xbcd0e641	-0.025500419
248	0x3e029280	0.12751198
249	0x3d233a19	0.039850328
250	0xbea4b893	-0.3217207
251	0x3e175914	0.14780074
252	0x3d655f39	0.055999015
253	0x3d5230f2	0.05131621
254	0xbc30dc78	-0.010794751
255	0x3c935ee4	0.017989583

classifier.0.bias f4 [18]
0	0x3c786f6b	0.015163283
1	0x3c0b3345	0.00849611
2	0x3ab6024f	0.0013886186
3	0xbcbc1032	-0.022956941
4	0xbcaafee3	-0.020873493
5	0xbc369180	-0.011143088
6	0xbc9d0dde	-0.019171651
7	0xbc514fd7	-0.012775383
8	0xbce11e55	-0.027480284
9	0x3cf8fe47	0.030394686
10	0xb7793476	-1.4853771e-05
11	0xbc964edb	-0.018348148
12	0xbcc0c438	-0.023531064
13	0xbbc7b4ab	-0.0060945353
14	0xbc200664	-0.009767149
15	0x3978ef0e	0.00023740178
16	0xbcbb2296	-0.02284364
17	0xbc19d1e3	-0.00938842
